results/CIFAR100_dataset/contrastive_loss/margin_2.0_first_model_nb_classes_50_data_percent_60/model_ckpt.pt (torch_old, 802778 bytes, 6 tensors)

layer1.0.weight f4 [64, 3072]
000000 1c 92 de 3a e6 cd 79 b9 ce 32 67 3c ca 0a 0e bb
       0.00169808 -0.00023823194 0.014111234 -0.0021673911
000010 a0 a3 6a 3b 7e e2 f8 3b 62 d6 5a bc 9f 69 be 3b
       0.0035803095 0.0075953593 -0.013356777 0.005810931
000020 b8 b7 b8 bb 4a c8 cb b9 ec e1 09 3c 87 27 93 3c
       -0.0056371354 -0.00038868404 0.00841568 0.017963184
000030 6b 9b d1 bb 43 cc e3 bb 41 d6 4d bb bb b5 07 3c
       -0.006396701 -0.00695184 -0.0031408223 0.008283074
000040 5c ce 0d bb e3 f3 ab ba 02 e0 ea bb 5c 56 8c 3c
       -0.0021637892 -0.0013118949 -0.007167817 0.017131023
000050 60 5f 62 3c 8d 6b 39 bc 98 e2 8a bc a8 6c 0c bb
       0.0138166845 -0.011317146 -0.016953751 -0.002142707
000060 e5 6a 88 bb 77 40 84 bc fe 73 9f bb 19 5e 72 bc
       -0.0041631334 -0.01614402 -0.0048661223 -0.014792942
000070 61 2c 44 bc c6 c2 fc 3b 22 f4 80 bc 4f 10 4d bc
       -0.011973471 0.0077136485 -0.015741412 -0.012516095
000080 6f 0a 48 bb 2a 64 3e ba 81 5f 22 3a 3c bd 10 bc
       -0.0030523797 -0.00072628504 0.0006194041 -0.0088341795
000090 b5 7b 93 3c 29 6c 29 bb cf 85 62 3c 63 f2 05 3c
       0.018003324 -0.0025851822 0.013825848 0.008175465
0000a0 3d 63 5a bc 0d f7 3c bc e8 15 8d 3c c6 eb e4 3b
       -0.013329324 -0.011533511 0.01722236 0.006986114
0000b0 d2 04 33 bc 49 2c 8c 3c 42 bc 35 bc 23 83 c1 3a
       -0.010926442 0.01711096 -0.011092247 0.0014763813
0000c0 3d aa 9d 3a 4a 52 33 bb e8 e6 46 bc 78 a6 8e bc
       0.0012028884 -0.002736228 -0.012140013 -0.017413363
0000d0 ee ab 4a bc 5d 3e af bb a9 b0 ba 3b 39 53 cb 3b
       -0.012370093 -0.0053480105 0.005697329 0.0062049893
0000e0 3c 0e 8a bc ed c0 ac ba eb f7 c9 3b a6 79 8a 3c
       -0.01685249 -0.0013180055 0.0061635873 0.01690371
0000f0 8b 18 54 3b 14 40 2f ba 02 da ce 3b ab f8 43 bc
       0.0032363262 -0.00066852686 0.0063126097 -0.0119611425
000100 8a e5 6d bc d8 d3 d2 3b a8 0c 16 3c 35 2f 20 3c
       -0.014520058 0.006433945 0.009158291 0.00977688
000110 c5 6e 4a 3c ca e1 5b bc 8b 84 4a 3b 14 3e 9e 3c
       0.012355511 -0.0134205315 0.0030901756 0.01931671
000120 f6 e5 06 3c fd a3 81 3c c7 9a 00 bc 82 65 bf bb
       0.008233538 0.015825266 -0.007849402 -0.005840958
000130 17 82 26 3c af 4c 67 3c 7d 77 32 bc 4b 0f 48 bc
       0.010162852 0.014117404 -0.010892746 -0.012210677
000140 41 5a 6d 3c 39 e8 d6 3a 21 6b 90 bb bc 09 62 3b
       0.01448685 0.0016396112 -0.004407302 0.0034490665
000150 a9 8c 75 bc 77 f5 5a bc 4b 0a 40 3c 1a db 71 bc
       -0.014987149 -0.013364187 0.011721204 -0.014761711
000160 2c 44 75 bb b0 f9 4d bc de c0 21 bc c1 89 3a 3c
       -0.0037424667 -0.012571737 -0.009872643 0.011385382
000170 93 c1 84 3c 10 cb c9 38 c0 07 da bb 3d 39 1b bb
       0.016205585 9.62225e-05 -0.006653756 -0.002368524
000180 9e 17 8f bb 47 09 ac 3b d7 35 d5 3b 02 dd 5b bc
       -0.004366829 0.0052501294 0.0065066624 -0.013419392
000190 fa 99 c2 3b 9d a3 3c 3c a6 8d 69 3c df c0 5d bc
       0.0059387656 0.011513618 0.014254963 -0.013534754
0001a0 36 6f 78 3c 9d 99 8f 39 86 09 2f 3c 00 15 36 bc
       0.0151632335 0.00027389536 0.010683423 -0.011113405
0001b0 ea 86 64 3c c3 9a 8d 3c f9 6f 35 bc bf 95 81 bb
       0.013948182 0.01728571 -0.01107406 -0.0039546187
0001c0 1f e1 76 3c b3 5f 7c bc 95 ad b1 bb 58 00 4a bc
       0.0150683215 -0.015403676 -0.005422304 -0.0123291835
0001d0 d5 93 b2 3a 52 3e 3e 3c e8 f4 08 3b 43 10 81 3a
       0.001362438 0.011611538 0.0020897929 0.0009846765
0001e0 fd 38 64 ba 59 81 08 3c 37 07 4f bb ee 43 8b 3a
       -0.00087060017 0.00833162 -0.0031589994 0.0010625103
0001f0 1d 64 5d 3b 59 86 29 3c 18 b0 66 bc 28 43 3d bb
       0.0033781596 0.010346972 -0.01408007 -0.002887914
000200 b9 d6 2b bc 31 33 29 3b b4 3d f4 3b 8b 29 42 3b
       -0.010488206 0.0025817866 0.0074536446 0.0029626812
000210 2e b5 00 3c d2 48 0b 3c 08 34 86 bb a9 e0 89 3c
       0.007855697 0.008501248 -0.004095558 0.01683076
000220 fe 73 6b 3c 75 cd 81 3c 2a c0 da ba 8c 08 bb bb
       0.014370916 0.01584504 -0.001668935 -0.005707806
000230 26 5e 35 bc 72 bd 01 3b f0 7f 62 ba 51 55 75 3c
       -0.01106981 0.0019796756 -0.000864028 0.014973954
000240 02 09 97 bc ac 7c 03 bc d7 d1 3b bc 16 f6 89 3c
       -0.018436912 -0.00802533 -0.011463604 0.016840976
000250 fe 7b dc bb 74 d5 2d bc 80 e1 84 bb 7c f7 ff 3b
       -0.006728648 -0.010609973 -0.004055202 0.007811485
000260 f2 bc 19 bc c1 6c 5a 3c 27 94 91 3c ed c8 c0 bb
       -0.009383427 0.013331593 0.01777084 -0.005883327
000270 f1 56 92 3c 5f 10 6c bb 51 14 ab 3c cc 0c 9d 3b
       0.017863723 -0.00360205 0.020883711 0.0047927853
000280 34 a0 a5 3b 6d 4c 3a bc 5e a9 86 b9 09 71 6b bc
       0.005054498 -0.01137076 -0.0002568466 -0.014370211
000290 0c 3a 73 bc a5 1d 76 bc 0b 44 43 3a 2c 8d 88 3b
       -0.014845382 -0.015021716 0.0007448799 0.0041672196
0002a0 8f d5 2f 3c 25 91 95 bb b0 14 a0 3b d1 2c 13 bc
       0.010732069 -0.0045644217 0.0048852786 -0.008982853
0002b0 46 c3 a6 3a a9 2e e0 3b f7 b2 f5 3b b0 43 6f 39
       0.0012722991 0.0068415 0.007498141 0.00022818032
0002c0 f5 68 f3 39 11 d2 0a bc 36 32 a1 3b d0 98 21 3b
       0.0004642677 -0.008472935 0.0049193157 0.0024657734
0002d0 7f 4c 8a 3c 23 1b 88 3c 6f 30 2e 3c fe cc 05 bc
       0.01688218 0.016614502 0.010631665 -0.00816655
0002e0 44 8f 57 bc 23 37 69 3c 68 f5 7d 3c 38 dc 80 bc
       -0.013156716 0.014234337 0.015500404 -0.015730008
0002f0 22 71 17 bc b9 36 6d bc 4e ec 88 3c 26 a7 5d 3c
       -0.009243282 -0.014478379 0.016714241 0.013528621
000300 61 5c 04 3c 27 eb ee bb da a3 92 3b 80 9d 31 3c
       0.0080786655 -0.007291216 0.004475099 0.010840774
000310 38 e6 06 3c 00 fb e6 3b 89 43 b4 3b ee 7d 58 3b
       0.008233599 0.0070489645 0.005501215 0.0033034044
000320 e0 a1 79 bc 25 9c 69 3c d7 0a d8 bb 9e 65 4f bc
       -0.015236348 0.014258419 -0.006593089 -0.012658505
000330 85 cf 4a bc 12 36 07 bc be 99 db bb 53 02 f4 3b
       -0.012378578 -0.008252637 -0.006701677 0.007446566
000340 82 ac 2e 3c da 43 9f bc e5 a6 88 3b f4 7e 92 bc
       0.010661246 -0.019441534 0.004170286 -0.017882802
000350 68 b6 24 bc d8 11 87 bc a6 59 ce ba c9 7a 0a bc
       -0.010053255 -0.016488 -0.001574327 -0.008452126
000360 ff 2b 98 bb 13 c7 7e bc b9 3f de 3b 14 65 78 3c
       -0.0046439166 -0.015550393 0.0067824987 0.015160818
000370 12 2b af bb 62 d8 8b ba 12 06 90 bb e3 7b f6 3b
       -0.0053457106 -0.0010669346 -0.004395255 0.0075220927
000380 36 03 02 3c c0 7a 9a 3c 61 39 8b bc f2 1f 2e 3a
       0.007935336 0.01885736 -0.016995134 0.00066423335
000390 08 ff bb bb 15 67 7e bc c9 8b 7c 3b bf c3 47 bc
       -0.005737189 -0.015527506 0.0038535467 -0.012192666
0003a0 9c 36 a5 39 0b 16 a8 bc 1b fb c7 3b 85 eb 10 bc
       0.0003151194 -0.020518323 0.006102932 -0.008845215
0003b0 d8 7c 6a 3c 68 f1 53 bc 75 09 cf 3a 7f de 68 3b
       0.014311992 -0.012935974 0.0015795665 0.0035533009
0003c0 34 13 95 bc 94 e4 57 3a f7 06 d9 bb 0f 03 33 bb
       -0.018197633 0.000823566 -0.0066231447 -0.0027315055
0003d0 0b 0f ba 3b 0c fe 05 3c 4b d6 4d bc c0 60 e7 3a
       0.005678063 0.008178245 -0.012563298 0.0017652735
0003e0 85 98 ff 3b bb 0c d1 bb 8d cd 2e 3c 50 ea ea bb
       0.007800164 -0.0063796914 0.010669124 -0.0071690455
0003f0 70 8d fb 3b c3 80 09 bc a9 87 05 bb 58 47 e6 3b
       0.007676773 -0.008392516 -0.002037505 0.007027548

layer1.0.bias f4 [64]
000000 9c 73 7f bc 99 68 80 bc 90 74 b4 3b 73 fa af bb
       -0.015591528 -0.015674876 0.0055070594 -0.005370432
000010 f4 95 22 bd 82 93 1d 3c 96 de 3d bc 66 21 f1 bb
       -0.039693788 0.009617688 -0.011588713 -0.0073587177
000020 fb 4a 58 3c 89 ae 3f bc c9 ad 5b bc 48 74 2c 3c
       0.0132014705 -0.011699327 -0.013408133 0.0105257705
000030 2f 79 3d bb 77 db a7 3b f0 15 fa 3a c6 b5 71 3b
       -0.0028911342 0.005122598 0.0019080024 0.0036882027
000040 6c dd 91 bc 8b 80 af 3c ec b4 08 bc bf 18 a3 bc
       -0.017805777 0.021423599 -0.008343916 -0.01990926
000050 ab 55 f3 bc fc d9 5a bc 6f 89 0b 3c e9 68 9b 3c
       -0.029703936 -0.013357636 0.008516653 0.018970923
000060 39 cd c6 bb df 42 28 bc 94 94 dd bc 17 dd 5e bc
       -0.006066945 -0.01026985 -0.027048387 -0.013602517
000070 d8 b3 1d ba cd c7 b5 3c 32 9a bb bc a5 ee 0d bc
       -0.00060158735 0.022189999 -0.022900674 -0.008662854
000080 a5 e0 dd 3a 23 cc d3 bc 2a a0 cb bc 00 c1 48 bc
       0.0016927911 -0.025854176 -0.024856646 -0.012253046
000090 4c 64 18 bd 82 07 11 bc ad 00 8c bc ae e3 8f 3b
       -0.037205026 -0.008851888 -0.017090166 0.004391155
0000a0 8c dd 28 3b 01 69 cd ba 26 78 03 bd a8 71 e7 3b
       0.0025766818 -0.0015671552 -0.032097004 0.0070631094
0000b0 25 cc fa 3a d8 a8 56 bb 67 9d c9 bc 9c 69 fb bc
       0.0019134326 -0.0032754447 -0.024611188 -0.030690007
0000c0 93 b4 d6 ba 3b 63 64 bc f9 0b 50 3b a0 dc 86 3c
       -0.001638072 -0.013939674 0.0031745418 0.016462624
0000d0 a0 fa 8f bc 19 75 77 bc 41 25 d6 bc 77 ab 35 3c
       -0.017575562 -0.015103602 -0.02614081 0.011088244
0000e0 e5 c4 9a bc 58 fc c4 bc d8 19 14 bc 63 43 cf bb
       -0.018892715 -0.024046108 -0.009039365 -0.006325172
0000f0 73 0b ed bc ef c6 e5 3c e1 aa d6 bb a6 ae 18 bd
       -0.028936123 0.02804896 -0.006551132 -0.037275933

layer2.0.weight f4 [32, 64]
000000 99 65 88 bd c2 53 8d bd 6d bc e3 bd 37 5c d8 3d
       -0.06660003 -0.06900741 -0.11119924 0.105644636
000010 70 38 a6 bd b6 99 85 bd f7 39 f6 bd 05 64 83 bd
       -0.08116233 -0.06523459 -0.12022775 -0.064155616
000020 47 9a a2 3d ba 14 41 3d 2b b6 82 3c 2b c8 d7 bd
       0.07939582 0.047138907 0.015956005 -0.10536226
000030 33 0f 24 3d 3e 41 c9 bd 01 23 01 3d 5d 59 4b bc
       0.040053558 -0.09826897 0.031527523 -0.012411443
000040 e4 d7 ed 3c 9f b7 05 be cd 90 51 bd e6 e0 a2 3d
       0.029033609 -0.13058327 -0.051163483 0.07953052
000050 45 9b cd bd 6b 88 60 bd de 62 54 bd e2 c3 7b 3d
       -0.10039381 -0.0548176 -0.0518521 0.061466105
000060 83 26 e8 bd 2a 8f ef bc 29 07 12 bd c8 25 22 3d
       -0.113354705 -0.02924307 -0.03565136 0.039586812
000070 49 c7 a2 bd a2 dd 55 3d dd 6b ca bd f4 47 0f 3d
       -0.07948167 0.05221332 -0.098838545 0.03498073
000080 22 1d d1 bc 58 dc 0c bc 69 85 0c bd b4 59 e7 bb
       -0.025526587 -0.008597456 -0.034306917 -0.007060254
000090 0c 9e 3c bd 84 d1 c4 3d 6d 24 17 3c f0 c5 02 bd
       -0.046049163 0.096102744 0.009224993 -0.03192705
0000a0 7e b8 c2 bd 91 97 df 3d d5 73 93 bd c0 71 65 3d
       -0.09507845 0.10917581 -0.071998276 0.056016684
0000b0 4e 33 97 3c 35 f8 fb bd 06 c5 9a 3c 78 56 34 bd
       0.018457081 -0.12303201 0.018892776 -0.044027776
0000c0 53 b3 ca bd 5b ed d5 bd 62 fc b5 bd c9 8a 9d 3d
       -0.09897485 -0.104456626 -0.08886029 0.07692487
0000d0 cb 91 97 bd 86 cf 83 bd 8f 1f 65 3d 64 68 18 3c
       -0.07400855 -0.06436066 0.0559383 0.009302232
0000e0 0a d3 c0 bb f9 d2 b7 bd a1 11 d6 bd d8 e6 b5 bd
       -0.005884533 -0.08975787 -0.10452581 -0.088819206
0000f0 f1 cf fc bd 97 a7 bc bd c4 32 9c bd 83 68 a2 bd
       -0.12344349 -0.09211653 -0.0762687 -0.0793009
000100 eb a2 07 3c d9 9b a4 3d 49 9c e7 bd e0 46 dc 3d
       0.008278589 0.08037538 -0.11309106 0.10755706
000110 5a 7f ee bd 44 51 9c bc 3d 7a ee bc a1 e7 f4 bd
       -0.11645384 -0.01908172 -0.029111022 -0.11958242
000120 f5 10 b1 bd 0b 91 3d 3d a8 0f a4 3d 93 51 f1 3c
       -0.086458124 0.046280902 0.08010799 0.029457843
000130 59 27 e3 bb 15 ac df bd 28 c1 7e bc df 19 66 3d
       -0.006932181 -0.10921494 -0.015548982 0.056177016
000140 8b 16 af bd d0 b0 b7 3c 12 8a a8 bd c2 1e 33 3d
       -0.085492216 0.022423178 -0.0822946 0.043730505
000150 7e 2b 1e 3d b3 5d f1 bc 73 74 4e 3c c1 5e df 3d
       0.038615696 -0.029463625 0.012601006 0.10906745
000160 71 da 4d bc 99 27 bb bd b3 dd 54 bd 23 55 ac bd
       -0.0125642875 -0.09138412 -0.05196924 -0.08414676
000170 31 b9 01 bd 10 fb c0 bd 5d b5 43 bd b8 7f 7e bc
       -0.031670753 -0.09422886 -0.047780383 -0.01553338
000180 ab 1f bd bd d7 69 d1 3b 8f 5e bc bd 38 4a eb ba
       -0.09234556 0.006390791 -0.09197723 -0.0017951196
000190 e3 1e 3b bd 9e 6e cf 3d 6d da d8 3b 8f c5 e3 3c
       -0.045683753 0.101285204 0.0066178353 0.027804164
0001a0 26 81 2d bc bf 82 86 3d 69 23 df bd e2 d6 e1 3d
       -0.010589873 0.065679066 -0.10895426 0.11027314
0001b0 42 94 b8 bd 0f ee c4 bd 90 04 3c 3d 70 c4 b5 3d
       -0.09012653 -0.096157186 0.04590279 0.08875358
0001c0 dc 21 64 3d 44 4e 6f 3c cc 23 9b bd f8 c8 a2 3d
       0.055696353 0.014606062 -0.07575187 0.07948488
0001d0 f3 d3 d4 bd 0d b4 e8 3d 03 0e 81 3d 9a 11 55 3c
       -0.103919886 0.11362467 0.06301501 0.013004685
0001e0 d4 02 43 3c ed b2 bc bd d7 0d 2e 3d 64 a6 98 3d
       0.01190253 -0.09213815 0.042493667 0.074536115
0001f0 8b 30 29 bd 8c d1 7d 3b de fc 44 bd 6d 20 17 bd
       -0.04130606 0.0038729636 -0.048092715 -0.036896158
000200 1f 08 fe bd 67 78 4e bd 26 f3 2b 3d fd 2e 56 3d
       -0.12403893 -0.050407793 0.04197993 0.052290905
000210 02 bf 8a bd 61 97 82 bc e3 23 86 3d 71 e6 a2 3d
       -0.06774713 -0.015941324 0.065498136 0.079541095
000220 50 55 4e bd 00 a3 c9 bd 0b 6a 94 3d f4 2e 8e bd
       -0.05037433 -0.09845543 0.072467886 -0.06942549
000230 82 d5 80 3d c7 a8 cb bd 61 16 12 3d 54 50 63 3c
       0.062907234 -0.09944301 0.035665873 0.013874132
000240 0f 18 f3 bd eb 47 b4 bd 9c b9 ef bd ef 48 e6 bc
       -0.11869823 -0.0880278 -0.11705324 -0.02811095
000250 d7 c3 9b bc d5 de 79 bd ad 5b 62 bc a7 66 94 3d
       -0.019014282 -0.061003525 -0.0138158025 0.07246142
000260 79 9e e2 bc ee 1d 2c bd 09 98 80 3d 4b fd 25 3a
       -0.027663456 -0.04202073 0.062789984 0.0006331994
000270 61 be e2 bd a1 80 77 bb 5c b9 58 3d 8b 76 84 bd
       -0.11071468 -0.0037765878 0.052911147 -0.06467923
000280 76 87 c5 bc b9 1a c8 bd 6e c1 bf bd 29 c0 0c bc
       -0.024112444 -0.09770722 -0.09363066 -0.008590736
000290 37 92 1b bd 6a 1f dc bc ff bf d4 3d be ba ea 3d
       -0.03798124 -0.026870448 0.10388183 0.114613995
0002a0 40 cb 9d bd e2 30 84 3c e9 e9 83 bd d3 c8 07 be
       -0.077047825 0.01613659 -0.06441099 -0.13260202
0002b0 0a 54 a4 bc 53 4b e8 3d 79 42 07 3d 11 2c 67 3c
       -0.020059604 0.11342492 0.033022378 0.014109627
0002c0 ac a5 99 3d 2d 12 64 3d 0a b3 ef bd 6c 14 04 be
       0.075023025 0.055681396 -0.11704071 -0.12898415
0002d0 c7 cb b5 bc f9 66 dc bd 5c 71 4e 3c 43 72 20 3d
       -0.022191895 -0.10761828 0.012600269 0.03917147
0002e0 7a ea f7 bd 07 bb 6e 3d bc 12 04 be ff 12 bd bd
       -0.1210527 0.058283832 -0.12897772 -0.09232139
0002f0 68 24 23 bd 73 82 44 bd f2 40 43 3d eb 06 e3 bd
       -0.03982964 -0.04797597 0.04766936 -0.11085304
000300 22 62 e0 3d 64 83 01 3d 22 a1 bf 3d 98 8b b6 bc
       0.10956217 0.031619444 0.093569055 -0.02228336
000310 46 76 13 bd 00 f9 bc 3c c7 a9 21 bd 74 38 91 bd
       -0.036001466 0.023067951 -0.039468553 -0.07090846
000320 2c 6e 92 bd 1e 59 81 bd 98 eb 66 3d d1 15 c9 3b
       -0.0714992 -0.06315826 0.056377023 0.006136634
000330 c9 8a 82 bd df 8d cf bd 96 93 3d 3d 20 93 c8 bc
       -0.063741274 -0.10134482 0.046283327 -0.024484217
000340 cb ff c9 bd f7 b0 db 3a f7 0f ab 3c 33 71 a9 3d
       -0.09863242 0.0016761114 0.020881636 0.08273544
000350 15 7f ba bd 96 a2 a3 3d 46 6f b8 bd 60 9e 9a 3c
       -0.0910627 0.07989995 -0.09005599 0.018874347
000360 53 15 c2 bc 01 58 09 3c 1c cc e8 3a 93 39 32 bc
       -0.023691809 0.008382798 0.0017761025 -0.010877985
000370 e8 e1 d9 bd e6 2d 44 bd 78 ad be 3d 69 37 8a bd
       -0.10638791 -0.047895335 0.0931043 -0.0674885
000380 f2 2d 4a 3c af 59 d9 bd d1 8e 5d 3d e7 e6 c9 3d
       0.012340056 -0.10612809 0.05409128 0.09858494
000390 64 6b 99 3b d4 4a 5d 3d 79 3d ec bd ce 93 9c 3b
       0.0046819914 0.05402644 -0.115351625 0.004778362
0003a0 e5 13 66 3d 1e ae 8a 3b ae b5 ad 39 24 0b 1d bd
       0.056171317 0.004232182 0.00033132493 -0.038340703
0003b0 07 09 8a 3d c5 86 c4 bd e1 a2 7a bd bc dc fd bd
       0.06740003 -0.09596018 -0.06119049 -0.12395617
0003c0 8c 3e e3 bd 77 1a 8d 3d c9 ce bd bc 58 fe c3 bd
       -0.11095914 0.068898134 -0.023169892 -0.095699966
0003d0 b0 b7 00 be 08 69 87 3c 71 40 8b bd 0c 7b 41 bd
       -0.12570071 0.016529575 -0.067994006 -0.047236487
0003e0 e0 f9 08 3d fe e5 e1 3d 23 04 03 bc 91 55 29 bd
       0.033441424 0.11030196 -0.007996592 -0.041341368
0003f0 63 e3 fc b8 08 71 17 bc 8c 52 b7 bb cc 33 dc bc
       -0.000120586505 -0.009243257 -0.005594557 -0.026880167

layer2.0.bias f4 [32]
000000 0f ae 47 3c 48 63 19 3d 4b 76 bf 3d 34 b0 df bb
       0.012187495 0.037448198 0.093487345 -0.006826425
000010 1f 01 62 3c 99 a2 57 3d a7 66 d1 bd 7d 26 70 bd
       0.013794213 0.0526453 -0.102246575 -0.058630455
000020 64 bf 79 bd 94 d1 01 be 63 e3 09 3d bd 22 f9 3b
       -0.06097354 -0.12677604 0.03366412 0.007603018
000030 17 26 45 3d f0 4c 61 bd 8b 30 a1 3d 0c 0b 94 bd
       0.04813203 -0.055005014 0.07870587 -0.072286695
000040 00 7d c9 bd 8e 30 d7 3d 5e 9b ce 3d 97 64 9e bd
       -0.09838295 0.10507308 0.10088228 -0.0773403
000050 45 42 c6 bd 21 44 53 3c 76 55 e5 3d e7 5e 93 bd
       -0.09680609 0.012894661 0.11197941 -0.071958356
000060 d5 2b 73 bd fc a9 b2 bd e2 72 e4 3c 08 ad 36 3c
       -0.059367973 -0.08723828 0.027886812 0.011149652
000070 79 31 97 3c 51 78 9e bd 5d 99 a2 3c 5c 4c d6 3c
       0.018456208 -0.07737792 0.01984852 0.026159458

classifier.weight f4 [50, 32]
000000 4f fc 13 be 64 7a d9 bd 5b 30 5e 3e fc 08 00 3e
       -0.14451717 -0.10619047 0.21698134 0.12503427
000010 a4 1f 6d bc 6a bb 93 bd 07 73 07 3e 9d 2a 76 be
       -0.014472876 -0.07213481 0.13227473 -0.24039693
000020 87 c7 39 3d 8d 6d d6 3d 22 71 37 3c 1e 7c af 3d
       0.0453563 0.10470114 0.011196407 0.08568595
000030 6e 30 2d 3c 30 09 0a be 1f 0b de bd 02 5a 10 be
       0.010570629 -0.13480067 -0.10841965 -0.14096835
000040 52 06 8d bd 15 b2 35 be f2 fa 04 3e cd 1b a0 bd
       -0.06885971 -0.17743714 0.12986353 -0.078178026
000050 a7 c4 ad 3c 26 08 df bd c9 f3 3c 3e 22 6d 7d be
       0.021211935 -0.10890226 0.18452372 -0.24748662
000060 25 cf 7f 3c a9 ab 38 bd 5f 58 81 bb fe 55 18 3e
       0.015613352 -0.045085583 -0.0039473022 0.14876553
000070 b1 eb 55 3c 0e 9a 27 3e 7b 3b 11 be b3 b7 6b bc
       0.0130566815 0.16367361 -0.14182846 -0.014387059
000080 e8 74 8f bb 4e 66 df bd 18 25 05 3d dc 11 ee bd
       -0.00437795 -0.10908185 0.03250608 -0.116245
000090 7a 5e 0e be 5c df 4d 3c 9c 63 3f 3e 99 2b 2c be
       -0.13903227 0.01256546 0.18690342 -0.16813506
0000a0 1d db 50 3c 6f 65 bf 3d 65 7b f5 3c 4a ef 81 3c
       0.012747553 0.09345519 0.029966066 0.015861172
0000b0 df 40 3a 3e 86 f5 bb 3c fa b5 92 3d c1 02 97 bd
       0.18188809 0.022944223 0.071636155 -0.07373572
0000c0 8d f1 ad bd d4 4b 90 bd 27 9f f6 bd 99 58 31 3e
       -0.08493338 -0.07045713 -0.12042075 0.17318954
0000d0 10 ee 4f bd d6 ae e1 3d 22 18 1f bd 32 0a 8c b9
       -0.050764143 0.110196754 -0.038841374 -0.00026710477
0000e0 ce 57 d7 3b 3f ca 13 3e 55 f4 d1 bd 3f 43 16 be
       0.0065717464 0.1443262 -0.10251681 -0.1467409
0000f0 76 ab e6 3c cc a9 32 be d2 74 b1 3d 27 7c 3b be
       0.02815793 -0.17447585 0.0866486 -0.18309079
000100 69 4d 20 be 18 f0 3c be 2c 4e b5 3b bd 26 2e be
       -0.1565453 -0.18450963 0.0055330005 -0.17006965
000110 50 c4 54 3c 02 35 6d be df 72 8e 3c b9 9a 19 3e
       0.012986258 -0.23164752 0.01738876 0.15000428
000120 98 e4 03 be 35 63 c6 3d 43 46 86 3c a5 78 1b be
       -0.1288017 0.09686891 0.016390925 -0.15182741
000130 a8 24 ad 3d 09 e6 35 be 69 ce c4 3d af 8e 27 be
       0.08454257 -0.17763533 0.09609682 -0.16363023
000140 79 81 1b be e7 3a 38 bd 2b 91 f1 3d 75 f2 8d bd
       -0.15186109 -0.04497805 0.11795267 -0.06931011
000150 bb 0b 9d bc 3e 2f 33 3d 77 d3 e9 bc f0 7f 51 3c
       -0.019170633 0.043746226 -0.028543217 0.01278685
000160 17 de c7 3d cd 2d b4 3d e7 46 7d bd 4a 02 7b 3d
       0.09759157 0.08797798 -0.061835196 0.06128148
000170 86 9b c9 bc 59 fb 07 be 0d 6a 34 be 4b 0d 5c be
       -0.024610292 -0.13279475 -0.1761858 -0.21489446
000180 66 6c a3 bd d0 7a 23 be 5c 18 5c bd d4 5e a5 3d
       -0.0797966 -0.15964818 -0.05373417 0.08074728
000190 b1 16 0f be 1b 37 15 be 01 47 39 3e 1e 01 3c 3e
       -0.139735 -0.14571802 0.18093492 0.18359801
0001a0 11 69 e8 3c be 31 6a 3c f7 67 b7 bb 4b 02 29 be
       0.028370412 0.014294086 -0.0055971104 -0.16504781
0001b0 31 f2 e8 3d 8c 1e b7 bd 3d 56 78 bd 6b ed 4a be
       0.11374319 -0.08941373 -0.06062912 -0.1981713
0001c0 ed 06 5d bd 45 ae 2a bd bb 71 df 3d 2e 73 8c bc
       -0.053961683 -0.041670103 0.10910364 -0.017144766
0001d0 3c b0 3e be 67 c3 65 bd 1a 39 9a 3d 02 33 52 bd
       -0.18621916 -0.056094553 0.075304225 -0.051318176
0001e0 b0 71 b6 3d ca f5 bf 3d ff 5f 66 3d ce 6c 5c 3d
       0.08908403 0.093730524 0.056243893 0.0538147
0001f0 8a da e3 3d 49 1c ae bd d8 20 f3 bd 55 8a ee bd
       0.111256674 -0.08501489 -0.11871499 -0.116474785
000200 7b bf b6 bc 2b 4e 99 bd 69 9f 25 bd de f6 dc bd
       -0.022308102 -0.074856125 -0.04043523 -0.10789274
000210 de 9b a4 bd e7 3b cf bd 19 52 b7 bd 42 1c 87 be
       -0.08037542 -0.10118847 -0.08951206 -0.26388747
000220 17 79 61 bc 8d d2 1f be 4d 16 29 bd fb ce 4a be
       -0.01376178 -0.15607662 -0.041281033 -0.1980552
000230 5e 2c f5 3d 25 66 0c 3e b2 f8 c7 bd 80 b1 cc 3d
       0.11971353 0.1371084 -0.09764232 0.09994793
000240 83 cf 19 be bd da 75 3c f1 08 1f be bd 51 d0 bc
       -0.15020566 0.015005765 -0.15530755 -0.0254296
000250 01 8d 1b bc 88 2f 0f 3d b8 2c f1 bd 29 ed 28 be
       -0.009494067 0.03495744 -0.117761075 -0.1649672
000260 35 2e 12 be 69 87 90 bc de 8b d7 bd c0 f5 bb 3d
       -0.14275439 -0.017642694 -0.105247244 0.091777325
000270 ee 12 e7 bd 3c be 04 bd 17 39 cd bd 4b cb 58 bd
       -0.112829074 -0.032407984 -0.10020655 -0.05292825
000280 2e 7e c1 bd 22 d8 56 3d 5c 22 6b 3c 37 a1 3d be
       -0.09447895 0.052452214 0.014351454 -0.1851853
000290 ec de 1e be e6 9d 45 be 05 30 4e be ac a0 a1 bc
       -0.15514725 -0.19298515 -0.20135505 -0.019729935
0002a0 00 d4 27 3e 4d 65 cd bd 0b ad 9b bd 54 82 a4 bd
       0.16389465 -0.10029087 -0.07601365 -0.080326706
0002b0 5b 97 93 3c 03 88 df 3d 02 0e 8f bc 72 cd 56 3d
       0.018016508 0.10914614 -0.017462734 0.05244202
0002c0 b8 c6 d8 3d 05 d5 68 bd 42 ae 6a be 43 84 59 be
       0.105847776 -0.056843776 -0.22918037 -0.2124186
0002d0 93 6b 03 3e e1 83 28 3e ed 51 b8 bd 33 2d 18 be
       0.12834005 0.16456558 -0.09000001 -0.14860992
0002e0 3c 3e 4a 3e 05 8b 51 bd 74 95 d0 bd 57 7d a2 bd
       0.19750303 -0.05115797 -0.10184756 -0.07934063
0002f0 45 74 0f bd d9 a2 11 bc d9 e0 4d 3d f8 e2 27 be
       -0.035022993 -0.008888924 0.05026326 -0.16395175
000300 9e c1 2c be 91 2c 01 be d7 0c 60 be 45 ec 49 be
       -0.16870734 -0.12614657 -0.21879898 -0.19719036
000310 6c 73 af 3c cc 36 56 be c2 83 fa 3d d8 d0 6d bd
       0.021417342 -0.20919341 0.12232162 -0.058060497
000320 a9 ff 8d 3c 13 2c 98 3d 09 3b 40 be 86 67 a3 3d
       0.017333822 0.074302815 -0.1877252 0.0797873
000330 ef 68 b1 bc 4b 9d 37 be 58 b5 53 bc 48 7e 05 3b
       -0.021656482 -0.17931096 -0.012921654 0.002036946
000340 47 62 41 be ef 8b f7 3c a1 6f db bd 2f 9c 66 ba
       -0.18885146 0.030218093 -0.10714651 -0.0008797077
000350 b9 37 0b 3e d2 00 10 bd 3e 03 e7 bd 3b 84 13 bb
       0.13595475 -0.035157032 -0.11279915 -0.0022509235
000360 8e 18 4d 3c cf c6 07 bd eb 19 15 be bf d6 34 be
       0.012518061 -0.033148583 -0.14560668 -0.17660044
000370 5a 65 73 3c 15 a6 42 be e3 63 19 be ce 34 b2 3d
       0.014855707 -0.19008668 -0.1497951 0.08701478
000380 d7 b3 02 be 77 1c 01 be bf 93 28 be 32 3c 46 be
       -0.12763916 -0.12608515 -0.1646261 -0.193589
000390 d9 87 d8 bd 99 28 ff 3b c6 dc 3c be c4 6d 01 be
       -0.10572786 0.007786822 -0.18443593 -0.12639529
0003a0 c8 26 e9 bd 9d 07 d2 3b ba 47 30 be 06 7e 97 bc
       -0.1138435 0.006409599 -0.17214862 -0.01849271
0003b0 6f 06 c5 bd 04 bf cd 3d f4 97 37 3c b1 36 00 be
       -0.09620368 0.10046199 0.011205662 -0.12520863
0003c0 e1 0d 44 3c f3 44 10 be 4b fb a1 bc 3c 5b af bd
       0.0119662 -0.14088802 -0.019773146 -0.085623235
0003d0 55 dc 8f bd d6 20 4f 3d a8 d6 e4 bd a8 c8 9d bd
       -0.07024447 0.050568424 -0.11173755 -0.07704288
0003e0 75 3c 2f bc a1 78 02 be 71 6c 28 be 32 d1 74 3d
       -0.010695566 -0.12741329 -0.16447617 0.059769817
0003f0 64 26 82 3d a4 be 86 3c d6 4c 67 bc f6 65 69 3d
       0.06354979 0.016448326 -0.01411744 0.056982003

classifier.bias f4 [50]
000000 d1 71 e2 3c 1f 4c 14 3c 4b 2a f7 3b 58 ff 89 bd
       0.027642163 0.009051352 0.0075428835 -0.06738156
000010 3f 75 94 3c e2 ce b4 3c 67 43 76 3d eb 62 80 3d
       0.018122314 0.022071306 0.060122874 0.06268867
000020 ef 03 63 bc fa 3e 9c 3c a2 79 4f bd 50 1e 76 bd
       -0.013855918 0.019072998 -0.050653107 -0.060087502
000030 72 62 f6 bc 27 76 94 3d 72 01 81 3d 1b c0 85 bd
       -0.03007624 0.07249098 0.06299104 -0.06530782
000040 61 f1 86 3d f0 e8 35 bd 62 62 6a 3d 6e 3c ee 3b
       0.06589008 -0.0444116 0.05722273 0.0072703874
000050 50 22 15 bd 2a 4b f6 3c 6b e3 97 3d a2 a6 a0 3d
       -0.036409676 0.030065138 0.074164234 0.07844283
000060 21 8e 1e 3d af 30 5c bd 1e 7f 5b bd 6e 1b 86 3d
       0.038709763 -0.053757366 -0.053588025 0.065482005
000070 96 e1 62 bc 50 f1 54 3d 3f 96 90 bd 78 70 6e 3b
       -0.013847729 0.051987946 -0.07059907 0.0036382955
000080 60 f9 dc 3a 5e 8c 9e 3d 58 07 90 bd cf d0 c6 3c
       0.0016858988 0.07741617 -0.07032651 0.02426949
000090 3a 28 48 bd 59 41 8a 3d b1 b4 6f bd 02 bd 62 3d
       -0.048866488 0.06750745 -0.05852193 0.055356033
0000a0 dc 3a 97 3d 8e 3b 4f 3d a1 e9 68 bd fb 96 9a 3c
       0.073842734 0.050593905 -0.05686343 0.018870821
0000b0 df 90 65 3d 35 9d 02 bd b2 19 95 3d b5 44 70 bd
       0.056046363 -0.031888206 0.072802916 -0.058659274
0000c0 f0 f6 fa 3b 96 a7 c3 bb
       0.007658832 -0.0059709055
