results/CIFAR100_dataset/contrastive_loss/margin_2.0_first_model_nb_classes_50_data_percent_20/model_ckpt.pt (torch_old, 802778 bytes, 6 tensors)

layer1.0.weight f4 [64, 3072]
00000000: a88f 73bb 9998 5b3c bda2 263a e7be 1b3a
00000010: dde2 6bbc 6d5b cd3b 60ff dcba b5a9 cb3b
00000020: 51e3 2bbc ec9f ed3b cd1e 123c 7597 adbb
00000030: e4fc 80bc f824 2dbc 5aac 16bc 1d5e 17bc
00000040: 2d9b 493c 97d7 4637 2189 9dbc 87f2 793c
00000050: cefe 80bc bc1b 95bb 7d22 5bbc 2ea1 3dbc
00000060: 7bb9 4abc 2960 a53b a810 b4bb a1d1 4a3c
00000070: 74a8 44bc b715 1e3c 343a 8ebc fd56 84bc
00000080: 158d 70bc 4748 00ba 72e8 03bc b4a8 643b
00000090: 69ee 0d3c 1a95 e8bb 75fe 97bc 78f9 82ba
000000a0: bdbe 7b3c 0413 6cbc 8342 11bc 7eab fabb
000000b0: 081b 8a3c 8e96 cf3b 815d 2d3b cb28 8a3c
000000c0: 22fe 03bc f6c4 6bbc 97b4 62bc 2df6 dd3b
000000d0: 4aff c6bb 47e9 7d3b c006 2fbc 1f7e 263c
000000e0: fa5a 15bc 0001 d1ba 42d8 4fbc e752 f83a
000000f0: 81cb e4b9 e007 553c fc91 523c 8528 53bc
00000100: bfad 48bc be74 293c 8843 973b 2663 a63b
00000110: 8cba 5abc 1674 d9b9 cc9d ba3b 6f27 75ba
00000120: 0c67 a33c d7f7 7a3c 8b2b 7cbb de39 993c
00000130: cc57 41bb c7cb 12bb cf51 20bc 92ab afbb
00000140: 8022 8fbc 044f 913c 0744 8f3c 6124 85b9
00000150: 13bc c53b 4121 243a a8ea 7f3c 7074 9fbb
00000160: cb24 3e3c 0dd5 f63b a873 9eba ee3d 033c
00000170: 9a04 6ebc a954 023b 2317 0c3c a236 12bc
00000180: 03fd 373c 8c79 a5bb 5932 123c 26e5 c03b
00000190: a847 54bc ad82 7fbb 3236 83bc 2b22 2fbc
000001a0: a483 05bc 9a76 6ebc f52b 633c 19a6 8abc
000001b0: f0d7 88bc e784 f7bb 3cd0 693c f50c a83b
000001c0: 4ff3 3a3c eec7 6a3b ae97 38bc 4146 7bbc
000001d0: 6332 1e3c ac82 c73a f7f2 163c 4998 583c
000001e0: 5cd7 33bc 3233 6f3c d404 3abc 86c4 1f3c
000001f0: f8f5 723c c5b4 a0bc 1501 68bc ff21 9fbb
00000200: 6ead 7e3b 05cb 08bc 6ac9 a13b 957d 35bc
00000210: 9c85 4cbb 1ac2 6a3c f337 603a fa71 10bc
00000220: 631b 923c cffd 73bb a0dc 64bc ac25 7abc
00000230: 20df 1a3c 7492 c0bb c063 313a c019 bc3a
00000240: ae2b 1bbc 4677 1fbc d642 70ba 57db 93bc
00000250: 8bda dfbb b61b 7c3b 488d 66bc d683 543c
00000260: 3340 c53b 7507 8fbb b9d5 0fbc 2911 22bc
00000270: ce07 b83b 7d9d 8ebc 2c73 2b3c b3d5 7439
00000280: fb0c 01bc 57f2 47bc 43a7 cebb ca37 543c
00000290: 3a60 16bb ecc1 2c3c 7bbc 253c d2ab 07bc
000002a0: 7809 45bb 50b1 16bb b908 1b3c f11a 9abc
000002b0: 3b55 093a 27ad 84bc 4cfd 09bc a75a f4b9
000002c0: a4f4 7c3c 00b8 07bb 2f97 c2bb cd4c 8bba
000002d0: 3738 5c3b 48a1 c0bb 7a08 07bc 91e2 83b9
000002e0: 1ba0 803b a790 8bbc 4511 283c c565 bd39
000002f0: c2d5 9dbc d33b 873b 40e7 253c 7ebc fa3b
00000300: 9ca1 4ebc 3eba 44ba 6b20 433c 01ab 39bc
00000310: 7548 173c de8b 49bb 7ef1 e13b 80c8 8d3c
00000320: d948 2cbc 5563 92bc e6aa 8ebc 5a84 84bc
00000330: d4e5 99bc 560d a5ba 477d 8dbc 767a 813c
00000340: 74d0 213c 4080 87bc 532d 003c 4ce6 8a3c
00000350: 14af d9bb 82b3 2ebc 5cfd 96bc cdcc 223c
00000360: 1250 613b 5cc5 b63b 2135 383c c3da f13b
00000370: f4cc 35bc dc16 d9bb c2c9 37bc 95d1 fc3a
00000380: 1e7a 63bc bc52 7bbc 4966 95bc 0f52 8f3b
00000390: cf80 5abc 1f4d d23b 31a8 c13b f3ed 393c
000003a0: 4410 adba ec3e 3e3c 2ddf 353c e4e6 eb3b
000003b0: 0bb6 80bc f063 8dbc f717 4fbc e000 74bc
000003c0: dfd9 623b f818 c5bb 02d6 3a3c b87e adbb
000003d0: 5cb8 21bc 6dd1 5b3b f1a2 92bc c8f9 e43b
000003e0: cdbd 7039 51dd 3bbc 0c23 debb 79ac 74bc
000003f0: 954d 733c b675 6dbc 5cad ddbb 2ea6 87bb
-0.0037164483 0.013403081 0.00063566474 0.00059412274 -0.01439735 0.0062670023 -0.0016860776 0.006215299
-0.010491208 0.00725173 0.008918476 -0.005297596 -0.015745588 -0.010567896 -0.009196365 -0.009238747
0.012305063 1.1851916e-05 -0.019230427 0.015255577 -0.0157465 -0.0045504253 -0.013374922 -0.011574073
-0.012373324 0.0050468636 -0.0054951496 0.012379081 -0.012003053 0.009648732 -0.017361738 -0.01615476
-0.014682074 -0.00048935827 -0.008051025 0.0034890594 0.008662798 -0.0070978524 -0.018553952 -0.000999256
0.0153653 -0.014408831 -0.008865955 -0.007649838 0.016858593 0.006335086 0.0026453438 0.016865155
-0.008056195 -0.014390221 -0.013837001 0.006773731 -0.0060729133 0.003874378 -0.010682762 0.010161906
-0.009115929 -0.0015945733 -0.012685837 0.0018945605 -0.0004363917 0.013002366 0.012852188 -0.012888079
-0.012248456 0.010342775 0.0046162046 0.0050777374 -0.01335014 -0.00041475956 0.0056950804 -0.00093518844
0.019946598 0.015317879 -0.0038478102 0.018704351 -0.0029501794 -0.0022399293 -0.00978513 -0.005361029
-0.017472506 0.017737873 0.017488493 -0.0002539484 0.006034383 0.0006261059 0.015619911 -0.0048661754
0.011605452 0.007532722 -0.0012088912 0.008010371 -0.014527464 0.0019886887 0.008550438 -0.008924158
0.011229756 -0.00504989 0.008923137 0.0058866916 -0.012956537 -0.00389878 -0.016017053 -0.010689299
-0.008149061 -0.014554644 0.013865461 -0.016924905 -0.01670453 -0.007553685 0.014270838 0.0051284977
0.011410548 0.0035824734 -0.011266632 -0.015336574 0.009655568 0.0015221438 0.009213201 0.013219901
-0.010976639 0.014599608 -0.01135369 0.009751445 0.014829151 -0.019617448 -0.014160414 -0.0048563476
0.0038860696 -0.008349185 0.0049373405 -0.011077304 -0.0031207567 0.014328504 0.0008553259 -0.008816237
0.017835325 -0.003723014 -0.013968617 -0.015267771 0.009452611 -0.0058768336 0.0006766878 0.0014350936
-0.009470863 -0.009733027 -0.0009165233 -0.018048925 -0.0068314723 0.0038468665 -0.01407177 0.012970885
0.006019616 -0.0043649026 -0.008778983 -0.009891787 0.0056161648 -0.01740908 0.010464471 0.00023349262
-0.00787663 -0.012203774 -0.0063065602 0.012952754 -0.002294554 0.010544281 0.010115738 -0.008280711
-0.0030065458 -0.002299387 0.009462529 -0.018811675 0.00052388356 -0.016195847 -0.008422207 -0.00046606848
0.015439186 -0.0020709038 -0.0059384326 -0.0010627747 0.0033602843 -0.005878601 -0.008241767 -0.00025155072
0.003925336 -0.017036749 0.010258024 0.00036124713 -0.019266967 0.0041270046 0.010125935 0.0076518646
-0.012611773 -0.0007504559 0.0119095845 -0.011332274 0.009233584 -0.0030753533 0.006895243 0.01730752
-0.010515415 -0.01786963 -0.017415475 -0.016176391 -0.018786348 -0.0012592475 -0.017271651 0.015805464
0.009876359 -0.016540647 0.007823306 0.016955517 -0.0066431854 -0.010662915 -0.018431358 0.009936524
0.003438 0.0055777263 0.011243136 0.0073808148 -0.011096228 -0.0066250395 -0.011217536 0.0019288535
-0.0138840955 -0.01533955 -0.01823725 0.004373796 -0.013336374 0.006417885 0.0059099426 0.011348235
-0.00132037 0.011611681 0.0111005725 0.007199155 -0.015711805 -0.017259568 -0.012639991 -0.014892787
0.0034614725 -0.0060149394 0.0114035625 -0.005294647 -0.009870615 0.0033541576 -0.017899962 0.006987784
0.0002295889 -0.01146634 -0.0067790803 -0.014933699 0.01485004 -0.0144933965 -0.006765051 -0.004139683

layer1.0.bias f4 [64]
00000000: 3f14 7c3c 3a32 c2bb 829c 12bb f4ea 0c3c
00000010: 7ec3 61bb bac4 833c 0240 493c df74 a03b
00000020: b79b 77bc 1825 d3bb 063c ae38 bc10 d3bb
00000030: 4bbe 6d3b c263 93bb 5dbc 2e3c 0dc8 94bb
00000040: c4a2 55bc 8351 c2bc f598 2ebc b83a 353a
00000050: 65ef e8b9 d357 47bb f15a 163c 3cc1 19bb
00000060: 2f77 a43a fa4e 45bc ca10 e93b 3b63 96bc
00000070: 8354 abbb c077 203a b246 aabc 47da 7fbc
00000080: c29d 09bc 9eed 5dbc 5fa9 3a3c 6f4b a73b
00000090: 2e91 02bc 9bd2 5bbb 86ad 99bc 4f27 d1bb
000000a0: 8726 153c a4ec 75bc 7f01 7d3b dd50 3a3c
000000b0: cf8e 23bc adcb b1bc ab7a 78bc 5ce2 1ebc
000000c0: bcc6 e93b d95e 7e3b a82b 70bb 19ef da3a
000000d0: a56f dfbb 605b a6bc 0f44 4c3b 600b 1ebc
000000e0: d51a 883b 9ef2 c1bb bf6f 08bc 63dd 95bc
000000f0: e08b 523c 4b49 0b3c 9819 033c b233 873b
0.015385686 -0.0059263976 -0.0022371118 0.008600939 -0.0034448798 0.016085017 0.012283327 0.0048967446
-0.015112809 -0.006443631 8.308147e-05 -0.006441204 0.0036276754 -0.004497976 0.0106650265 -0.0045404495
-0.013039295 -0.023720508 -0.010656585 0.0006913352 -0.0004442885 -0.0030417338 0.009176956 -0.0023461124
0.0012547727 -0.012042755 0.007112597 -0.018357864 -0.0052285804 0.000612136 -0.020785663 -0.015616006
-0.008399429 -0.013545422 0.01139292 0.005105428 -0.007969184 -0.0033542279 -0.0187595 -0.00638286
0.009103424 -0.015010033 0.0038605628 0.011371818 -0.009982779 -0.021703565 -0.015165965 -0.009697523
0.0071342867 0.0038813858 -0.0036647115 0.0016703337 -0.006818729 -0.020307243 0.0031168496 -0.009646267
0.0041535893 -0.005918815 -0.008327424 -0.018294042 0.012850732 0.008501361 0.0080017075 0.0041260356

layer2.0.weight f4 [32, 64]
00000000: 7e91 84bc 8a08 a5bd 927f a8bd 7bd8 863b
00000010: 12d2 b9bd f5ca d1bd c9c1 b73d aae9 f93c
00000020: dbca e73c 2734 dc3d d2b9 133d 5ab2 47bd
00000030: fe72 af3c 915e e9bd 1a07 16b9 3aa1 3ebd
00000040: 9082 e43c 9a90 7fbd 17d6 583d 7c46 a83d
00000050: 21d0 42bd 5587 fc3c 3e02 f7bb aed8 513c
00000060: 876e f6bd df0e 9fbd e87c f6bd 9c79 d23d
00000070: 6a4d b1bd 5138 d93d 1ab9 f5bd e6de 423d
00000080: 105f fcbb 898f c2bd 6158 dabd 8c16 26bd
00000090: 3495 a0bd 7641 01be 24c3 c13d 903c 5f3d
000000a0: a9cb aabd ef03 813d 33ae 7c3d 2755 adbd
000000b0: ede0 7a3d c706 18bd 9d46 9e3d 9883 bdbd
000000c0: 67e0 983d 6213 b53d bb4d cabd ec0e d63d
000000d0: a367 aabc 1261 c43c c39a 9b3d 6c14 9d3d
000000e0: da5f a23d 2170 df3d 6969 d63d 8ba9 843d
000000f0: 7f86 c13c f255 c73d f6c2 333d f40d 02bd
00000100: 5a81 b6bd 32ec c93d 7065 f6bd ac82 4a3d
00000110: 7ffc 97bc c4d1 d03d 2c39 39bd 24c4 9d3d
00000120: b293 543c 323e 5c3d 20c3 fe3b a4a9 883d
00000130: 6711 edbd aef5 1f3c 4ac1 eabd 54ed e8bb
00000140: 1e07 2cbd d8c1 9d3d 70f0 65bd 0856 96bc
00000150: 8522 6ebc 24f4 b93d 418a 993c 0b49 f2bd
00000160: afa0 9d3d 41cb c7bc 19f9 3cbc a3a5 c3bc
00000170: f322 4b3c 3261 ca3d 851c 9c3c 79d3 59bd
00000180: c8bb 543d fdfc bc3d f287 f93c b323 05bd
00000190: 62b4 83bd 7e46 223d 8b58 c3bc 22bf 06bd
000001a0: 2f15 973d a71e 983c a615 9a3c 09cf 42bc
000001b0: 506d b43d 20b0 e7bd 44fa d6bd c1cb a23d
000001c0: 3d01 b6bd b647 0ebc eb1d 06be d659 eebd
000001d0: 0878 40bd c000 b23c 5e7c afbd 2e23 f3bb
000001e0: 1592 82bd e87e 56bd ff7e d8bc 7cde d63d
000001f0: ebfe 633c a7f8 50bd bdda 873d 4c79 d5bc
00000200: 7809 ed3c 67b4 a13d 4b42 953d 2a7a ca3d
00000210: fb6a 3e3d 7c05 0dbe 6e5c 32bd f7f0 22bd
00000220: c721 b7bd 80ea 8f3d 6ac1 04bd 63c8 903d
00000230: a3a7 263d a723 c1bd 11bb 093d 829f a2bd
00000240: 666b 8bbc b760 c1bc cb70 51bd 826c b13d
00000250: 7110 e23c 0396 403c 8683 263d ce72 1abd
00000260: 83b3 19bd 62e2 e0bd 3f7e 563d 9990 cc3c
00000270: 8cf4 e93d 963a b8bd 748e 913b e9e7 9e3d
00000280: 07cf e4bc e202 2abd db44 ccbc e8b3 04be
00000290: c2b7 09bc d1a3 f53c 2225 f7bd c0ae 9a3d
000002a0: c759 97bd 6ab2 e3bc 61d4 f7bd dc72 9a3d
000002b0: d9b9 cebd 8276 dfbd 9239 b2bd b1b7 83bd
000002c0: 207a 01be 4d33 e7ba 1df8 fbbd 64cf 1abc
000002d0: d5ec b5bc 5e73 04be bc56 d3bd 9dec 25bd
000002e0: f89b 8dbd f824 293d f704 c53d f7ce 813d
000002f0: c80d 1abd 9ef0 f0bd b713 2f3d 9b8f 41bc
00000300: f7f4 bd3d 2bf6 c03d ef2a 76bd 5aa5 9cbc
00000310: 522e f9bc 5b42 bf3d 583f 2b3d 74a2 c9bc
00000320: 019a 003c e654 bfbd fc2e 8dbd 8b4d 96bc
00000330: 0563 eabb c7fb ea3c 4255 a23d 94aa 7cbd
00000340: 45de e33c b1f5 713d b308 4d3a cdd9 89bd
00000350: 5dce f8bd 9dea 00ba 444b 76bd 7fe5 0c3d
00000360: af22 a43d 5a97 a7bd cf3d 873d 2a48 c53d
00000370: 560a a6bd 8cb6 f9bd 789f 923d 7630 b73d
00000380: 22ef 5abc 251f 663d 60c0 633d 979e ccbd
00000390: 979b de3d 3cc3 543d 8988 92bd 2c21 95bd
000003a0: 6cae a93d cc3d 2b3b 0b30 ecbd 5b28 f0bd
000003b0: 991c 4b3d b3f5 c9bd a638 88bd 0fdf a13d
000003c0: f6ff f03c 9809 0dbd fde7 02be 49fc fdbd
000003d0: 1c03 93bd c590 cdbd 5098 91bd e946 7dbc
000003e0: 124f 13bc 58f3 8a3c daa6 743d 0de6 8bbd
000003f0: a046 cebd 2b18 feba 3fda 3e3c 1932 783d
-0.016182657 -0.08058269 -0.08227457 0.004115162 -0.09073271 -0.10243789 0.089725085 0.030506928
0.028294971 0.10752135 0.036065884 -0.048754074 0.021417137 -0.1139499 -0.0001430776 -0.046540476
0.027894288 -0.062393762 0.052938547 0.08216569 -0.04756177 0.03082625 -0.007538109 0.012808008
-0.120328 -0.07766508 -0.12035543 0.102771014 -0.08657344 0.106064446 -0.11998196 0.047575854
-0.007701762 -0.095000334 -0.10661388 -0.040548846 -0.07840958 -0.12622628 0.09461048 0.054501116
-0.08339626 0.062995784 0.061689567 -0.08463507 0.061249662 -0.03711584 0.07728312 -0.09253615
0.07464676 0.088415876 -0.09878107 0.10452065 -0.020801371 0.023972068 0.07597878 0.07669911
0.079284385 0.10910059 0.10469324 0.0647765 0.023623703 0.0973319 0.0438871 -0.031751588
-0.089113906 0.09859504 -0.120310664 0.049441025 -0.018553017 0.101962596 -0.04522054 0.077034265
0.012974666 0.05377025 0.0077747256 0.066729814 -0.11575585 0.009763164 -0.11462648 -0.00710837
-0.041998975 0.077029884 -0.056137502 -0.01835157 -0.014534597 0.09079769 0.018742682 -0.11830338
0.076966636 -0.024388911 -0.011533999 -0.023882693 0.012398469 0.0988182 0.019056568 -0.05318019
0.051936895 0.09227941 0.030460332 -0.03250475 -0.0643089 0.039618008 -0.023845932 -0.032897122
0.07377087 0.018569304 0.01880915 -0.011890181 0.08809912 -0.1131289 -0.10496953 0.07949019
-0.08886955 -0.008684089 -0.1309735 -0.116382286 -0.04698947 0.021728873 -0.08568643 -0.007419965
-0.06375519 -0.05236712 -0.026427744 0.10491654 0.013915758 -0.051018383 0.06633518 -0.026058815
0.02893518 0.07895737 0.07288035 0.09886582 0.046488743 -0.13771623 -0.04354518 -0.039780583
-0.089419894 0.07027149 -0.032411017 0.07069471 0.040687215 -0.09430628 0.033625666 -0.0794058
-0.017018985 -0.023605688 -0.05113296 0.08663274 0.02759573 0.011754516 0.040652774 -0.037707143
-0.03752471 -0.10980679 0.05236649 0.024971293 0.11423597 -0.089955494 0.0044420306 0.07759077
-0.02793075 -0.041506656 -0.024935177 -0.12959254 -0.008405628 0.02998534 -0.120676294 0.07552862
-0.073901705 -0.027795035 -0.12101055 0.07541439 -0.100940414 -0.109112754 -0.08702387 -0.06431521
-0.12644243 -0.001763919 -0.12303183 -0.00944886 -0.022207657 -0.12934634 -0.10319278 -0.040508855
-0.06914514 0.04129502 0.096200876 0.063383035 -0.0376108 -0.11764644 0.04274341 -0.011814023
0.09275239 0.09421953 -0.06009954 -0.019121815 -0.030417595 0.09338828 0.041808456 -0.024613596
0.007849217 -0.09342365 -0.06893727 -0.018347522 -0.0071529173 0.02868451 0.07926418 -0.061686113
0.027815947 0.0590722 0.00078214257 -0.06730995 -0.12148736 -0.00049177726 -0.060130373 0.034398552
0.08014428 -0.08183165 0.06603586 0.09632905 -0.0810744 -0.12193021 0.071593225 0.0894479
-0.013362678 0.056182045 0.055603385 -0.09991186 0.1086952 0.051944003 -0.07154948 -0.07281718
0.082852215 0.0026129363 -0.11532601 -0.11726447 0.04958782 -0.098613165 -0.0665143 0.07903873
0.029418927 -0.034432977 -0.12783809 -0.12401635 -0.071783274 -0.10037378 -0.071091294 -0.015458801
-0.00899102 0.016961738 0.059729435 -0.06830988 -0.100720644 -0.0019385865 0.011648714 0.06059465

layer2.0.bias f4 [32]
00000000: aaaf 4bbd c256 39bd b41d c73d 7aef ab3c
00000010: d644 8dbd 3ad6 d43c a231 6cbc 3ea7 02be
00000020: 58a6 193c 4599 e23d 96b7 bc3d 9e97 40bd
00000030: eb6f cbbd d927 efbd b76a fdbc 05aa de3d
00000040: 8a0e bb3d ac11 c23d 62da df3d f50a 44bd
00000050: e8b9 35bd 9512 8e3d 4300 3bbd aa32 593d
00000060: f74c 383d 68c5 5a3b 9cea c4bc 0883 273b
00000070: 0516 833c 3bb0 b83d 77a7 dfbd 94ce 2e3d
-0.049728073 -0.045248754 0.09722462 0.020988215 -0.06897895 0.025981057 -0.01441613 -0.1275911
0.009378038 0.1106439 0.09214704 -0.047019593 -0.09933456 -0.11677522 -0.030934675 0.108722724
0.091336325 0.09476027 0.10930325 -0.047862012 -0.044366747 0.06937138 -0.045654546 0.053026833
0.044995274 0.0033381823 -0.024037652 0.0025560278 0.01600171 0.09017988 -0.10920613 0.042677477

classifier.weight f4 [50, 32]
00000000: 727a 3e3e 51e7 2bbe b04d b5bd 2178 2ebc
00000010: f1ca 36bc 4eea a33b 956e 173e f313 1b3e
00000020: d67f c63d 1a42 34be 38fc dfbb 63a2 71bc
00000030: a042 2cbe 5394 e9bd c504 a73d 22ad 2d3e
00000040: 5775 0dbe 0baa bebd b84a 82bd fc21 19bc
00000050: bbfb 39bd 6984 bf3d 30e9 7d3d 0ee7 d63d
00000060: 55ef eabd b324 78bd c504 0f3c fb0d 1e3e
00000070: d072 173e 571b dd3d 81c9 ed3d 1814 f23d
00000080: efa2 9dbc c6f1 c4bd 4430 143e dc84 bf3d
00000090: ab30 ccbd 5d7a 163e c033 71bd 8e00 413d
000000a0: 9d77 09be 91a7 32be 1ff9 533d 1ea5 86bd
000000b0: 1b7f 42ba 8552 33bd 67a9 c53d 634e f4bd
000000c0: 15ec be3d 569e e93d d277 623d 08ef 9e3d
000000d0: 775a 34bd 4607 313d a1e1 93bd 0aed 9fbd
000000e0: 48ed eb3d ed7d 97bd 1f94 593d 1c74 33be
000000f0: 15d2 d7bd fb8f 0e3d a36d b0bc 3cc5 debd
00000100: 31f0 37be 1d17 12be 208c 4a3c 6777 103e
00000110: 2bf5 afbd 3872 603d 0a9e 2fbe c404 e33d
00000120: b822 f53d de59 92bd f747 33be 4464 4a3e
00000130: 22f6 2b3e 0261 103e ac6c 5cbd cca3 72bc
00000140: e0a6 0ebe a07f e1bc 6f09 c6bd c180 3f3e
00000150: a2ee 123e 9738 4cbd 8b16 1a3d 4313 093e
00000160: daef 823d c813 febd 2e49 8e3d ed17 e33d
00000170: 7c87 373d f4ac 413e 0559 30be 1ca4 40be
00000180: f9e0 ffbd 7b97 5c3d 9e97 d3bd c86a b83d
00000190: 0613 9d3c 3b95 e3bd 182c 9bbd a1f2 bf3d
000001a0: 1526 d13c e967 cd3d 1b2c ebbc 56cd 94bd
000001b0: bf49 463e 21b5 86bd 016c 853b 26d4 e7bc
000001c0: 5a88 cfbd 42a7 d5ba ff77 273e f22c a93d
000001d0: 0c31 ec3d 627f a03d d756 423d c143 89bd
000001e0: 0556 a7bd cd2a 9e3c b9dc 263e db75 eabd
000001f0: cd64 083c 0fc5 1dbe 57d0 e93d 6cb5 15be
00000200: d608 2abe 5bb6 b13d 0c8e ba3d be7c 863d
00000210: ace4 ae3d 9944 edbd 3fb5 113d c6b2 1c3e
00000220: 9e6c 3fbd c61e 263d b70e 443d c9cb f23d
00000230: 5e37 99bd 4bb0 28be f69f 28bd a2e9 0c3d
00000240: d378 e53d af4d ac3d 6c4c 24be 76f1 4e3c
00000250: e922 ba3d d32b 0cbe 6388 2b3e 91b5 ce3c
00000260: cc74 16be 1e20 f6bd d051 dabd 0197 2cbe
00000270: 8cef fcbd 4583 b03c beca a5bd 784d 2ebe
00000280: 78af c13d 1af5 29be 83d0 273c 710d 19bc
00000290: 6043 3ebc 8363 e3bb 6efb 4e3d 9c78 0a3c
000002a0: 2624 12be ebd5 4fbd 0c94 543d 6b84 bd3c
000002b0: 1443 b23d 8f45 44bd ed5e 05be 9434 3c3d
000002c0: fe2c c5bd 6dc0 a73d 7479 033e 8602 e3bd
000002d0: 8461 40bd bd25 22bd 3da6 b7bc c3c5 473d
000002e0: 7709 c6bd 4afe 18be 8c6b e83d 8911 9bbd
000002f0: 3efa 30be 6815 893d c41f 943a 7742 3fbe
00000300: f448 28bc 88bc d1bd 87cc 13be 00c8 80bd
00000310: ddbc 56bd ef26 cbbc 441b 2abd 8529 dc3d
00000320: cad0 e33c c785 113e ebfb 033d 5ed2 edbd
00000330: f102 bd3d dd57 37bb 3466 7a3d a4d1 9dbd
00000340: 08dd bb3d 276d 0d3e 36e2 d2bd e0c1 013e
00000350: 459d 1fbe 5494 f6bc 3fee 9fbc 47fd 173d
00000360: 8170 1e3e c53a 223e 6f6d 0a3d 68ec 24be
00000370: bc61 c43d 2b28 12be 46b5 a03d e692 bbbd
00000380: 248b f4bd b979 13bb acb5 393e 5a0f aebd
00000390: 9309 ebbd b06f 66bd 6099 84bd ce72 05be
000003a0: e8e7 2c3e 9abc 79bd 2887 d1bd 6b1f 24be
000003b0: 0e3d b2bd ca4c 05bd 4f39 23be 6279 9abd
000003c0: 96a6 fabc bd95 a73d fd24 19be e2a3 02bd
000003d0: 272c bf3d 56b7 bcbd fcc4 9dbd 7228 fcbd
000003e0: 949d b5bc 60d0 fa3d ff11 fdbd 838e 28bd
000003f0: 18aa b63d 7ddc b6bc b3fe dabd d90e 663d
0.18601397 -0.16787459 -0.08852708 -0.010648758 -0.011156783 0.0050022965 0.14788277 0.15144329
0.096923515 -0.1760334 -0.0068354867 -0.014748189 -0.1682229 -0.11405244 0.081552066 0.16960576
-0.13814293 -0.09309777 -0.06361908 -0.009346481 -0.045406085 0.09351427 0.061989963 0.10493289
-0.1147143 -0.060581874 0.0087291645 0.1543502 0.14789891 0.1079623 0.116106994 0.11820239
-0.019242732 -0.09616427 0.14471537 0.09351513 -0.0997022 0.14695115 -0.058887243 0.04711967
-0.13424535 -0.17446734 0.051751252 -0.06574462 -0.0007419453 -0.04377987 0.096514516 -0.119290136
0.09322373 0.11407153 0.05529005 0.07760435 -0.044031586 0.043219827 -0.0722077 -0.078088835
0.11519867 -0.07397065 0.053119775 -0.17524761 -0.10538117 0.03480528 -0.021536654 -0.10877463
-0.1796272 -0.1426663 0.01236251 0.14108048 -0.08591684 0.054796427 -0.17150131 0.11084893
0.11969513 -0.07146047 -0.17507921 0.19764811 0.16793111 0.14099506 -0.053814575 -0.01480956
-0.13930845 -0.027526677 -0.09669768 0.1870146 0.14348844 -0.049858656 0.037619155 0.13386254
0.06393404 -0.12406117 0.06947552 0.11088548 0.044806942 0.18913633 -0.17221458 -0.18812603
-0.12494082 0.0538554 -0.10331653 0.09004742 0.01917411 -0.11112448 -0.075767696 0.0937245
0.025530854 0.10029585 -0.028707555 -0.07265727 0.1936407 -0.06577516 0.004071713 -0.028299402
-0.10133429 -0.0016300457 0.16354369 0.08260526 0.115327924 0.07836796 0.0474461 -0.06702376
-0.08170704 0.019307518 0.16295137 -0.114482604 0.008324814 -0.15407203 0.11416691 -0.14619988
-0.16604933 0.0867736 0.091091245 0.065667614 0.085397094 -0.115853496 0.03557324 0.15302572
-0.046734445 0.04055669 0.047865596 0.11855275 -0.074812636 -0.164735 -0.041168176 0.034402497
0.11204686 0.084132545 -0.16044778 0.012630811 0.0908869 -0.13688593 0.16751246 0.025233062
-0.14692992 -0.120178446 -0.10660136 -0.16854478 -0.123503774 0.02154697 -0.08095311 -0.1702174
0.09457296 -0.16597405 0.010242584 -0.009341584 -0.011612743 -0.006939353 0.05053275 0.008451607
-0.14271602 -0.050741117 0.051899 0.02313443 0.087042004 -0.0479179 -0.13024493 0.04594858
-0.09627722 0.08190999 0.128393 -0.11084466 -0.046968 -0.03958677 -0.022418136 0.048772585
-0.09669774 -0.14940754 0.11348638 -0.07571704 -0.1728296 0.06693536 0.0011300971 -0.18677698
-0.0102713 -0.102410376 -0.1443349 -0.06288147 -0.052426208 -0.024798838 -0.04152991 0.10750107
0.02780952 0.14211188 0.03222267 -0.1161239 0.09229077 -0.0027975955 0.061132625 -0.077060014
0.09173018 0.1381117 -0.102970526 0.12671614 -0.15587337 -0.030100025 -0.019522784 0.03710678
0.15472604 0.15842731 0.03379577 -0.16105807 0.09588954 -0.14273135 0.07847075 -0.09158878
-0.119406015 -0.0022502972 0.18135709 -0.08499022 -0.114764355 -0.056258857 -0.064745665 -0.13032076
0.1688534 -0.06097088 -0.10230857 -0.1602761 -0.087030515 -0.032543935 -0.1593983 -0.07542683
-0.030597012 0.08182857 -0.14955516 -0.031894572 0.09334593 -0.09214656 -0.077035874 -0.12312402
-0.022169866 0.122467756 -0.12356948 -0.041151535 0.089191616 -0.022321934 -0.10693111 0.056166504

classifier.bias f4 [50]
00000000: 04fb 6e3d 9cc3 b1bc f766 423d b611 e3bd
00000010: 01fb d93c ded9 923c 9d1b a23d dc00 7a3d
00000020: e681 a6bc 9ad8 653d e056 f7bd b440 cd3d
00000030: b51c cfbd 3b5c ca3d f880 9b3c e326 d2bd
00000040: 807d f63d 1edc e3bd 88d9 16bd 2129 c3bd
00000050: 9a0d 823d d8f6 03be 2e13 d7bb 563e d0bd
00000060: 1836 b73d 1b28 853d 7fa0 8b3a 3b6d 18bb
00000070: 6eeb 32bd 1fed 463d 54e6 88bc 1e12 d13b
00000080: c1c0 e4bd afbf 08be e93b dabd e6ab b43c
00000090: 8381 e7bd 64bb e83d 72d8 14bc 4884 eb3c
000000a0: f895 773d c568 8e3d 4440 04bd 7ade 77bd
000000b0: 591b 4cbd 7e4c e63d a9c7 963d 94d7 bb3d
000000c0: 2738 a0bd ca31 af3b
0.058344856 -0.02169972 0.047461476 -0.110873625 0.026608946 0.017926153 0.07915423 0.061035976
-0.020325612 0.05611477 -0.12077117 0.10022107 -0.10112897 0.09880873 0.018982396 -0.10261323
0.12035656 -0.111259684 -0.036828548 -0.09529329 0.063502505 -0.12887132 -0.0065635657 -0.1016814
0.089458644 0.0650179 0.001065269 -0.0023258466 -0.043681554 0.04856598 -0.016711392 0.0063803336
-0.111695774 -0.13354371 -0.10655958 0.022054624 -0.11303999 0.11363867 -0.009084808 0.0287496
0.060445756 0.06953577 -0.03228785 -0.060514905 -0.04983077 0.112450585 0.07362301 0.09171978
-0.0782321 0.0053465115
