results/CIFAR100_dataset/contrastive_loss/margin_2.0_first_model_nb_classes_50_data_percent_10/model_ckpt.pt (torch_old, 802778 bytes, 6 tensors)

layer1.0.weight f4 [64, 3072]
00000000: 5d4d 993b 85f3 9abc 3029 4fbc 0158 4dbc
00000010: bb69 543a 6aa6 ecbb f03e 4d3c e06f e3bb
00000020: 699b a03a 9cc4 6bbc 4d93 153c a3c3 b33a
00000030: 6b6d 6ebb 5c71 8cbb e8ea 4e3c 6b8b c43b
00000040: 2951 5038 677b ceba 72f5 84bc 2ac0 7bbc
00000050: 105a 9fbb 494a 8ebc e4fd 30bc 1628 0239
00000060: eca8 15bb e6c8 8ebb c97e 7a3c 39a2 f53b
00000070: b145 e5bb a35d f93b b283 1cbc 7737 19bc
00000080: a971 bc3b 333a 2e3c 3fe8 72bc 4368 10bc
00000090: 178f 813c 131d 0bbc 6c5b 47bc 57a8 21bc
000000a0: 5dc6 1d3c c2d4 6ebc 5864 dd3b 2863 f63a
000000b0: 0937 21bc d6ef 58bc 2ce5 2e3b b688 753b
000000c0: e52c 6a3c 84eb 19bc 2ffa babb 4ef7 173b
000000d0: 9d8f 493b 612b 573c f965 1abc 049a 51ba
000000e0: 95fe f7bb 9942 2d3b 15c2 943b c503 b6b8
000000f0: 1be6 bdbb e47e 5e3b 3c30 bc3b 8f3c 31bb
00000100: 93e1 bc3b 1942 6fbc ea7e 9dbb a45b 8bbc
00000110: bf49 e1bb a33a 98bc d8df 78bb 2fad 043b
00000120: ce92 bd3b 90fb 483c 9448 563b f1f3 2c3b
00000130: 1e86 23bc 1271 f63b a302 b53b 8ae9 faba
00000140: d2ab 5f3c 55a3 5abc da25 8e3b db70 6b3b
00000150: 87ff 83ba df38 8dbc b9c4 03bc 3923 76bc
00000160: c6da 8c3c 70e1 123a b844 2fbc 6c61 6bbc
00000170: 3ca5 85bb f239 c3ba 778b 6d3c 5d50 ea3a
00000180: 1ea6 5cbc 8375 6ebc 1949 2b3c 1422 71bc
00000190: df06 373b 90aa 0b3c 5a5c 103c 9af2 243c
000001a0: 32b3 7cbc aa03 7a3c bd62 853c 6ba9 113b
000001b0: 4acb 23bc 3833 68bb 65cc 4f3c 039a dcba
000001c0: 2ad9 363c 6e69 fb3b 491d 57bb c203 803c
000001d0: cf70 f3ba 4808 543c 1e2e c53b 8223 8ebb
000001e0: be78 383c 706b 873b cede ce3b 1c03 80ba
000001f0: bb36 10bc f26e 2bbc c712 d2b9 902e b93b
00000200: ac1b 183a 367c 783c 0298 8d3a 29d0 12bc
00000210: dc92 353c 364b ef3a ed74 583c 50e9 d038
00000220: 9c36 893b cb5d 1f3b c969 2dbc 8004 703c
00000230: b3a7 8fbb eb51 743c 4a1b 86bb 0abd 9bbc
00000240: 9476 2a3b 5ab7 36bc c060 953c 977c 383c
00000250: 9437 473c 940a 883c e267 343b 759c 533c
00000260: 9b77 3a3b bb0b 5d3c eaf4 dab6 9c16 6f3c
00000270: 37ea 273c ac02 88bb ce4f 96bc 41cd 363c
00000280: b9fa aa3b 8e74 723c 687f 123c bcb7 fb3a
00000290: 26ab 09bb 55d5 4d3b 2bf5 5f3c adef b23b
000002a0: 7aa9 acbb ec4f 90bc af42 763a 5e50 c63b
000002b0: 8aeb 843b b360 80bb 64b8 5cbc 3498 203c
000002c0: 1557 f83b fcdd d8bb a1d0 d3bb 663f edbb
000002d0: 3156 40ba 054a 3f3c a05b 99bb 3d3d 7fbc
000002e0: ba9b 19bc b1bc 3d3c b067 6d3b b701 de3b
000002f0: 84ad 8a3b 1efd 39bc 42c1 223c 7747 06bc
00000300: dc47 513a efbd 22bc b575 0f3c a3b6 833b
00000310: 47ef b33b ec52 213c 4130 3bbb e746 343c
00000320: f6a5 89bc b611 1eb9 4eb8 5e3c 061d 38b7
00000330: cabb 20bc 4bcb 1e3c b3fc 76ba 1d35 9ebb
00000340: 4957 87bb dbec cd3b 42a3 e43b 57a8 b3bb
00000350: dc1f c6bb fc9c b03a 8194 2d3b fe09 e1ba
00000360: 75e7 09bc a23a 84bc 88dd 3c3c 9bc8 1dbb
00000370: 8899 7c3c 5c62 df3b 0779 e3bb 0e40 753c
00000380: 470f 72bc 2d6e 6e3c 6d18 42bc 91f3 87bc
00000390: 013e a5bb 807b 263c 1c90 0f3b 8869 f23b
000003a0: 46eb 34bc 2dcc ca3b c41e bb3b d6b2 cd3b
000003b0: 4838 edbb 50fd 7ebc 2cce a03b 9e6e 853c
000003c0: 6c6a d6bb 68e9 2a39 6e9c fb3b 5216 24ba
000003d0: 730a fe3b 8f76 5c3c 9cb6 703c 70d8 5b3a
000003e0: 4feb 083b 1d3a 253c 901e 873c b735 4e3c
000003f0: d96d 9f3b f40f 94bc 5641 dabb e2fd 1cbc
0.004678412 -0.018914947 -0.012644097 -0.012533189 0.0008102913 -0.0072219865 0.0125272125 -0.006940827
0.0012253347 -0.014390137 0.0091293575 0.001371492 -0.0036381136 -0.0042859744 0.012629248 0.005998065
4.966665e-05 -0.001575333 -0.016230319 -0.01536564 -0.004863031 -0.017369406 -0.01080272 0.000124127
-0.002283628 -0.004357445 0.015289017 0.007496145 -0.0069968333 0.0076100393 -0.009552883 -0.009351603
0.005750854 0.010633993 -0.01482588 -0.00881392 0.0158153 -0.008490819 -0.012167793 -0.0098667955
0.009629813 -0.014577093 0.0067563467 0.0018797861 -0.009839782 -0.013240775 0.002668689 0.003746552
0.01429293 -0.00939453 -0.0057060937 0.0023188177 0.0030755766 0.013132901 -0.009423726 -0.00079956674
-0.0075681903 0.00264374 0.004539738 -8.6791384e-05 -0.005795253 0.0033950144 0.0057430547 -0.0027044152
0.005764195 -0.014603161 -0.004806389 -0.017011471 -0.0068752463 -0.018582648 -0.0037975218 0.0020244827
0.0057853227 0.012267008 0.0032697069 0.0026390518 -0.0099807065 0.0075208033 0.005523996 -0.0019143086
0.013651805 -0.013344605 0.0043380084 0.0035925421 -0.001007066 -0.017239032 -0.008042508 -0.015023046
0.017194163 0.0005603051 -0.010697536 -0.014366489 -0.0040785354 -0.0014894588 0.014498583 0.0017876733
-0.01346734 -0.014554384 0.01045444 -0.0147175975 0.002792768 0.008524552 0.008811081 0.010067606
-0.015423583 0.015259663 0.016282434 0.0022226225 -0.009997198 -0.003543092 0.012683009 -0.0016830567
0.011160174 0.0076724803 -0.0032823852 0.015626792 -0.0018573048 0.0129414275 0.0060174605 -0.004337729
0.011259256 0.0041326806 0.0063131815 -0.0009766552 -0.008802111 -0.010463463 -0.00040068312 0.0056513026
0.0005802463 0.015166333 0.0010802748 -0.008960762 0.011082377 0.0018256668 0.013211471 9.961671e-05
0.004187418 0.002431738 -0.010584303 0.01464951 -0.004384005 0.014912109 -0.0040926086 -0.01901104
0.002601062 -0.011152113 0.01823461 0.011260173 0.012159247 0.016606607 0.002752774 0.01291572
0.0028452638 0.013491566 -6.525418e-06 0.014592793 0.010248712 -0.004150709 -0.0183486 0.011157335
0.0052178768 0.014798297 0.008941509 0.0019204537 -0.0021006553 0.0031407673 0.013669292 0.0054607005
-0.0052692266 -0.017616235 0.0009394092 0.006052061 0.0040563988 -0.0039177774 -0.0134716965 0.009801913
0.0075787404 -0.0066182595 -0.0064640795 -0.0072402237 -0.0007337062 0.0116753625 -0.004680112 -0.015578565
-0.009375507 0.011580632 0.0036225133 0.006775107 0.0042321105 -0.011351852 0.009933772 -0.0081957495
0.0007983425 -0.009932979 0.008756091 0.0040195747 0.0054911706 0.00984643 -0.0028562697 0.011003233
-0.01680277 -0.00015074652 0.013593746 -1.0974012e-05 -0.009810397 0.0096920235 -0.00094218104 -0.004828109
-0.0041302782 0.006284339 0.0069774697 -0.005482714 -0.0060462784 0.0013474519 0.002648622 -0.0017169116
-0.008417 -0.01614124 0.011527427 -0.002407587 0.015417464 0.0068171453 -0.006941918 0.014968885
-0.01477415 0.014552635 -0.011846644 -0.016595634 -0.005042792 0.010161281 0.0021905964 0.007397834
-0.011042422 0.0061888904 0.0057104547 0.0062774224 -0.0072393753 -0.015563324 0.00490739 0.016288098
-0.006543448 0.00016299414 0.00767856 -0.00062594295 0.0077527105 0.013456001 0.014691975 0.0008386439
0.0020892208 0.010084656 0.016494066 0.012586049 0.00486539 -0.018074013 -0.0066606207 -0.009582015

layer1.0.bias f4 [64]
00000000: 80b1 06bc 89f3 5a3c cb1e fb3a c67a 2c3a
00000010: e9b0 17bc 8e17 5bbc b883 863a ae82 96bc
00000020: 03c0 95bb 752a 2c3b 29cf 84bc eb0b ca3a
00000030: 339a 35bc f9d7 9cbc f0be 82bc ea2e bbbb
00000040: b9c5 d6bb 9248 633b 88af a33b 6e9b 683c
00000050: 8cb3 843c 0e8b cdbb 364d d73b 4826 3fbc
00000060: 2fc7 383c 6bcf 13bb 7c50 08bc c56e 443c
00000070: daca 59bb 64e9 393c 8bd5 b4bc 3e35 17ba
00000080: 82a7 9cbc 593c 87bc 528e 70bb afe7 56bc
00000090: e1ee 93bc 69e8 c43b 5641 4ebc 5dbe 2ebc
000000a0: af19 a0bb fef0 833b 713d 6b3c 2cbb ecbb
000000b0: d185 8f3b d427 a9bb 07b0 e73b 57c3 113c
000000c0: 6b30 f0bb aa47 a5bc 4f73 283c 80a5 663b
000000d0: c510 1abc 5c55 a43b 4c29 8cba 183b 0b3c
000000e0: 3296 ab3b 9b1f 78bc 65d6 09bc 676e 093b
000000f0: ff74 61ba 76de 02bb 95ac f1bb ad03 07bc
-0.00822103 0.013363727 0.0019158957 0.0006579574 -0.009258487 -0.013372315 0.0010262644 -0.01837286
-0.0045700087 0.0026270424 -0.016212063 0.0015414929 -0.011084127 -0.019145953 -0.015960187 -0.0057123797
-0.006554332 0.0034680706 0.00499529 0.014197214 0.016198896 -0.00627268 0.0065704836 -0.011666842
0.011277958 -0.002255405 -0.00831997 0.0119893 -0.0033232481 0.011347149 -0.022074481 -0.00057681266
-0.019122843 -0.016508268 -0.0036705923 -0.013116761 -0.018058242 0.0060091508 -0.0125888195 -0.010665503
-0.004885874 0.0040265312 0.0143579105 -0.007224461 0.004379966 -0.0051622186 0.0070705446 0.00889667
-0.0073299906 -0.020175774 0.010281398 0.003519386 -0.009403412 0.0050150584 -0.001069346 0.008497976
0.0052364105 -0.015144254 -0.008412932 0.0020970346 -0.00086005026 -0.0019969023 -0.0073753097 -0.0082406225

layer2.0.weight f4 [32, 64]
00000000: b1fe b13d 96d1 7a3d 178d fbbc 2bd0 5e3d
00000010: c789 1dbc 9bb4 e83c c416 6cbb 2ce9 ff3c
00000020: d3e5 393c a7ab b1bb acc7 ea3d 894f 993d
00000030: 2316 dd3d dd30 6d3d 4a24 9a3d da59 fdbd
00000040: e7ce 92bd b7f3 a23d c547 8bbc eeae e93d
00000050: 1df7 ed3a 8b44 bebc fc23 eabd 9e5c febc
00000060: 6277 bebc 97f0 c03d cf08 c43c 1325 263d
00000070: a8e3 fdbd ff91 94bc 5b44 9fbc fe34 5cba
00000080: ffcc 73bd a431 15bc 176c a33d a256 ab3d
00000090: 2655 f13d 58bc 3b3d 0aba 0c3d 6c10 253d
000000a0: 391c 41bd 47f5 013d a464 3bbc f828 a5bd
000000b0: 8903 f53d 63ac c93d 66fc a8bd 62e4 583d
000000c0: 7729 ac3d 23d8 41bd b9e0 dcbc d35b 9abc
000000d0: 476a af3c 8224 bf3d 8291 b4bd 3207 47bd
000000e0: f3da ccbb 263a 3e3c 6bd8 20bc ec5c 53bc
000000f0: 145f b4bd 6b2c c6bc 0b49 75bd d9e8 f9bd
00000100: 7fbf f7bc cb13 6f3d 4fef f33c 402c 003e
00000110: e6e7 c23d 5529 24bc dde7 4fbd f44f e8bd
00000120: 7a8e a43c ea93 30bd ceb5 9d3d d49f 91bd
00000130: f143 7ebd b731 303c b5e3 c53c f4fb e4bc
00000140: f2a4 263d 6556 6b3d 0fef 10bd 7cc2 dcbb
00000150: 74e1 b43d 2e23 94bc e4dc 653c b86c 83bd
00000160: 7cd1 7c3c 302c 13bd ae06 d03d 11db d9bd
00000170: 740c fa3d e42b 8fbd b9b4 58bd 4e40 b4bd
00000180: c7ec 00be 263f 7c3d 419d 17bd f9a6 b23d
00000190: cb89 90bd caa6 763d ed50 aabd c4b3 01be
000001a0: e6c6 093d 423e f8bd d26f d33c 17d4 a8bd
000001b0: 43ab edbd ab4f 7c3d 88e4 0fbd 7161 9f3d
000001c0: 1394 22bc a803 4f3d 6848 963c 11fb d6bd
000001d0: 6d60 aabd fd11 74bc 9581 6d3c 4927 ec3d
000001e0: 012a 8b3a ab37 87bd 52ad 923d c97b f03d
000001f0: 18ec 2ebd f5a0 9d3c bcf6 b6bd cb1b f5bd
00000200: af66 f23d 3df4 e0bb 87eb b73d 3cc7 d03c
00000210: 71b2 af3d 6628 bb3c f654 cd3d d812 abbb
00000220: 062b 7b3d 28de 213d 0d31 fcbc d931 b0bd
00000230: 875e bfbd 3779 173c 32d2 c23d aa16 823d
00000240: 883c 633d 8639 36bd ed3d 7bbd c85e dabd
00000250: b21a e93d 416c 8a3a 0708 123d f567 203d
00000260: 0dbf 63bd 3a6f e93d 2d81 e8bc 3014 bd3d
00000270: 181a 81bd 21dd a0bd f264 7c3d 379f 0a3c
00000280: 2afc 77bd d53f ddbd 70b7 a4bd d38b f4bd
00000290: ddc5 7cbd 24f5 1ebb 7a9a c8bb 5dca 2b3d
000002a0: c5d8 5cbd 38c4 95bd b227 6abd 2030 edbd
000002b0: 5d14 513d c6ef 43bc 2793 97bd 1429 033d
000002c0: e60f f8bc 9b9d d8bb 5148 9ebc 5151 94bc
000002d0: 9517 073b 571d 59bd b4ce b0bd 023b d93d
000002e0: a7eb 8dbc 9dd3 dabd 56a2 8fbc d8a1 b93d
000002f0: 74f3 f6bc 3edf b3bd 56bb a8bd 1e10 e63d
00000300: 6f94 153c 3dc1 e3bd ca45 fbbd 4c9b 8a3d
00000310: 5ab1 e43c bd06 d73c 9cc1 d1bd ea20 af3d
00000320: 5727 e93d 8545 153b 3dd2 8d3d 143c 9bbd
00000330: 12c5 bbbd 00b4 c7bd 02c4 b93d 94f4 8e3c
00000340: 3055 00bc 4eed 093d 8dbf ffbb 2735 7ebd
00000350: 2fd2 8bbd eb0c 093d 44a8 5a3d 813c ad3d
00000360: f40b e2bd 5669 10bd 7768 12bd ef5a 04be
00000370: 5932 01be c8d9 bb3d 1e69 e93d e59f bc3c
00000380: d393 193d ef3f d9bd 1c33 e03d 1f71 753d
00000390: 9fd3 713c f606 cebd 5f21 a5bb 35a4 21bb
000003a0: 6873 fbbd 6f7b a43d 99fe dfbd 1d7c 7dbd
000003b0: 00f1 71bd 94ef d0bc e9ae 80bd 442c 83bd
000003c0: 7b1a 653d 44cb f3bb 10a4 5d3c 77c0 a03d
000003d0: 8b01 853d 8bd1 d3bd 040b 983d 6864 e4bd
000003e0: a8d1 bc3d 18e1 943d 9fff 1fbc 0194 dc3d
000003f0: 7cab a7bc 2ebc 14bd d9a1 ae3d 1880 ca3d
0.08691157 0.061235033 -0.030706925 0.054397743 -0.009615368 0.028406432 -0.0036024312 0.031239115
0.011346298 -0.005422074 0.11463866 0.07485873 0.10795238 0.057907928 0.07526453 -0.123706535
-0.0716837 0.07956641 -0.017001996 0.11410318 0.001815531 -0.023226043 -0.11432645 -0.031050023
-0.023250286 0.09420889 0.023929982 0.0405627 -0.123969376 -0.018136023 -0.019441774 -0.00084002304
-0.05952167 -0.0091060735 0.07979601 0.08366133 0.11783819 0.045833915 0.03435711 0.040298864
-0.047146056 0.031728055 -0.011437569 -0.08064455 0.11963565 0.09847333 -0.08251266 0.052952178
0.08406346 -0.047325265 -0.026962625 -0.018842613 0.021412982 0.09333135 -0.08816816 -0.048590846
-0.0062516867 0.011610543 -0.009817223 -0.012900572 -0.08807197 -0.024191102 -0.059884112 -0.12202615
-0.03024268 0.058368485 0.029777197 0.1251688 0.09516887 -0.01001962 -0.05075823 -0.11343375
0.02008747 -0.04310981 0.07700692 -0.07110563 -0.062076513 0.01075404 0.02415643 -0.027952172
0.040684648 0.05745544 -0.035384234 -0.0067370515 0.08832064 -0.018083181 0.014029715 -0.06417221
0.015430804 -0.035930812 0.10157524 -0.10637487 0.122094065 -0.06990793 -0.052906726 -0.08801328
-0.12590323 0.06158366 -0.037015203 0.08723254 -0.07057532 0.060217656 -0.083162166 -0.12666231
0.03363695 -0.1212125 0.025810156 -0.08243578 -0.11604931 0.061599415 -0.035130054 0.07782257
-0.009922999 0.050540596 0.018345073 -0.10497106 -0.08319173 -0.014896867 0.014496227 0.115309305
0.0010617377 -0.06602415 0.071619645 0.1174236 -0.042705625 0.01924179 -0.089337796 -0.11968192
0.118359916 -0.006865053 0.0898047 0.025485627 0.08578957 0.022846412 0.10025971 -0.005220752
0.061320327 0.039518505 -0.030785108 -0.08603258 -0.093442015 0.009245208 0.09512748 0.06351979
0.05547765 -0.044488452 -0.061338354 -0.10662609 0.11382045 0.0010560827 0.035652187 0.03916164
-0.055602122 0.11398168 -0.028381908 0.09232366 -0.06303805 -0.07854677 0.061619706 0.008460811
-0.060543217 -0.108031906 -0.080428004 -0.11940732 -0.061712135 -0.0024255002 -0.0061219307 0.041941036
-0.053917665 -0.073128164 -0.057166763 -0.11581445 0.05104481 -0.011959022 -0.07401114 0.032021597
-0.030281018 -0.006610585 -0.019321593 -0.018105181 0.0020613421 -0.053006496 -0.086331755 0.10606958
-0.017324282 -0.10684893 -0.017533462 0.09064072 -0.030145384 -0.087828144 -0.082388565 0.11233543
0.009129628 -0.11120842 -0.122691706 0.06767902 0.027916599 0.02624833 -0.10242006 0.085512
0.113844566 0.0022777033 0.069248654 -0.07579818 -0.091684476 -0.09751129 0.09070589 0.017450608
-0.00783281 0.033673577 -0.007804817 -0.06206241 -0.06827199 0.033459585 0.053383127 0.08458806
-0.11037436 -0.035256706 -0.035744157 -0.12925313 -0.12616862 0.09172398 0.11397003 0.023025462
0.03749449 -0.106078975 0.10947248 0.059922334 0.014759927 -0.100599214 -0.0050393785 -0.0024664525
-0.12277871 0.080313556 -0.109372325 -0.06188594 -0.059067726 -0.025504865 -0.062833615 -0.064049274
0.055933457 -0.0074400026 0.013527885 0.0784921 0.06494435 -0.103427015 0.07423976 -0.111519635
0.09219676 0.07269496 -0.009765535 0.10770417 -0.020467512 -0.036312275 0.08526964 0.09887713

layer2.0.bias f4 [32]
00000000: c635 bf3d 509b 77bc 34a5 d63d 67c7 fb3c
00000010: 17c2 763c cf46 803d f3e1 b03d 1503 a43d
00000020: d857 903d d6f8 e13c 1ab1 c13d f154 dd3d
00000030: 07de c9bd 349a 77bc fa11 a83d 21d5 01be
00000040: 79ee 10bd 26e1 1ebd 0170 91bc 4e91 c4bc
00000050: 6f8b 84bc c688 88bd 799a 513d a65e f7bd
00000060: 95d2 b0bc 44f3 05bd 8c3c c4bc 9eb2 953d
00000070: d66c 1cbd c4b8 483d 3757 aabd 0fc3 933d
0.09336428 -0.015112713 0.10480729 0.03073473 0.015060923 0.06263506 0.086368464 0.080084
0.07048005 0.027584475 0.094576076 0.10807217 -0.098568015 -0.0151124485 0.08206554 -0.12678958
-0.035383675 -0.038788937 -0.017753603 -0.023995068 -0.016179768 -0.066667125 0.051172707 -0.120786
-0.021584788 -0.0327027 -0.023954652 0.07309459 -0.03818973 0.04900433 -0.08317416 0.07214939

classifier.weight f4 [50, 32]
00000000: cf64 d5bd ba78 f6bd 745b 3fbe 95d5 113d
00000010: d2db 67bd 8977 0b3e a33a a6bd 88ba f7bd
00000020: 2103 f23b 93d5 033e 65bd 0f3e 42a2 0dbd
00000030: 674c 8ebc 1470 cbbc 8cdf 18be ef4c e23d
00000040: f8e7 68bd aaec 303c f99f 063e 1e5f ca3c
00000050: 0ef3 08be 9936 6dbc 6b06 9cbd bf89 d5bd
00000060: 2f7e 33bd 3e05 2abe 332b 63bd bbba febc
00000070: 345c f93d 7352 fc3d 7750 f93d 47ee 263e
00000080: 082a 1d3e 19ee 83bd aa85 be3c c974 c73d
00000090: 499d 133e 1418 123e 070c 08be 573b 4c3d
000000a0: 3af7 c03d f5c8 febd cfe1 153d bba3 45bd
000000b0: a74e 9a3d ce27 f6bd 1171 b63d e50a 32bd
000000c0: f8ea 68bd 2f24 06be 5686 1abe 9964 31bd
000000d0: 6bb1 42bd 840b 13be 895a 84bd fa74 85bd
000000e0: 64aa 9fbd b2a2 643d cd53 9b3d c229 12be
000000f0: 7fc7 0cbe 7b68 2d3d aadc e73d 5220 dabd
00000100: ee3c 99bd b652 5ebd c5da 0b3e b28a 373e
00000110: c2e8 37bc 8398 04be d1c2 a43b c328 083c
00000120: 0c3a 9dbc 02b5 cbbd 9067 02be 2940 9d3d
00000130: 1995 183e 63a6 08be 56a7 83bd 19c9 283e
00000140: bec2 043e d541 b43c 6fd7 303e 6e4f 02be
00000150: 3d2a 273d 774e a4bd 9dfe 403e 0c3b e7bc
00000160: 132a 603d b9b5 053e 4cf5 13be 01d0 1d3d
00000170: 3553 7a3d edf1 233e bae5 bcbc b62e 42bd
00000180: ea8d d4bd 73a8 273d 0b6c 543d 1d82 a53c
00000190: 3adb 9d3d 6833 90bd 7314 2abe f0e1 213e
000001a0: 74c2 08be 009d af3d a4fc 09bb 5602 00bd
000001b0: 4962 d5bd 8423 37bd 8bf2 9e3d e93e 0abd
000001c0: 7c5a 3a3d e5f7 a53d d73a 15be b70a ad3d
000001d0: cf47 26be d835 d3bd 2e99 38be 2a01 4f3d
000001e0: 43e2 183e d805 0abe 6afb f33c 2916 2d3e
000001f0: a160 fdbd d158 b1bb 895d 973b 4aa0 853d
00000200: e6f6 463d e68b ea3d 609d 393e cba7 1fbd
00000210: c332 1cbe 83fe 323d 16f9 8fbd d387 ea3d
00000220: 031a a63d 1cc9 3b3e 0bb8 c93d 4838 053e
00000230: 8ffd c0bd 0fa2 30be 06e6 e2bd fbfa 403d
00000240: b24e 38bd 545a 07be f129 08be c72b 6dbd
00000250: 5780 9a3d 5aa3 8c3d b0a9 323e a55c e03d
00000260: f246 013e f280 26be 81ed 28be d0f6 b63d
00000270: 1933 22bd b5ba 2abc 9d9e edbc fd66 b23d
00000280: c7ed 043d 3667 c3bd 8497 57bd 0e97 893d
00000290: 752d 323d 5155 7f3b 735b c03d 9de6 8d3d
000002a0: 90e2 ddbd b621 a6bd afe2 1c3e 5b88 143e
000002b0: f371 913d 71c3 35be bacf 8ebc 3def 1abe
000002c0: 8055 bbbd 8e3e 0b3e 65d7 35be abdf 7ebd
000002d0: c82d 3d3d 7044 eabc c5af 22be 3a0e bdbc
000002e0: 13c5 073e 1ff7 32be be12 2a3d bea9 9cbd
000002f0: 2189 23be 79f5 89bd 7061 3a3d 4b2a f0bd
00000300: 1890 4abd d948 96bd 61a7 e63c 55b3 8e3d
00000310: df7e 253d 580d 393e 173e 17be e0b8 13bd
00000320: 9a5c 23bd 1928 b33d 3abc 003d d958 89bd
00000330: 945b 1fbe fa04 acbb e3dd 8dbd a1b9 1c3d
00000340: a8ea 35be 5c97 04be f769 263d 52da f5bd
00000350: 58e5 06be 2326 2a3d 53a7 6e3d 684e 08be
00000360: 0518 debd 0f24 8f3d 69d3 bdbd 933e 5e3d
00000370: db2c f03d 7eab b4bc a036 babc dfcb 443e
00000380: a2b0 093b d3a3 31bc ef3d b73d e8e5 303e
00000390: f8c2 40bd 7616 1e3e abc4 0abe 41b7 473c
000003a0: 0136 27bd ae1c e53d caea ca3d e3b4 d4bd
000003b0: 6e4c 38bd c7c4 8dbd 562c 01bc e34f dbbd
000003c0: b9b6 ae3d c242 81bc 62f3 16be 6707 93bd
000003d0: abea ae3d 90e4 823c 71b2 eb3a ee0c 0abe
000003e0: 57d5 723d 7e15 d5bd 33d1 2c3e b395 143e
000003f0: 0d8f c03c 68ad 1a3d a00b a13d 2887 21be
-0.10419618 -0.120347455 -0.1868723 0.03560408 -0.05660612 0.13619818 -0.08116653 -0.12096125
0.007385627 0.12874441 0.14037092 -0.03457857 -0.017370416 -0.024833716 -0.14929026 0.1104983
-0.056861848 0.010798613 0.13146962 0.024703559 -0.13373968 -0.014478349 -0.07618412 -0.104266636
-0.04382151 -0.16603562 -0.05546112 -0.0310949 0.121757895 0.123204134 0.121735506 0.16301833
0.15348065 -0.06441898 0.023257095 0.09739072 0.14415468 0.14266998 -0.13285838 0.04986128
0.09422155 -0.12440673 0.0365923 -0.04825185 0.07534533 -0.12019311 0.089082845 -0.04346742
-0.05686471 -0.1309974 -0.15090308 -0.043308828 -0.04753248 -0.14359862 -0.06462581 -0.06516452
-0.07796171 0.05581922 0.07584343 -0.14273742 -0.13747977 0.04233597 0.11321385 -0.10650696
-0.074823245 -0.054278098 0.13657673 0.17924002 -0.011224927 -0.12948804 0.0050281067 0.0083105
-0.019192718 -0.09946634 -0.12734818 0.07678253 0.14900626 -0.13344721 -0.06428401 0.16482963
0.12964913 0.022004047 0.17269681 -0.12725613 0.040811766 -0.080227785 0.18847127 -0.028226398
0.054727625 0.13057603 -0.14449042 0.038528446 0.06111451 0.16010256 -0.02305876 -0.04740783
-0.103786305 0.04093213 0.05186085 0.020203644 0.0770783 -0.07041055 -0.16609363 0.15808845
-0.13355428 0.08574867 -0.0021055127 -0.031252228 -0.10419137 -0.044711605 0.07761105 -0.033751402
0.04549645 0.08103923 -0.14573227 0.08449309 -0.1623833 -0.10313004 -0.18027183 0.05053822
0.14930062 -0.13478792 0.02978297 0.16902985 -0.12371946 -0.005412199 0.0046193046 0.06524713
0.048575304 0.11452465 0.1812644 -0.03897838 -0.15253739 0.043699753 -0.07029931 0.11451688
0.0811043 0.18338436 0.098495565 0.13009751 -0.094233625 -0.1724932 -0.1107903 0.047114354
-0.044996925 -0.13218051 -0.1329725 -0.057903077 0.0754401 0.06867094 0.17447543 0.109551705
0.1262472 -0.16260126 -0.1649685 0.089337945 -0.03959951 -0.010420491 -0.029006297 0.0871105
0.032453325 -0.0954117 -0.05263473 0.067182645 0.043500382 0.0038960765 0.093924426 0.069287516
-0.10834229 -0.081118986 0.15320848 0.1450514 0.07101812 -0.17750336 -0.017433036 -0.15130325
-0.09147167 0.13598081 -0.17757948 -0.062225025 0.04618624 -0.028597087 -0.15887363 -0.023078073
0.13258772 -0.17477082 0.04152178 -0.07649563 -0.1597028 -0.06736273 0.04550308 -0.11726817
-0.049453825 -0.07338113 0.028155984 0.069677986 0.040404197 0.18071496 -0.14769779 -0.036064982
-0.039883234 0.087478824 0.031429507 -0.067063995 -0.15562278 -0.0052496167 -0.06927087 0.038262967
-0.17765296 -0.12948364 0.0406284 -0.12004532 -0.13173425 0.041540276 0.05826504 -0.1331116
-0.10844425 0.069892995 -0.09268839 0.054258894 0.117273055 -0.02205443 -0.022731125 0.19218396
0.0021009822 -0.010842281 0.0894736 0.17275202 -0.047060937 0.15438256 -0.13551585 0.012189687
-0.040822987 0.11187111 0.09908064 -0.10386064 -0.044994764 -0.06922298 -0.007884106 -0.107085966
0.08530945 -0.015778903 -0.1474128 -0.07179146 0.08540853 0.015978128 0.0017982257 -0.13481495
0.059285488 -0.1040449 0.16876678 0.1451023 0.023505712 0.03776303 0.078635454 -0.15774214

classifier.bias f4 [50]
00000000: 0b08 063e 7645 b83d 4d0b 13be 2685 9a3d
00000010: dc94 05be 8bf7 99bc 3949 a8bd b29d 013d
00000020: 825e b63d f9a9 d93d fa0d 843d 0ebf 023e
00000030: afc5 b83c 4b67 d1bd 3415 56bd 5a02 76bd
00000040: 598c d23d 39e8 173d 4abe 033d c590 193c
00000050: 78ce 19be 0a6c 353d 7cdb d73d a07c c03d
00000060: ebbc b4bd 8ebf 93bc 2065 d43c 789f 473d
00000070: 668b 363d 809b 043c e1c4 a13d b6b1 e93d
00000080: 8969 3b3d 4523 c9bd 3649 063e 7c57 df3d
00000090: 8d4f 903d 5566 143e b963 103e 797f 4a3d
000000a0: 6c19 333b 3423 92bd 2121 4b3d a198 0b3e
000000b0: e5cd 9d3d c50d 023e 9942 16be 0d08 113e
000000c0: 9e6a f8bc 3f2c c63d
0.13089006 0.089976236 -0.1435978 0.07544927 -0.13045067 -0.018794795 -0.08217091 0.03164453
0.08904745 0.10628123 0.06447978 0.12768194 0.0225552 -0.1022478 -0.052266315 -0.060060836
0.102806754 0.0370867 0.032163896 0.009372895 -0.15020168 0.044292487 0.1053991 0.0939877
-0.08825096 -0.018035676 0.025927126 0.048736066 0.044566534 0.008093715 0.0789888 0.11410849
0.045754943 -0.0982118 0.13113865 0.10905358 0.07046423 0.14492162 0.14100541 0.049437974
0.0027328385 -0.07135621 0.04959214 0.13632442 0.07705287 0.12700565 -0.14673842 0.14163227
-0.030324277 0.09676408
