results/CIFAR100_dataset/contrastive_loss/margin_2.0_first_model_nb_classes_50_data_percent_80/model_ckpt.pt (torch_old, 802778 bytes, 6 tensors)

layer1.0.weight f4 [64, 3072]
000000 89 c4 77 3b 3e 0c f3 bb 6c 6b ff bb 97 f8 1b 3c
       0.0037806353 -0.007417231 -0.007794788 0.009519718
000010 82 9c 82 3b b1 c8 72 bc d6 f3 a4 3c 74 7d 13 bc
       0.0039859423 -0.014818356 0.020135801 -0.009002078
000020 cc d4 56 bc 19 ea 1e 3c eb 5a 5b bc c5 c0 5b 3c
       -0.013112258 0.009699368 -0.013388376 0.013412659
000030 f3 e6 f5 bb 42 cb 95 3b 09 a1 6c 3c da c2 0f bb
       -0.007504338 0.0045713494 0.014442691 -0.002193621
000040 6f a4 4c 3c 62 8a 87 3c 28 d3 81 bc 40 2f c5 ba
       0.012490376 0.016545478 -0.015847757 -0.0015043989
000050 1e 88 59 3a 12 28 7a 3b aa 60 53 3c ad 29 e8 3b
       0.0008298176 0.0038170856 0.0129014645 0.0070850463
000060 ba 7b c5 ba 26 63 75 3c 9e 0e 9d 39 8e ef 9c 3c
       -0.0015066781 0.014977252 0.00029956264 0.019157197
000070 b5 6c 3c 3c f8 88 14 bc b0 ec 6d 3c 27 3b ea bb
       0.011500527 -0.009065859 0.014521763 -0.007148165
000080 07 0a a8 3c be 74 97 3c 38 48 6e b9 3c 04 f9 bb
       0.020512594 0.018488284 -0.00022724352 -0.0075993817
000090 95 31 1e bc ad 27 07 3c 77 5d a5 3b 94 c6 21 3c
       -0.009655376 0.008249206 0.0050465423 0.009874005
0000a0 f8 cc 7e 3c ad 68 9e 3b 06 7f 57 3c 59 c6 c5 3a
       0.015551798 0.0048342557 0.013152843 0.001508902
0000b0 e4 06 b2 bb 30 8a 57 bc 93 dd 47 bc 8f 3e a5 bb
       -0.0054329503 -0.013155505 -0.0121988235 -0.005042858
0000c0 7b 73 4e bb 05 16 d1 3b 37 e0 d4 3b 67 64 f3 bb
       -0.0031501937 0.0063807988 0.006496455 -0.0074277404
0000d0 91 05 b1 3a fa 53 ea bb fb 47 90 3b 1d 9e 91 bc
       0.0013505687 -0.007151124 0.004403112 -0.01777559
0000e0 3f 69 3d bc 08 c1 84 3b a0 ac 1b bc 6a 8c 82 3c
       -0.011560737 0.0040513314 -0.009501606 0.015936095
0000f0 3e ed 05 3b 54 58 1e bc bc 2f b1 3c ed de 72 bb
       0.0020435597 -0.009664614 0.021629207 -0.0037059144
000100 75 fb b9 bb 3d 3d a5 3c f2 5a bd bb 8e b1 c1 3b
       -0.005675728 0.020170802 -0.005778664 0.0059110587
000110 10 e1 fd bb 83 f6 12 bc d6 7f 4a 3c 58 00 4c 3c
       -0.007747777 -0.008969906 0.01235958 0.012451254
000120 b3 66 e1 b8 d8 d8 4e bb cc e7 8e 3b 0b 3a 00 bc
       -0.00010747965 -0.0031562354 0.0043611284 -0.0078263385
000130 ac 92 c5 3b d5 d9 ca 3b c7 49 65 bb 33 72 4c bc
       0.0060294475 0.0061905184 -0.0034986602 -0.012478399
000140 e0 9a 1d 3c 6b 4c 98 bb 22 bb 2c 38 a0 b8 cd bb
       0.009619445 -0.0046477816 4.1182277e-05 -0.0062781125
000150 95 9a f0 bb e3 39 7b bc 60 51 8c 3c 34 54 e3 3b
       -0.0073426464 -0.0153336255 0.017128646 0.006937528
000160 18 f2 78 3b c2 b1 53 bb 12 7f 48 bc d7 89 37 3a
       0.0037986096 -0.0032301997 -0.012237327 0.0007001436
000170 ca ce d7 3b a1 f1 ae bb 7b bc 8b bb 30 15 57 bc
       0.0065859305 -0.005338863 -0.004264412 -0.01312761
000180 74 01 13 3c bf 6e 8c 3a b0 9d 99 3c f0 7d 8e bb
       0.008972514 0.0010714157 0.01875195 -0.004348509
000190 59 5e ff 3b f3 7d ff ba 24 64 c6 bb f0 03 6c bc
       0.0077932295 -0.0019492492 -0.006054418 -0.014405236
0001a0 db 79 8b 3c 23 18 e4 bb 17 5e 16 3c 46 a1 fb 3a
       0.017025879 -0.006960885 0.009177706 0.0019197844
0001b0 ac b4 1b 3b 06 b0 b3 bc c0 bf 38 ba e0 88 a6 3b
       0.0023758812 -0.02193452 -0.0007047616 0.0050822347
0001c0 88 18 65 bc d3 43 38 bc 93 84 ef bb bb 4e 85 3c
       -0.0139828995 -0.011246639 -0.0073095053 0.016272893
0001d0 56 64 43 3c fd 38 d1 bb 18 89 3a 3c 11 63 9d bb
       0.011925777 -0.0063849674 0.011385225 -0.0048030694
0001e0 6e 8c 59 3c a7 b4 17 3b 0e bc 14 3c 36 36 82 bb
       0.01327811 0.0023148449 0.009078039 -0.0039737476
0001f0 42 c2 48 bc 48 69 48 3c d0 d3 8a 3c aa e4 a5 3a
       -0.012253346 0.012232132 0.016946703 0.0012656648
000200 10 97 81 bc b3 c7 78 3c 2b 9d 0c 3c ff 46 3c bc
       -0.015819103 0.015184331 0.008582394 -0.011491536
000210 6c 89 ce bb 37 0b 32 3c ad 0f 38 bc fc 21 40 3c
       -0.006303003 0.010866932 -0.011234206 0.0117268525
000220 3b 84 4a bc ad 36 1b 3c 25 67 19 3c 50 65 2c bc
       -0.012360628 0.009473485 0.0093629705 -0.010522202
000230 bf c1 63 b7 6f cc 3e 3c 88 b3 a0 3c a1 27 5e bb
       -1.3575364e-05 0.01164542 0.019616857 -0.0033898132
000240 77 8c 84 bb 3e c8 a5 3c 6f 2d a6 bb 71 ec c6 bb
       -0.004045065 0.020237084 -0.005071334 -0.0060706665
000250 8f e4 1d 3b 08 19 9c 3c b4 dc 99 ba b3 7e 6e ba
       0.002409253 0.019054905 -0.0011738748 -0.0009097859
000260 1c 53 ae 3c b5 a2 33 bc 2c 1d 87 ba 6f dc f8 bb
       0.021279864 -0.010964085 -0.0010308377 -0.007594637
000270 e7 a6 f0 bb 9f b1 94 3c 58 54 ad bb 6a 7b 65 bc
       -0.007344115 0.018151103 -0.0052895956 -0.014006475
000280 db d6 2e bb fa ec 87 3c 97 77 7e bc 80 20 7c bc
       -0.0026678357 0.016592491 -0.015531442 -0.015388608
000290 22 3f 94 bb b3 26 12 3c fc 5c 1b bc 1a f4 69 bb
       -0.0045241276 0.008920359 -0.009482618 -0.0035698474
0002a0 a0 1e 7d bb d2 b2 d9 bb 28 c1 8a 3c 7d d6 9b 3b
       -0.003862299 -0.0066436315 0.016937807 0.0047557936
0002b0 b1 55 02 3b 9d f5 2c bc f4 5c 91 3c 8f 76 56 3c
       0.0019887502 -0.010556606 0.017744519 0.01308979
0002c0 0a 04 39 3c d7 86 79 3b 56 85 72 bc fb 64 4a bc
       0.011292467 0.0038074756 -0.014802298 -0.012353177
0002d0 db f0 94 3c a4 7d 8b bc 6c 4c f4 3b bc f4 39 3c
       0.018181255 -0.017027684 0.0074553993 0.011349853
0002e0 69 59 06 bb 32 5a ff bb e0 b8 37 bc 80 c0 89 bb
       -0.002050007 -0.0077927345 -0.011213511 -0.004203856
0002f0 90 d8 6a bc 85 f0 81 3c 8e 72 0d 3c 2c a1 82 3c
       -0.014333859 0.015861759 0.008633269 0.015945993
000300 b5 10 5a bc cf 47 83 ba 84 43 38 ba 03 4f 9c 3b
       -0.013309647 -0.0010015907 -0.00070291036 0.004770161
000310 10 6d 42 3c e1 07 95 bb 64 a5 76 3c a2 62 e5 3b
       0.011866823 -0.0045480584 0.015054081 0.0070002833
000320 f2 53 7c 3c 2f b7 58 3c 6e 87 18 3c 00 7c 0e 3b
       0.0154008735 0.013227268 0.009309633 0.002174139
000330 a4 e6 2e bb 59 d3 97 3c 70 3b 21 3c 6d a8 8c 3b
       -0.0026687765 0.018533396 0.009840831 0.004292539
000340 8e 7d 4b 3c a4 7a a1 3c c9 6f 88 3c 66 31 e1 bb
       0.012420071 0.0197118 0.016654866 -0.006872344
000350 f3 35 80 ba ce 54 65 3c ca c5 cc bb 31 ab cd 3b
       -0.0009781703 0.01399727 -0.006249164 0.006276511
000360 ca 62 80 3c 1e a6 1f 3c 11 d3 91 bb 4d 6c af 3a
       0.015672106 0.009744195 -0.00445021 0.0013383717
000370 be 37 02 3c a0 08 0e bb 7e 73 74 3b bd 3c 07 bc
       0.00794786 -0.0021672621 0.0037300284 -0.008254227
000380 ea f2 32 3b af ba 71 3c 22 5d 6a bc 92 e1 9a bb
       0.0027305433 0.0147539815 -0.014304431 -0.004726597
000390 eb 56 02 3a ba e0 2c bc 4a ad 1b 3c 2e 24 88 3b
       0.0004972058 -0.010551626 0.009501765 0.0041547036
0003a0 f8 c7 fb bb af d9 97 3b 78 e8 a1 3c 69 64 aa ba
       -0.0076837502 0.004634104 0.01976417 -0.0012999895
0003b0 5b 97 8a 3c 51 9a 3b 3c fc 29 8d ba 2c 79 aa 3c
       0.016917875 0.011450366 -0.0010769959 0.020809732
0003c0 b3 d3 95 3c 8a 03 36 3c 45 b5 45 3b 78 42 95 3b
       0.018289423 0.011109242 0.003016786 0.004555043
0003d0 4a 1d d2 3c c8 27 61 3b 52 89 3e bc 58 c9 77 3c
       0.025648732 0.0034355987 -0.011629419 0.015123688
0003e0 d7 ae 85 3c c8 12 2a bc a6 f8 23 3c a8 34 1d 3c
       0.016318722 -0.010380454 0.010008013 0.009595074
0003f0 14 1f 23 bb 9d 2c c9 bb 84 32 eb 37 8d e6 44 bc
       -0.002489035 -0.0061393515 2.8037706e-05 -0.012017858

layer1.0.bias f4 [64]
000000 5d 57 b3 3d 35 db 2c bc 2e 39 1d bc f3 7f 91 3c
       0.087568976 -0.01055031 -0.009596152 0.017761206
000010 c5 cc d2 bb de f5 96 3b 3a 82 92 bc e1 39 80 bc
       -0.006433102 0.0046069464 -0.017884362 -0.015652599
000020 d2 dd 1f bc 4a 86 e3 bc b3 b7 0b bd 1c a4 aa bc
       -0.009757476 -0.027773995 -0.034110736 -0.020830207
000030 25 0e ea bc 9b e8 22 3b 7d 7d 3b bc de b6 98 bc
       -0.028571198 0.0024857882 -0.011443493 -0.018641885
000040 95 bb 81 bc 0b a9 08 bc 65 cb ae bb 00 d9 e8 bb
       -0.015836516 -0.008341084 -0.005334305 -0.0071059465
000050 b9 63 05 bd dd e9 10 bc a0 24 43 bc 91 ec 18 bd
       -0.032565806 -0.00884482 -0.011910588 -0.037334982
000060 04 fd 88 bc 56 77 92 3b 44 06 e2 bc 6d 0b 98 bc
       -0.01672221 0.0044697924 -0.027590878 -0.018560136
000070 36 d3 aa bc ce ca bc bc 83 8a e1 bc 16 8a c5 bc
       -0.020852666 -0.023045924 -0.027531868 -0.024113696
000080 ee bf 3b bc 74 5f 8a bc ec 93 c3 3b cc 53 89 bc
       -0.011459334 -0.016891219 0.0059685614 -0.01676359
000090 a4 6f e8 bc f9 db 40 bb 47 c6 08 bc 32 6d ae 3c
       -0.028373547 -0.002942799 -0.008348054 0.021292303
0000a0 bd 20 a7 bc cc c3 54 bc ce b1 ae bb 33 cc b4 bc
       -0.020401353 -0.012986135 -0.0053312546 -0.022070026
0000b0 73 8d aa bc dd 43 72 bc 1f 58 16 bd 68 c9 a6 bc
       -0.020819401 -0.014786688 -0.036705133 -0.02035971
0000c0 5d 06 80 bc 4c 37 58 bc 2d 5a cb bc cb dc 44 bc
       -0.015628034 -0.013196778 -0.024823273 -0.012015532
0000d0 04 70 f4 bc 17 bd 8e bc 54 13 d9 3c ad f5 e9 bc
       -0.02983857 -0.01742415 0.026498474 -0.02855953
0000e0 20 70 24 bc 0a 03 b1 bc f4 b9 a6 bc f0 20 82 bd
       -0.010036498 -0.021607894 -0.020352341 -0.063539386
0000f0 9a 2f aa bc df 87 7a 3c dd 6b 25 3c ea e0 a5 3d
       -0.020774651 0.015291183 0.010096517 0.080995396

layer2.0.weight f4 [32, 64]
000000 71 c7 d0 3d eb f4 a2 bd bf 39 f4 bd 03 df 7b 3d
       0.101942904 -0.07956871 -0.11925077 0.061491977
000010 c8 e3 b7 bc 4e 58 47 3c be 59 8a 3d 54 41 db bc
       -0.022447482 0.01216705 0.06755398 -0.02676455
000020 e7 ab 85 3d a1 06 f6 bd 45 b3 97 bd c6 36 2e 3d
       0.065269284 -0.12012983 -0.0740724 0.042532705
000030 47 b2 b7 3d 17 ed 64 bd a3 ea ba 3d c5 0f 3d 3c
       0.089695506 -0.05589017 0.09126785 0.011539404
000040 35 c8 5e 3d 58 d0 d5 3c 09 10 f9 bb 27 9b f8 bd
       0.05439015 0.026100323 -0.0076007885 -0.12138968
000050 8b f3 26 3c 07 cf c4 bd 90 ae 74 3d 0b 64 81 bd
       0.010189901 -0.096098 0.05973679 -0.0631791
000060 d3 33 6a bd 1d 8b 62 bd 07 50 53 3d 10 04 1f bc
       -0.05717833 -0.05530845 0.051589992 -0.009705558
000070 f0 54 7b bc 12 f8 4d bd e5 7e c1 3c b0 16 7b 3d
       -0.015340075 -0.050285406 0.023620078 0.061300933
000080 7f d1 0f bd 33 56 74 bd a1 64 b8 bc 00 74 a4 3d
       -0.0351119 -0.05965252 -0.022508921 0.08029938
000090 f0 ae 8c 3d 6b ee ba bc 62 de 90 bd 80 98 e9 bd
       0.06869304 -0.022818765 -0.07073666 -0.1140604
0000a0 f6 fe 5a bd 0e 0b c3 bd 19 f3 a3 3d 31 28 8f 3c
       -0.053465806 -0.09523593 0.080053516 0.01747522
0000b0 f9 7a 85 bd 9f 7a 9b 3b 1c cd 87 bd b4 45 69 bd
       -0.06517596 0.004744842 -0.066309184 -0.05695124
0000c0 dd 22 02 3d 8b f8 dc bd 02 0c 8e bb de db d9 bd
       0.03177153 -0.10789593 -0.0043349275 -0.106376395
0000d0 94 70 ce 3c 60 88 7e 3c 92 ad 0d be a9 b9 d2 b8
       0.025200166 0.015535444 -0.13835743 -0.00010048162
0000e0 3a c0 c3 3d 67 f8 c3 3d de e3 a5 bd 2a 77 b3 bd
       0.09558149 0.09568863 -0.08100103 -0.08762963
0000f0 bf 41 f5 3c 24 3c 7c 3d ec f6 28 bd e3 9d 7a 3d
       0.029938577 0.061580792 -0.041251108 0.06118573
000100 43 6c 4c 3c ca 89 1e 3d 39 8b cd bd 58 57 a7 3d
       0.0124769835 0.038705625 -0.1003632 0.081709564
000110 92 3a 40 bd 37 60 4b 3d 77 f4 c9 bd 33 17 cb 3c
       -0.046930857 0.049652305 -0.09861081 0.024791336
000120 41 fd 3c 3c b1 3a ac bd 81 49 87 3d 51 c2 3d ba
       0.01153499 -0.08409632 0.06605817 -0.0007238733
000130 2b f4 a3 bc 5c 49 11 3d 8f d0 7b bd 7a 46 c9 bd
       -0.02001389 0.03547035 -0.061478194 -0.098278955
000140 ff 25 c5 bd 04 99 60 bd 9e 83 b9 bd bc 53 eb bd
       -0.09626388 -0.054833427 -0.09058307 -0.114905804
000150 23 a5 c6 3d e0 5c d1 bd 60 d7 8b bd 37 63 9a bd
       0.09699466 -0.102227926 -0.06828189 -0.07538455
000160 d5 f1 75 bd 0c 2c 9d bd 6e 89 c8 3c 2f 12 b3 bd
       -0.060045082 -0.07674417 0.024479594 -0.087437026
000170 a4 c5 d2 3d 8e 76 12 3d 7b 70 92 bc 23 bf db bd
       0.10291603 0.035757594 -0.0178759 -0.10729816
000180 87 56 90 bd 5f bd c4 bd ee 1a 8c 3d db 26 bd 3d
       -0.07047754 -0.09606432 0.06841074 0.09235927
000190 6a 87 24 3d 26 5c b9 bd 86 05 d6 bc a8 52 a1 3d
       0.040168203 -0.09050779 -0.02612568 0.078770936
0001a0 60 dc 61 bd 38 8e 37 3c fe fb 0e bd e6 86 94 3d
       -0.055141807 0.011203341 -0.034908287 0.07252292
0001b0 08 57 51 3d 35 7a 9c 3d b1 24 55 bd e5 5c bd 3d
       0.05110839 0.07640497 -0.052036945 0.09246234
0001c0 df b0 a6 3d 84 21 d8 3d ba 70 94 3d 89 6c 9c 3d
       0.08139204 0.105532676 0.072480634 0.07637889
0001d0 02 06 a8 3d 6f 13 c3 bd b5 4c df 3c 5b 58 20 bd
       0.08204271 -0.09525191 0.027258256 -0.039146762
0001e0 00 1b 33 3d 89 de c1 bb 27 8d 94 3d ae a3 32 3a
       0.04372692 -0.005916421 0.07253485 0.00068145513
0001f0 8d 7c 2f bc f4 98 36 bc c8 11 5d bc 9a 0b fc bc
       -0.010710848 -0.011144865 -0.013493009 -0.03076725
000200 0e fe 82 bd 85 ad 44 bb 11 8b bf bd a4 cc b2 3d
       -0.06396113 -0.0030010652 -0.09352697 0.08730438
000210 76 a2 ce 3d b4 8a b1 bd 70 18 e7 bd 74 e9 a2 bd
       0.10089581 -0.08669034 -0.11283958 -0.07954684
000220 31 cd 5c bd e9 d5 ed 3c f3 5f 20 bc 47 66 87 bd
       -0.053906623 0.029032664 -0.009788501 -0.06611305
000230 08 e2 9c b9 f3 16 27 3d 97 3f 7e 3d 8f d0 98 3c
       -0.00029923045 0.04079337 0.062072363 0.018654136
000240 20 7a c6 bd a6 ae 71 3d d6 e3 a4 3d 6e 22 e9 3c
       -0.09691262 0.05900445 0.08051269 0.0284588
000250 fa b4 b9 3d 1a 56 67 bc 0f 43 df 3d 9e 14 c0 3d
       0.09067722 -0.014119649 0.10901462 0.093789324
000260 c8 a9 4a 3d d6 26 9e bc d6 a5 c8 3d a9 44 d0 3c
       0.049478322 -0.019305628 0.09797256 0.025423365
000270 01 10 2c 3c 2f 20 a1 3d d3 2c 6f 3d de b3 a8 bd
       0.0105018625 0.07867467 0.058392357 -0.08237432
000280 fe 51 d9 3d 9a f8 a8 bc 0a 65 fe bc 1b 05 b7 3c
       0.10611342 -0.020626355 -0.031054039 0.022341302
000290 50 09 76 bc 99 ed 8e 3d d8 d7 58 bd 59 8d 14 be
       -0.015016869 0.06978912 -0.05294022 -0.14507045
0002a0 1e 52 88 3d d4 47 c2 bd b8 1b cc 3c 6c 8e 6a bd
       0.066562876 -0.094863564 0.024915561 -0.05726473
0002b0 21 0d 5b bc 68 03 9c 3d 27 77 3c bd 3f 68 73 3d
       -0.013369829 0.07617837 -0.04601207 0.05942559
0002c0 88 fa 92 bd c6 64 9f bc d3 39 8e bd b8 bf 6d bd
       -0.07176691 -0.019457232 -0.06944623 -0.058044165
0002d0 bc 11 c5 3d aa b3 0d 3d ae fa 19 be 11 a8 82 bd
       0.09622523 0.03459517 -0.15037033 -0.063797124
0002e0 ba 06 b6 bd 0e 2f 9b 3d ec 21 07 be 3c 2f ea bd
       -0.08888002 0.07577334 -0.13196534 -0.114347905
0002f0 36 ff 41 3d d9 40 b0 bd 46 f1 92 bd 6d 6a fa bd
       0.04736253 -0.08606119 -0.071749255 -0.1222733
000300 3a 43 cb 3c e4 0c af 3d fc 9c b5 bd 57 0b 0f be
       0.02481233 0.085473806 -0.08867833 -0.1396917
000310 6a 4d c5 3d 93 2f 8c bd be 8e c6 3d d7 b3 42 3d
       0.09633906 -0.068450116 0.09695195 0.04753479
000320 f1 4c b6 bd e4 f9 e1 3d 30 62 d5 3d e6 18 eb bc
       -0.08901394 0.11033991 0.104191184 -0.028698396
000330 ff 70 44 3d 5b 00 83 bd 2d c2 e6 bd c8 4f de ba
       0.047959324 -0.06396552 -0.11267505 -0.0016961033
000340 cb 02 c4 bc c3 6e d9 3d e5 bb 09 bc df 38 fc 3c
       -0.023927113 0.10616829 -0.008406614 0.030788837
000350 77 e4 61 3d 5e 21 51 3d 50 dc 2b bd e7 35 a7 3c
       0.05514952 0.051057212 -0.041958153 0.020411445
000360 6a 42 e1 3d c7 00 2d 3d 9a 08 74 bd f0 52 5b 3d
       0.109989956 0.04223707 -0.059578516 0.053545892
000370 72 dd 3e 3d 58 ae 75 bc e1 4b 9f 3d 9f f2 80 bc
       0.046597905 -0.01499518 0.07778145 -0.01574069
000380 e2 b4 ce bc 52 59 e5 bd 67 5a 8f bd b1 c0 5b bc
       -0.025232736 -0.11198677 -0.06999665 -0.01341264
000390 39 8e 19 3d 59 30 c2 bd 6a 81 98 bd 2e 66 97 bd
       0.03748915 -0.09481878 -0.07446559 -0.07392536
0003a0 9a b5 82 3b ea 7b a4 bd 9b ca 65 3d e7 57 ad 3d
       0.0039889337 -0.08031447 0.056101423 0.08464032
0003b0 fe 08 0e be e1 b7 cf bd cc 5f 30 3d bf d9 0a 3c
       -0.13870618 -0.10142494 0.04306011 0.008474766
0003c0 5c 38 9b 3d e8 7a b5 bd 37 82 f7 3c 48 a4 9f 3d
       0.07579109 -0.08861333 0.030213458 0.07795006
0003d0 c2 4f 07 bd 19 f9 90 bd 0e 41 4f bc 2c db 0a 3c
       -0.033035047 -0.070787616 -0.012649788 0.008475106
0003e0 ea ad c8 bc fd 51 6b bd 7e 76 e2 3d fb 32 b0 3c
       -0.024496991 -0.057451237 0.11057757 0.021508684
0003f0 17 61 01 bd 42 36 83 bd 58 51 ba 3c 4a 31 41 3b
       -0.031586733 -0.06406833 0.022743866 0.0029478841

layer2.0.bias f4 [32]
000000 7d bd 0b 3e e0 3a 76 bd e1 a8 42 3d 62 93 85 bc
       0.13646503 -0.06011474 0.047524337 -0.01630563
000010 8c fa f6 bd 28 d0 99 bd c3 d0 ce bd f5 2f 6e 3d
       -0.12059507 -0.07510406 -0.10098412 0.058151204
000020 98 fa 07 be 13 71 04 be 89 2e 35 bd 05 f5 23 3c
       -0.13279188 -0.1293376 -0.044233833 0.010007148
000030 84 91 85 3d ef 6c 14 3e 52 12 d6 3c 1c 3f fa bd
       0.065218955 0.1449468 0.026131783 -0.122190684
000040 64 17 db 3d 34 ea 44 3c a9 a7 a6 3d b4 0e 26 be
       0.10697821 0.012018729 0.081374474 -0.16216546
000050 1c 32 86 3b 1a e5 b6 bd d0 47 06 3e 80 97 3f bd
       0.004095329 -0.089304164 0.13113332 -0.04677534
000060 08 02 98 3c 20 ae b8 3c ff 63 c1 3d 95 8b df 3d
       0.018555656 0.022543967 0.09442901 0.10915295
000070 5c e8 e6 bc de ca 93 bc 6c 6d 56 3d 1b 97 03 3d
       -0.02818697 -0.01804107 0.052350447 0.032126527

classifier.weight f4 [50, 32]
000000 56 3b e3 be 13 6e c2 3d cb 03 bd 3d e5 6b e6 3d
       -0.44381207 0.09493651 0.09229239 0.11251048
000010 97 7a 42 bd 8c 22 6f be 9d 03 3b be ae a4 6f be
       -0.047480192 -0.23353022 -0.18263097 -0.23402664
000020 98 1c 6f bc ba 4c 35 be 85 45 76 3d 3c 21 90 bd
       -0.01459422 -0.1770505 0.060124893 -0.07037589
000030 5c b3 01 3e 7d 09 b7 3d 0b 7e 5a bd 0f b7 a1 bd
       0.12666076 0.089373566 -0.05334286 -0.07896244
000040 38 d9 8b be 62 71 cb bd c8 d3 8e bd 20 94 e7 bd
       -0.27314162 -0.099337354 -0.06973988 -0.113075495
000050 94 0a f7 bb 76 37 23 be 3f bf f4 bb 15 36 cb be
       -0.007539103 -0.15939125 -0.0074690874 -0.396897
000060 60 be 79 be a1 d8 24 3e 11 61 d0 3c bf e9 4e be
       -0.24389029 0.16098262 0.02543691 -0.20206355
000070 2f 1a d9 bd c7 78 f0 bd 4f 66 bb be 51 ae b7 3d
       -0.10600697 -0.117417865 -0.36601493 0.08968795
000080 12 84 26 3c 26 62 8d be d4 36 e6 3d 67 20 39 be
       0.010163324 -0.27613944 0.112409264 -0.18078767
000090 20 83 03 be 78 11 27 be 78 b1 c1 bd 28 c8 98 bc
       -0.12842989 -0.16315258 -0.094576776 -0.01865013
0000a0 73 b8 cb bd f8 6d 9f 3d 86 fb 77 3e 41 70 8a be
       -0.0994729 0.07784647 0.24217042 -0.27038768
0000b0 ce 9a d5 bd f9 10 79 be 8e 61 07 3e 29 77 f0 bd
       -0.10429917 -0.24322881 0.13220808 -0.11741478
0000c0 0e f2 9b 3e 06 f2 05 3d ba e7 55 be 0b 0c f7 bd
       0.3045811 0.032701515 -0.20889178 -0.12062844
0000d0 aa 09 84 bd 42 02 e9 3d ce 21 76 bb c1 71 44 be
       -0.06447156 0.11377384 -0.003755677 -0.19184019
0000e0 a0 48 b0 be d4 08 c7 bb eb f5 1d bf bb 9e d7 3d
       -0.34430408 -0.0060740504 -0.61703366 0.10528322
0000f0 29 5f fc 3d 34 eb 83 bc 11 4d e2 3d ef cd 2b be
       0.12322838 -0.016103365 0.110498555 -0.16777776
000100 9a 16 55 bd c5 88 02 be 95 2c 53 bb c0 dc 8f bd
       -0.052023508 -0.12747486 -0.0032222618 -0.070245266
000110 c0 86 db bc 97 95 82 be c7 6e 31 3e 27 c1 88 be
       -0.026797652 -0.25504753 0.17327414 -0.26709864
000120 27 7b b0 3c fe 01 09 be a8 a6 03 bf 70 00 32 bd
       0.021543099 -0.13379666 -0.5142617 -0.04345745
000130 4f 07 2a be 14 91 57 bc 94 ac c0 bd 39 ef c6 3d
       -0.1660435 -0.013157148 -0.09407917 0.09713597
000140 ad e9 23 3d 55 d2 5e be 2d 79 00 3e 38 6d 29 3d
       0.040017772 -0.21759923 0.12546225 0.041363925
000150 8c 9c bc bd b8 e8 aa 3d d9 e4 3e be 66 29 77 bd
       -0.092095464 0.08345169 -0.18641986 -0.060342215
000160 49 e7 9f be 83 78 6c be 6d 80 88 be 9e 5f d8 3d
       -0.31231144 -0.23092847 -0.2666048 0.105651125
000170 c6 15 c3 be 74 58 d1 bd 93 7b 70 be 8b 50 30 be
       -0.3810255 -0.10221949 -0.2348464 -0.17218225
000180 87 3d 3d 3e d5 f9 79 be e6 0a 59 be de 6e 27 be
       0.18480502 -0.2441171 -0.21195564 -0.16350886
000190 71 2f 07 bd b4 42 db bd 42 2a 50 be 96 48 87 be
       -0.033004228 -0.10706082 -0.2032862 -0.26422566
0001a0 74 6a 93 3d d5 35 15 3e 85 9e 41 bf b1 9d 5a 3d
       0.07198039 0.14571317 -0.75632507 0.053373042
0001b0 0e 42 e9 bc fd 5f fc 3d 5c 91 0b 3e ab 95 be bd
       -0.02847388 0.12322996 0.13629669 -0.09305891
0001c0 9f a6 ca be b0 51 7d bd 7d e1 aa 3c 3c 82 bc bd
       -0.39580247 -0.06184548 0.020859474 -0.09204528
0001d0 77 49 30 bd f6 07 6f 3d e5 ae 15 3e 36 57 8e be
       -0.04303881 0.0583572 0.14617498 -0.27800912
0001e0 8a 81 a7 3d 69 c1 8b 3c 3d 96 7e 3e 32 42 0b bc
       0.081790045 0.017059999 0.24861999 -0.008499669
0001f0 d0 6e e6 be d5 4e e4 be 5f 93 20 be ad d7 49 be
       -0.45006418 -0.44591394 -0.15681218 -0.1971118
000200 59 32 01 3d b6 56 2d be d6 14 21 3d 97 c1 a4 3d
       0.031542156 -0.16927609 0.03932651 0.08044737
000210 18 4f 2b be 0c 45 1d be f0 32 31 be 93 06 7c be
       -0.1672939 -0.1535837 -0.17304587 -0.24611883
000220 71 66 c4 3d 4b 2a a0 3d fe b6 08 bf 5c e6 3c be
       0.09589852 0.07820567 -0.53404224 -0.1844725
000230 55 6d a4 bd 43 e8 30 3e 7b 8b 8b bc 87 5d 6f bd
       -0.08028666 0.17276101 -0.017034283 -0.058438804
000240 5c 32 1b 3b 4b 62 b5 bd cf 75 12 be a1 bb 46 be
       0.002368114 -0.088566385 -0.14302753 -0.19407512
000250 97 50 63 3d a8 74 6b 3c c0 80 58 3e 0c d1 a4 be
       0.05549678 0.014371075 0.21142864 -0.3219074
000260 55 6f 01 be e4 b3 d8 bd e3 e3 92 be cf 69 e5 bd
       -0.12640126 -0.105811864 -0.2868949 -0.11201822
000270 75 a8 b5 be 52 e8 46 bd 58 72 0e be b8 8d e2 3c
       -0.35480085 -0.0485614 -0.13910806 0.027655467
000280 a5 c7 0e be 20 b6 e6 be 7d 75 1a be 83 62 22 be
       -0.13943346 -0.45060825 -0.1508388 -0.15857892
000290 24 86 57 bd 3d 1f 20 be 34 eb c8 bb 64 ba 8d be
       -0.05261816 -0.15636916 -0.006131554 -0.27681267
0002a0 2e ab ea bd 5b 05 aa 3d ba bf e0 be f1 3f 0a be
       -0.11458431 0.08301803 -0.43896276 -0.13500954
0002b0 94 8a 06 be 48 67 3e bd 79 a8 fc bd 33 57 06 be
       -0.13138801 -0.046485215 -0.12336821 -0.13119201
0002c0 97 8a 8d 3d 12 0e d5 3c 8e 8b af bd 0b e9 1d be
       0.069111995 0.026007686 -0.0857154 -0.1542093
0002d0 da 44 35 be 6b c3 10 3e e4 0c 46 bd 63 56 0b be
       -0.17702046 0.14137046 -0.048352137 -0.13607173
0002e0 36 0c 15 be 15 31 ca 3d d8 80 98 be a3 c1 a5 bd
       -0.1455544 0.09872643 -0.297858 -0.08093574
0002f0 83 fe 94 be 66 ea 7d bd 40 62 ca 3d 45 4e 32 be
       -0.29100427 -0.061991118 0.09882021 -0.1741267
000300 e6 93 98 be f0 21 70 be 0d a6 56 be 8c 38 fe bd
       -0.29800338 -0.23450446 -0.20961781 -0.12413129
000310 fc 4d a4 bd 83 3d e5 bd d1 87 1a 3d 60 18 93 be
       -0.08022687 -0.11193373 0.03772718 -0.28729534
000320 cb 24 39 bd 46 58 21 be bb 9b c7 be 78 2b 8a bd
       -0.045201104 -0.1575633 -0.38986 -0.06746572
000330 ce 50 ef 38 94 93 a9 bd 67 ba 36 be e9 05 8d bd
       0.00011411459 -0.082801014 -0.17844544 -0.06885893
000340 d7 12 54 be ce 36 7b bd 68 e6 a2 bd d7 ac 00 3d
       -0.20710312 -0.061331563 -0.07954103 0.031414833
000350 16 44 89 bd 1b a8 2b be bb 36 07 3e 18 a4 09 bf
       -0.067024395 -0.16763346 0.13204472 -0.5376601
000360 a3 84 c0 bd 9f 53 a4 bd b3 74 f8 bd da 9c e2 bd
       -0.094002984 -0.08023762 -0.121316336 -0.11065073
000370 54 f0 db be f4 7c 41 be 03 35 32 be db 58 5d 3d
       -0.42956793 -0.18895322 -0.17403035 0.054039817
000380 46 f0 82 bd 08 bb 42 3e 78 82 2a 3e 01 d1 97 bd
       -0.06393485 0.1901666 0.16651332 -0.07412911
000390 61 f8 62 bd c6 82 7d be 6a 12 06 bd 1a 77 2c be
       -0.055412654 -0.24756917 -0.032732405 -0.16842309
0003a0 53 ef 29 be 24 a8 a2 bd ba b8 0d be 31 39 80 bd
       -0.16595201 -0.079422265 -0.13839999 -0.062609084
0003b0 3a 3b 53 bc b2 8c 27 3a c2 ff 83 be ba 7f aa 3d
       -0.012892539 0.00063915097 -0.25781065 0.08325143
0003c0 ac a7 c5 3b 43 d6 5a be 64 7f d6 3c 81 17 85 3d
       0.006031951 -0.21370797 0.026183791 0.06498624
0003d0 67 a6 8e bc 6d 84 77 3d 7b 14 2b 3e 93 d8 b5 bc
       -0.017413331 0.060429025 0.16707031 -0.022197997
0003e0 27 7a b0 be da e2 19 3e f9 83 55 3e e1 0d 93 be
       -0.34468195 0.15027943 0.20851125 -0.28721526
0003f0 58 2c ae bd ee 51 a3 ba d8 3c 85 3d 0d 04 08 be
       -0.08504552 -0.001246033 0.06505746 -0.13282795

classifier.bias f4 [50]
000000 cd 2b f5 bc f2 c9 4b bd 2e 75 73 3d 6e eb e8 bc
       -0.029928112 -0.049753137 0.059437923 -0.028432574
000010 c2 8c 83 bd 92 11 8f 3d c1 e4 49 3c 7c 8d ca bd
       -0.06423332 0.06985773 0.012322606 -0.09890267
000020 76 9c 97 bd 42 be b6 3c 5f 35 20 3c c2 d4 18 bc
       -0.074028894 0.022307519 0.00977835 -0.009328069
000030 c2 f0 fe bd 43 50 bd 3d 6e 96 3f bd f9 4c 4d bd
       -0.12448265 0.09243824 -0.04677432 -0.050122235
000040 3b 9a 60 3d 90 5e 22 bd 0f 63 c0 bd c0 f9 13 be
       0.054834586 -0.039640963 -0.09393894 -0.14450741
000050 07 98 b0 bd a8 5c f9 3d 97 55 95 3d e5 46 fa bd
       -0.08622747 0.12175876 0.072917156 -0.12220553
000060 f3 7b 9d bc a3 3a 3a bd 4b c2 5f 3d e7 ce ef 3c
       -0.019224143 -0.045466077 0.05462865 0.029273463
000070 d1 48 43 bd 79 f1 67 3d b1 28 1f bd 77 c6 c0 bc
       -0.047676865 0.05662677 -0.038857166 -0.023532135
000080 5e 50 6e bd 32 74 f6 3c 12 a1 9e 3d 72 70 d1 3d
       -0.058182113 0.030084703 0.077455655 0.10226525
000090 77 f0 11 be 67 70 4c 3d 24 d4 6f bd 74 5d ff 3b
       -0.14251886 0.049911883 -0.058551922 0.007793123
0000a0 6a 01 a5 bc de 4c 89 3d 18 1b 14 bd f8 c9 19 3c
       -0.020142276 0.067041144 -0.03615865 0.009386532
0000b0 2f da 04 bd 66 82 ea 3d ea ef 3a bc 1e dd f5 bd
       -0.03243464 0.11450653 -0.011409739 -0.120050654
0000c0 34 73 8b 3d 78 5e 62 3c
       0.068090826 0.013816468
