results/CIFAR100_dataset/contrastive_loss/margin_2.0_first_model_nb_classes_50_data_percent_30/model_ckpt.pt (torch_old, 802778 bytes, 6 tensors)

layer1.0.weight f4 [64, 3072]
000000 d2 a5 51 3c e4 1d d2 bb 50 4a 13 3c 16 24 85 3c
       0.012795882 -0.0064122546 0.008989885 0.016252559
000010 5c 3a d2 bb 0e b7 0c 3c e2 4c ae b8 5b ad bf ba
       -0.0064156484 0.0085885655 -8.311287e-05 -0.0014623808
000020 d2 d2 ae 3c 60 f9 b7 3a ac 75 a0 3c cb 8d eb 3b
       0.021340761 0.0014036112 0.01958736 0.007188534
000030 63 d7 19 bc bc 40 5f 3c cf a9 80 bc 98 71 30 ba
       -0.009389731 0.013626274 -0.015705971 -0.0006730794
000040 f6 06 84 bb 87 7d 5d 3c fe a0 db bb 55 07 de bb
       -0.00402915 0.013518698 -0.0067025414 -0.0067757764
000050 e4 ec 5f 3c d3 13 36 3c 4e 11 66 3c 68 22 5a 3c
       0.013667319 0.011113125 0.014042212 0.013313867
000060 1f 4c 08 ba 16 6e 1b bc 6b 80 17 3c 72 ca 38 bc
       -0.0005199331 -0.009486696 0.009246926 -0.0112787355
000070 2b ab 6d bb 47 ea f1 bb 99 63 75 3c f0 07 d8 bb
       -0.0036265354 -0.0073826644 0.014977359 -0.006592743
000080 65 16 97 3c 8a fa 27 3c ca 9d 93 b9 34 30 3a 3c
       0.018443296 0.010252604 -0.00028155587 0.011364032
000090 52 60 81 3c 6f bd 49 3c 8a d2 49 3c 7d 42 a7 3a
       0.015793 0.012313231 0.012318263 0.0012760904
0000a0 70 1b 1f bc 53 64 23 bc 41 9b 5f 3c 0f 31 ee 3b
       -0.009711131 -0.00997265 0.013647855 0.007269032
0000b0 3f 31 7d bb fc ed 47 bc e7 fe 75 bc b2 44 ca ba
       -0.003863409 -0.012202736 -0.015014387 -0.001543185
0000c0 c7 0e 87 bc 78 d0 0b 3c af e3 2a bc 05 0d 54 bc
       -0.016486539 0.00853359 -0.010430261 -0.012942557
0000d0 de 1c 92 3c 12 96 c5 bb 04 08 65 3b 49 2d 53 3c
       0.01783603 -0.0060298527 0.0034947405 0.012889215
0000e0 3d b8 79 3c f1 6c f7 3b b0 64 04 3b 77 74 c7 ba
       0.01524168 0.0075508286 0.0020201616 -0.0015217204
0000f0 6f 5d 34 3c 71 63 98 3c 3f c6 8b 3c 23 27 56 3c
       0.011008604 0.018602105 0.017062305 0.013070854
000100 d1 10 af bb 0a 46 da 3a 3a c9 31 bc 49 8a 0a bc
       -0.005342581 0.0016652953 -0.010851199 -0.008455821
000110 ea ba 48 3c 0e ab d0 ba da 80 a9 3c 82 73 50 bc
       0.012251595 -0.0015920119 0.020691324 -0.012722852
000120 42 14 95 bb ac 2d ac bb 0f fd ee bb 99 a6 02 3c
       -0.004549534 -0.005254468 -0.0072933505 0.00797429
000130 25 f2 39 3b d5 6b 6f bc 4b aa c1 bb 29 63 e6 3b
       0.002837309 -0.0146131115 -0.005910193 0.007030864
000140 70 0c ad bb 88 4d 5f bc 92 c1 47 bc 3b 7f 79 bc
       -0.0052810237 -0.013629325 -0.012192147 -0.015228088
000150 b2 79 e1 bb 55 bc f9 bb 05 ab 60 3b 00 29 80 3b
       -0.0068809623 -0.007621328 0.0034281623 0.0039111376
000160 e2 d8 17 3c 77 be df ba fc a4 55 bc 2a 94 dc bb
       0.0092680175 -0.0017070313 -0.013039824 -0.0067315297
000170 5b 2d 3a bc 46 bb 98 3c a8 03 96 3c 5d 64 78 bc
       -0.011363353 0.018643986 0.01831229 -0.015160647
000180 73 73 19 bb df f4 36 bc ee 55 fd bb bd 1b cd 3b
       -0.002341476 -0.01116678 -0.007731191 0.00625941
000190 41 73 5e ba 19 83 c6 bb d9 e9 fe 3b ac 35 b6 bb
       -0.0008485802 -0.0060581085 0.0077793417 -0.0055605974
0001a0 4a bd 59 bb 40 6c 3b 3c e3 d3 a5 3c 4a 10 54 bc
       -0.0033224397 0.011439383 0.020242637 -0.012943337
0001b0 29 04 3f bc 46 95 52 bc a0 14 85 bb 81 95 5d 3b
       -0.011658707 -0.012852972 -0.0040612966 0.0033811035
0001c0 6b f7 50 3c 1c c7 ff bb 97 5c 5a 3c 5a 10 c1 3a
       0.012754302 -0.007805718 0.013327739 0.0014729605
0001d0 95 57 27 ba e5 51 50 bc 40 a4 5c 3c 83 04 86 3b
       -0.0006383595 -0.012714838 0.013466895 0.0040898933
0001e0 7a 0a 02 3c 43 3e 27 3b 7f fa 01 ba 1f 87 04 bc
       0.007937068 0.0025519289 -0.00049582863 -0.008088856
0001f0 41 58 a5 bb e0 e3 0c 3c 02 6c 8e 3b 08 b9 02 3c
       -0.005045921 0.0085992515 0.0043463716 0.007978685
000200 ac 8a 90 3c af bd 32 3c 32 19 88 3b 11 75 03 3b
       0.017644249 0.010909482 0.004153394 0.002005879
000210 7f 83 ab 3b 46 df 3a bc d4 ce 6a 3c 2c d3 69 bb
       0.0052341814 -0.011405772 0.014331538 -0.0035678847
000220 05 ff 74 bc dc 21 6f 3a 06 82 a3 3c 52 56 a2 3c
       -0.0149533795 0.0009122172 0.019959461 0.019816551
000230 cb a7 ed ba be 00 ae bb 2b d5 56 39 8f d1 d9 bb
       -0.0018131671 -0.005310147 0.00020488042 -0.006647296
000240 48 b5 08 bc ba 66 6c 3c 0f c9 38 3c bc 31 5c bb
       -0.008344002 0.014428789 0.011278405 -0.003359898
000250 c5 5a 50 bc 03 49 ab bb 3d 9c 94 3c b6 77 93 3c
       -0.012716954 -0.0052272095 0.018140906 0.018001419
000260 d0 1e 21 3c ef 56 95 bb a0 ce 94 3c d9 c7 8e 3c
       0.009834006 -0.0045574824 0.018164933 0.01742928
000270 72 4d bd 3b a5 5c 61 3c b3 ec a2 3c 77 54 05 bc
       0.0057770545 0.013754998 0.019888258 -0.008137814
000280 a1 95 40 bc b9 6d 31 bc 37 b4 86 3c 25 63 0b bb
       -0.011754424 -0.010829383 0.016443355 -0.0021268812
000290 ac 80 58 bc 67 68 9a 3c 93 4d 64 bc 40 b9 4f bc
       -0.0132142715 0.018848611 -0.013934511 -0.012678444
0002a0 c8 07 1c bc 9c 68 10 3c 25 bf 55 bc 0e 1c 91 3c
       -0.00952334 0.008814003 -0.013046061 0.017713573
0002b0 b1 0e 4c 3b 85 f2 b8 3c d2 22 51 3c 1d ac f1 3b
       0.0031136686 0.02257658 0.0127646495 0.007375254
0002c0 c7 f5 90 3b 79 34 c0 bb 50 49 02 3b fb 82 9c 3c
       0.00442383 -0.00586563 0.0019880123 0.019105425
0002d0 1e e4 bb 3b 50 42 64 bc e2 65 7b bc 07 65 6a 3b
       0.005733981 -0.013931826 -0.015344115 0.0035765783
0002e0 84 d7 f8 bb 9a 5a 93 bb c4 a4 1d bc f1 97 2b 3b
       -0.007594051 -0.0044968845 -0.009621803 0.0026183093
0002f0 f8 d6 65 3c 4e c6 31 3c f6 0f 95 bb e0 60 e9 3b
       0.014028303 0.010850502 -0.004549022 0.007122144
000300 64 da 0f bb c9 5b 0d bc 2e 5f 1a 3c 68 25 6c 3c
       -0.002195024 -0.00862784 0.009422107 0.014413215
000310 ac a0 b8 3b d3 c8 16 3b 72 63 97 3c 11 a5 04 3c
       0.005634388 0.0023007884 0.018480036 0.0080959955
000320 8b ff 46 bc 2a e6 f2 3b 22 4f 5f 3c 77 8d 39 bc
       -0.012145887 0.0074126916 0.013629707 -0.011325232
000330 30 4d 29 3c 49 eb af 3c b1 34 8a b9 9f 19 a7 3c
       0.010333344 0.021474497 -0.0002636067 0.02039796
000340 bd 89 a8 bb c2 2c 02 3c c2 95 25 3b a0 22 82 3c
       -0.005143373 0.007945241 0.0025266265 0.015885651
000350 0f 8e 00 bc 29 f2 31 3c b0 a2 9e 3c b7 1d 10 3c
       -0.007846369 0.010860958 0.019364685 0.008796147
000360 ee 47 34 bb 78 66 17 bb 9d 8b 40 bc 22 bb f3 bb
       -0.0027508694 -0.0023101848 -0.011752036 -0.0074380795
000370 8f 70 ea 3b 94 45 cd ba b1 07 58 bb 7a 78 bc 3b
       0.0071545313 -0.0015660995 -0.0032963569 0.0057516666
000380 34 6c 55 bc ef 04 e7 bb 5d c3 a0 3c 4e b6 a6 3c
       -0.013026286 -0.0070501487 0.019624406 0.020350602
000390 a9 dd dc ba fb 76 2a bc a8 80 e5 3b ed 3f 2c bc
       -0.0016850728 -0.010404344 0.0070038624 -0.010513288
0003a0 ad a2 35 bc 04 1b 5b 3c d8 e7 73 bb d4 53 7c 3c
       -0.011086148 0.01337314 -0.0037217047 0.015400846
0003b0 84 6a 34 3c 42 6c 0e bc 8c 02 5f 3c 20 a8 e2 3b
       0.011011723 -0.008692803 0.013611447 0.0069170147
0003c0 79 f2 0f 3c 3e 06 56 bc 9e 0c 75 3c 06 c2 9d 3c
       0.008785837 -0.013063012 0.014956621 0.019257557
0003d0 a6 4d 86 3c 01 bc 89 3c 7f eb 04 ba 72 e6 70 3c
       0.016394448 0.01681328 -0.0005070492 0.01470338
0003e0 ab be 71 bb dc f6 4a bc 55 f4 35 3a 43 7d 10 3b
       -0.0036887329 -0.012387957 0.00069410104 0.0022047318
0003f0 37 5b 06 bc b1 a9 69 3b fe 1b 71 3b 79 03 89 3b
       -0.008200458 0.0035654122 0.0036790366 0.004181322

layer1.0.bias f4 [64]
000000 f4 f3 89 3c ef 0b 77 3b a8 ee 98 bc 1d 30 63 bc
       0.016839959 0.0037696322 -0.018668488 -0.013866452
000010 86 af e1 3b fa 34 12 bb 89 ed fb ba de c2 96 3b
       0.006887379 -0.0022309409 -0.0019220571 0.0046008667
000020 75 4f 37 ba 8f 05 dc 3b 93 32 fd b9 ff 23 a8 3c
       -0.0006992736 0.00671453 -0.000482936 0.020524977
000030 41 ef d6 bb 74 c8 8d bc 20 55 11 bc df 53 2b bc
       -0.006559283 -0.017307498 -0.008870393 -0.010457008
000040 e9 99 a1 3b c3 3b 0a bc 3a 92 2b bc 97 9a 95 3c
       0.0049316776 -0.0084371 -0.010471875 0.01826219
000050 7d 1f 99 bc 5b 4e 81 bc 93 47 8d bc 96 e9 0d 3c
       -0.018691773 -0.015784433 -0.017246043 0.008661648
000060 0b 48 57 3b 9a c5 b1 bc 44 2e d2 b9 96 97 62 bb
       0.0032849337 -0.02170067 -0.00040088792 -0.0034575216
000070 d8 a1 10 bc 7e a9 1b bc 08 d1 88 bc 58 8f 1b bc
       -0.008827649 -0.009500859 -0.016701236 -0.009494625
000080 18 d3 34 bb 1f 5b 7a bc b2 77 2a 3c 2f e0 0a bb
       -0.0027591642 -0.015280514 0.010404514 -0.0021190753
000090 b6 2a ef bb 12 7d ae bc df b8 a2 3b 16 97 7a 3a
       -0.0072987927 -0.021299873 0.004965886 0.0009559257
0000a0 5a f8 ce bc 4e 98 4f bc 7d 4a 30 bc bf 6c a4 bc
       -0.025264908 -0.01267059 -0.010759947 -0.020071385
0000b0 a5 12 00 3a 38 51 6f 3c 03 1d 5f ba 9e 3f f4 bb
       0.0004885591 0.014606766 -0.0008511098 -0.007453873
0000c0 1f 8a 28 bb fc 1f b1 3b 47 f1 c5 ba ae fe f4 3b
       -0.0025717092 0.005405424 -0.0015101813 0.0074766492
0000d0 4c 98 af bc 69 71 07 bc 9f bf 63 bb 52 81 1a bc
       -0.021434925 -0.008266785 -0.0034751666 -0.009430246
0000e0 5b 7a 2f 39 7d 2f 91 bc 20 6d 29 3b ce 86 66 bc
       0.00016734882 -0.01772284 0.0025852397 -0.014070226
0000f0 de c8 1b b9 12 1a 86 3b da bc 13 ba 80 4b ce bb
       -0.00014856781 0.0040924633 -0.0005635746 -0.0062956214

layer2.0.weight f4 [32, 64]
000000 38 e9 d1 bd 72 37 b7 bd cd f1 28 bd ee b5 90 3d
       -0.10249561 -0.08946122 -0.041246224 0.0706595
000010 40 db b4 3c 0b cf 97 3d 21 a4 39 bd 0a 14 65 bd
       0.022077203 0.07412537 -0.04532254 -0.055927314
000020 d0 3c f1 3b 85 d3 03 be b1 40 b1 bb 56 71 e3 bd
       0.0073619857 -0.12873657 -0.005409323 -0.111056015
000030 08 fb 98 bd 31 c8 28 3d 97 f9 74 3d b5 08 e3 3d
       -0.074697554 0.041206542 0.05980834 0.11085645
000040 a9 0c c7 bc f1 05 11 bd cd 63 d6 bd 76 1e 8f bd
       -0.024298029 -0.035406057 -0.10468254 -0.06988232
000050 93 2d e9 bb a2 1d 08 3d 55 7b 1a 3c 70 4c 52 bd
       -0.0071160286 0.033231385 0.009428819 -0.051342428
000060 42 54 b4 bd 21 95 11 3d 3f 99 d0 bd 9e 0d d2 3d
       -0.088051334 0.03554261 -0.101854794 0.102565035
000070 16 5d 89 3d d5 2c 39 3d 80 03 55 3c 17 df cc 3c
       0.06707208 0.04520877 0.013001323 0.025008721
000080 fd fb bf 3d 5a bc aa 3d 2d 4d b5 3d 83 13 c7 bd
       0.09374235 0.083367065 0.08852611 -0.097205184
000090 0a 88 a3 3d dd 7a 69 3c a4 c4 f2 bd ea cc 81 bd
       0.07984932 0.014250484 -0.118539125 -0.063379124
0000a0 e6 f7 a8 bc fd 32 b1 3d bd 75 4c 3d a4 da 7d 3d
       -0.02062602 0.08652303 0.04991697 0.06197609
0000b0 68 10 c7 bd 1b b8 ef 3d 7a 74 28 bd b4 46 8b 3d
       -0.09719926 0.11705037 -0.041126706 0.06800595
0000c0 98 a0 a4 3d 68 b0 63 bd 0d a2 0e 3d 47 e2 ad 3d
       0.08038443 -0.055588156 0.034822512 0.084904246
0000d0 95 0e 66 bd 2e 54 dd 3c 3c 6a c2 3c 8d 25 a4 3c
       -0.05616625 0.027017679 0.023732297 0.020037437
0000e0 cc 20 11 bc 0a 16 44 3d 96 32 d7 3d f5 38 ab bd
       -0.008857917 0.04787258 0.105076954 -0.08360473
0000f0 f3 67 92 3d 59 4a ee 3d 91 f6 89 bc da 01 8f bd
       0.07148733 0.116352744 -0.016841205 -0.06982775
000100 61 63 bf 3c 83 56 c3 3d 05 45 7a 3d 1a c2 85 3d
       0.023362817 0.09537985 0.06110098 0.065311626
000110 76 66 4d 3d 1a 12 f2 3d a3 19 39 bd 50 cf 74 bd
       0.050146542 0.11819859 -0.045190465 -0.05976802
000120 4e 8a a9 bc 29 76 90 3d 29 2c 85 3d b2 43 5e 3d
       -0.020695832 0.07053787 0.065025635 0.054263778
000130 cd 9a bf bc 34 96 a9 bc ad b9 44 3c d7 c1 dd bd
       -0.023389244 -0.020701505 0.012007159 -0.10827988
000140 ed 0a be bd 74 be 1c bd f7 9c c0 bc f9 a8 c7 3d
       -0.09279428 -0.038267568 -0.023512347 0.09749026
000150 3a 9a ec bd 63 96 e2 bc b3 e2 35 3b e3 89 fb bd
       -0.11552854 -0.0276596 0.0027753531 -0.12282159
000160 c4 8d 5b 3d 1b 3b 30 3d 92 47 00 3c 09 00 f6 bd
       0.053601995 0.043025117 0.007829564 -0.120117255
000170 2c d5 15 3b 2d 73 c4 3d 8a 52 e0 bd 43 7f 0d 3d
       0.0022862656 0.095922805 -0.10953243 0.034545194
000180 49 dc 0a bd a1 5a 62 bd 42 ba e4 bd f7 87 96 3d
       -0.033901487 -0.05526221 -0.11168338 0.07350152
000190 23 b8 d7 bd 58 e7 55 bd 46 99 91 3c fc d3 7e bc
       -0.10533168 -0.05222258 0.017773282 -0.015553471
0001a0 85 d3 92 bd cb 55 01 be 88 0e 97 bd 00 0f e7 3d
       -0.071692504 -0.12630384 -0.073758185 0.11282158
0001b0 1a 0d 1f 3d 23 b3 a1 bd 3d 3e d1 bd 97 aa 1a 3d
       0.038830854 -0.07895496 -0.10216949 0.037760343
0001c0 1a 03 2b 3d e3 58 a1 bc 8d 33 da bd 01 ee 02 be
       0.041751005 -0.019695705 -0.10654364 -0.12786104
0001d0 bf 56 66 3d 14 5d 8c bd 07 ec 23 bd 1b 32 fd b8
       0.05623507 -0.06853691 -0.040020015 -0.00012073313
0001e0 20 d2 67 bd 78 cc 53 3c 56 4d e3 3d 0d cc e4 bd
       -0.056596875 0.012927167 0.11098735 -0.11171732
0001f0 c1 0f 80 bc 52 cd aa 3d 66 d7 92 3d 43 d4 9d bd
       -0.015632512 0.08339943 0.0716999 -0.07706501
000200 1a c9 cc 3d f3 05 d8 3d 3f db 3b bd e7 9c 67 bd
       0.099992946 0.1054801 -0.045863386 -0.056546118
000210 11 15 4b bd 15 75 50 bd 59 70 b8 3d ff be 95 bd
       -0.049580637 -0.050892908 0.090058036 -0.0731182
000220 2c 69 ae 3d 12 9f 00 be 23 69 ea 3d d5 5d 84 bd
       0.08516154 -0.1256068 0.114458345 -0.064632095
000230 e7 f6 3b 3d 95 fd 92 bd 44 8c b7 3d 7d 45 d2 bb
       0.04588976 -0.07177273 0.089623004 -0.006416975
000240 67 8a 52 bd a3 fe cc bd f3 5f d9 3d 0e 50 34 3c
       -0.051401522 -0.100095056 0.10614004 0.011005415
000250 19 0e b6 bd 80 37 ec 3d 4b 99 5b 3c ee f9 db bd
       -0.08889408 0.11534023 0.013403247 -0.1074103
000260 43 d7 9b 3d 13 b5 80 bd 28 f7 df bd db fb 4f 3c
       0.07609417 -0.06284537 -0.10935813 0.012694324
000270 19 80 05 3d 44 98 97 bc 48 35 a8 bc d3 22 df bc
       0.032592867 -0.018505223 -0.020533219 -0.027238285
000280 93 4a a9 3d ef cb 71 bd 30 df 15 3d 15 02 9c 3d
       0.08266177 -0.059032377 0.0365898 0.076175846
000290 a2 c1 64 bd 5f d9 7d 3d ae 57 2b 3c 73 9b a8 bd
       -0.055848725 0.06197488 0.010457916 -0.082327746
0002a0 fd 2b 3d 3d 51 fe a1 3d f3 bc a3 bd 7e 6e 36 bd
       0.04618453 0.07909835 -0.079950236 -0.044538967
0002b0 0e 52 ac bd 4a a5 bf bc a7 a4 84 bd be 89 04 be
       -0.08414088 -0.023394246 -0.064767174 -0.1294317
0002c0 76 9e bf 3d 43 e2 ea 3d 6f 88 32 bd 6c bd da 3d
       0.09356396 0.11468937 -0.043587144 0.106806606
0002d0 42 2b 52 3c dc 89 cd bd e4 ca 86 bd 6b b1 72 3c
       0.012827696 -0.1003606 -0.06581667 0.014812808
0002e0 ae 4c 92 3d 58 ec 13 3c a9 9f 3f bd 14 02 9d 3d
       0.07143532 0.009028517 -0.046783123 0.07666412
0002f0 cd c1 96 bc 3a 11 07 3d 41 37 f5 bd 12 e3 05 3d
       -0.018402958 0.032975413 -0.119734295 0.032687254
000300 8f 96 22 bd 28 84 62 3d 2f 24 16 3d 41 46 95 bd
       -0.039694365 0.055301815 0.0366556 -0.072887905
000310 91 71 1b 3c 03 00 d6 3b 4b 04 96 3d 2c d7 f6 3b
       0.009487526 0.006530763 0.073250376 0.0075329747
000320 e6 e4 e3 bc e7 de 9a 3d 4c 5d 34 3d 6c 8e e1 bd
       -0.027819108 0.075620465 0.044034287 -0.11013493
000330 c4 fe 6a 3d ea d1 82 3c 82 18 06 3d 90 5b 67 3d
       0.05737187 0.015969235 0.032738216 0.056483805
000340 f5 f3 bb bd 0d f0 97 3d 1a 0f a2 bc 5f a9 b7 bd
       -0.091773905 0.07418833 -0.019782592 -0.08967852
000350 4b 3e be 3d a1 5f 99 bd c2 5b 26 3d 53 e9 36 3d
       0.09289225 -0.07488943 0.04061485 0.04465611
000360 a0 9a be bd 38 16 ae 3d bd 17 5d 3d e4 84 bb bc
       -0.09306836 0.08500332 0.053977717 -0.022890516
000370 74 57 da 3d 00 7f 6f 3d 3c a7 26 bc 2a d8 b6 bd
       0.106612116 0.058470726 -0.010171708 -0.08927949
000380 bf f3 1f bd 35 51 b9 bd bc ee a0 bd d1 fc 54 3d
       -0.039050814 -0.09048692 -0.07858035 0.051998917
000390 26 72 2b bd bb 02 26 3d ba f4 3c bb ee b8 36 3b
       -0.041856907 0.040529948 -0.0028832392 0.0027881223
0003a0 f2 2c f2 bc 40 ad 82 bd 41 a7 97 bd 7b 8d 3f 3d
       -0.029562447 -0.06380701 -0.07404948 0.046765786
0003b0 f6 2e af 3b 01 df 9e bd 8a 5e 22 bc f6 5e 32 bc
       0.0053461744 -0.07757378 -0.009910235 -0.010886898
0003c0 34 13 bc bd 9d 1d 3a 3d 3d 6f 4b bd 9e d9 48 3c
       -0.0918335 0.045438398 -0.049666632 0.012258915
0003d0 77 8b 18 3d a9 b2 75 3d a4 ba 94 bd 54 13 62 3d
       0.03724238 0.059984837 -0.072621614 0.055194214
0003e0 e6 6b 5c bd 80 44 4c 3c 2c b0 ed bd 6f 72 23 bd
       -0.053813837 0.012467504 -0.11605868 -0.039904054
0003f0 75 5f 73 bb 41 af c8 bd 09 f2 81 3c 08 fe 6c 3d
       -0.0037135754 -0.09799052 0.015862482 0.05785945

layer2.0.bias f4 [32]
000000 81 5a 6c bd 64 c4 3e bd 8b 4c e7 bd 30 e1 b6 3d
       -0.0577035 -0.04657401 -0.11293896 0.0892967
000010 09 3d 92 3d 8f bb 80 3d aa 0f 61 ba 7d c8 d5 3d
       0.07140548 0.06285774 -0.0008585403 0.10438631
000020 b0 f6 11 3d 2c db e8 bd c8 c6 c2 bc f4 6a b7 bd
       0.03563565 -0.11369929 -0.023776427 -0.089559466
000030 4a b6 c5 3c db f8 44 3d 6b d5 fc 3c 3a 8e b4 3d
       0.024134774 0.04808889 0.030863484 0.0881619
000040 e0 d3 da 3d f7 1b b8 3d a5 e4 d4 3c db 4f a7 3d
       0.10684943 0.08989709 0.025987932 0.08169528
000050 5f 93 a2 3c 36 42 ab 3d 8d 7d 20 3d 6d 2b 4b bd
       0.019845663 0.08362238 0.039182235 -0.04960196
000060 5b bb c6 3d 41 ad 15 bd ad c3 9c bd 5a 32 90 bc
       0.09703704 -0.03654218 -0.0765451 -0.017602134
000070 92 38 b1 3d 53 c4 b8 3d 24 da d0 3d 3d 8b 91 3d
       0.08653368 0.09021821 0.10197857 0.07106636

classifier.weight f4 [50, 32]
000000 a2 9a cd 3b 82 9a 76 bd 75 4e 31 3d de 80 1f 3e
       0.006274537 -0.060205944 0.043287713 0.15576503
000010 17 4b ed bd df 06 00 bc 6f 39 97 3d da 88 3e 3b
       -0.11586588 -0.007814138 0.073840015 0.002907327
000020 3c b0 d8 3d e7 26 80 be a4 fe 24 3e e1 69 4c 3c
       0.10580489 -0.2502968 0.16112763 0.012476415
000030 c0 17 68 bd 73 db 99 3d c6 58 ba 3d 41 1a aa 3d
       -0.056663275 0.0751256 0.090989634 0.08305789
000040 e9 0c 56 3d ac 28 48 be 5f aa c8 bd f4 32 45 3e
       0.052258406 -0.19546765 -0.09798121 0.19257718
000050 35 f8 a3 bd 96 b9 38 3d 76 8f 30 3e 9a 98 25 be
       -0.08006326 0.045098864 0.17242226 -0.16171494
000060 df 1b c3 3d 56 ae 99 bd 3e 13 2e bd 52 f7 46 3d
       0.095268 -0.07503955 -0.04249882 0.048575707
000070 2c fd d3 3c 11 85 b5 bd 94 ba ab bd f3 05 da 3d
       0.025877558 -0.08863271 -0.08385196 0.10645666
000080 74 82 14 3e 20 9b ce bc fd 3a 35 be 6c 4e 3b 3e
       0.14502889 -0.025220454 -0.17698283 0.18291634
000090 a0 75 13 3e 46 7c 06 3d 9a 56 42 3c 0b 23 c6 bd
       0.14400339 0.03283336 0.011861468 -0.09674653
0000a0 46 75 07 be 3d 88 d3 bd 67 63 b3 bd 07 7e 99 3b
       -0.1322833 -0.1032872 -0.08759194 0.004684213
0000b0 32 6a 09 bd 17 22 89 3d 71 18 9f 3d 4c 9c 02 be
       -0.03354854 0.06695955 0.07768334 -0.12754935
0000c0 38 a6 41 be 08 53 b5 3c 53 27 e8 3d 47 a7 c4 3c
       -0.18911064 0.022134319 0.113356255 0.024005545
0000d0 8d ec 11 3e 69 f2 00 3d 86 43 de 3d 22 88 12 3e
       0.14250393 0.03148118 0.10852723 0.14309743
0000e0 41 bf 14 bd 5a 39 41 bd b3 31 18 bc da 35 13 bd
       -0.036315206 -0.047173835 -0.009289193 -0.03594003
0000f0 24 dc 0b be c4 46 7f 3d 6f 0d 09 be 98 d4 ae 3d
       -0.13658196 0.062323347 -0.13384031 0.08536643
000100 a8 aa f1 3d 61 62 22 3e 2f 68 03 3e e5 68 78 3d
       0.11800128 0.15857841 0.12832712 0.06064691
000110 fc 65 8d 3d 70 a1 2c bc 57 02 35 be 19 dc b3 3d
       0.069042176 -0.010536537 -0.17676674 0.08782215
000120 44 ef 3a be 34 b8 60 be 67 ea 02 3e 27 06 0a be
       -0.18255335 -0.21945268 0.1278473 -0.1347891
000130 9d ed 34 3d f8 5f a3 3d 3a e7 60 bd 6d f9 c3 bd
       0.04417192 0.07977289 -0.054908015 -0.095690586
000140 d1 26 37 be 46 fc 24 3e be 50 78 3d 85 bd 6b 3d
       -0.17885901 0.1611186 0.060623877 0.057553787
000150 40 1d e2 3d 26 ea 72 bc c6 dc 42 bc 10 ea 35 3e
       0.11040735 -0.014826333 -0.011893457 0.17765069
000160 02 be 3c 3b a5 38 34 bc dd a2 00 be 69 7a ec bd
       0.0028799777 -0.010999833 -0.12562127 -0.115467854
000170 34 18 0a be 1a 50 18 be d6 2a 2d 3e 39 aa d9 bd
       -0.13485795 -0.14874306 0.16910872 -0.106281705
000180 99 46 3e 3e 7b fc 86 bb 29 e1 cb bd 40 96 de 3b
       0.18581618 -0.0041194535 -0.09955055 0.0067928135
000190 da 16 87 3d 15 f0 4a be 97 8c 27 3d 6d e4 26 3e
       0.065961555 -0.19818147 0.04090556 0.16298075
0001a0 61 73 94 3d fb ef 42 3e 96 6d 8a 3d aa 01 e3 3c
       0.07248569 0.19036858 0.06759183 0.027710754
0001b0 c2 09 3a 3d 59 de d3 bd ff 2e 0c 3c fa a2 1f 3e
       0.045419462 -0.10345144 0.008556127 0.15589514
0001c0 86 4d 57 3e 26 db 29 be 05 50 05 3e f0 00 17 3e
       0.21025667 -0.16587505 0.13018806 0.14746451
0001d0 e6 ad 41 be 06 28 06 3e 70 9f e6 bd cf f1 07 3e
       -0.18913993 0.13101205 -0.11260879 0.13275836
0001e0 ff 59 8a 3d d2 61 21 3e d1 05 06 be 21 11 00 3e
       0.06755447 0.15759972 -0.13088156 0.12506534
0001f0 4a bb fc 3d 77 43 43 3d f4 cf c9 3d 5d 65 a1 bc
       0.1234041 0.04767176 0.09854117 -0.019701654
000200 69 d2 49 3e 93 3e 84 3c 6b 5e 4a 3e 54 c2 b4 3d
       0.19709171 0.016143119 0.1976258 0.08826128
000210 bd 4d fc 3d c3 e5 83 3d 03 90 ff bd 39 f7 81 3d
       0.12319515 0.06440308 -0.1247864 0.06345982
000220 27 cf 06 be c1 8b ff bb fe ac 38 be 68 f3 8f 3b
       -0.1316496 -0.0077986424 -0.18034741 0.00439303
000230 d9 16 28 bd 04 7b 1d 3e 72 3a f1 3b a4 a6 72 bd
       -0.041037414 0.15378958 0.0073617036 -0.059240952
000240 b0 02 15 3e 2e 15 16 be 4e 9f 01 3e 79 93 e7 bc
       0.14551806 -0.14656517 0.12658426 -0.028268563
000250 ee f7 f7 3d 73 6f 53 3e df 48 38 3c b0 23 af bd
       0.12107836 0.20647983 0.011247843 -0.08551729
000260 fb 50 26 3e 3d 0b 13 be 64 8f 56 3d e7 8a f5 bc
       0.16241829 -0.14359756 0.05238284 -0.02997346
000270 b8 b0 bf bd 09 f4 6b 3e cc 78 4a 3e 98 9f c9 3d
       -0.09359878 0.23042311 0.19772643 0.09844893
000280 fd 89 74 bd a9 4c 03 3e ca 79 a8 3d 3c 08 64 bd
       -0.05970191 0.12822212 0.082263544 -0.055671915
000290 b0 3b 20 3e 7a 90 59 3e 2e 32 aa bd 7d c4 36 be
       0.15647769 0.2124652 -0.08310352 -0.17848392
0002a0 09 51 3a be 32 f1 68 bc 1a f2 8c bd 21 e5 3a be
       -0.18194975 -0.014217662 -0.06882115 -0.18251468
0002b0 78 ad 66 3d ce 4a 00 be 37 ee 79 bd 5c ef c1 bd
       0.056317776 -0.12528536 -0.061018195 -0.09469482
0002c0 ed 89 2a 3e e6 01 0e be 52 20 52 3c dd bb 90 3c
       0.16654177 -0.13867912 0.012825089 0.017667705
0002d0 9c af 6e 3b fa 96 4c be de 7a d6 bd f2 db cb bb
       0.003642059 -0.19979468 -0.10472654 -0.006221288
0002e0 54 ca 23 be 45 8f 8d bd 3f fd e3 3d 02 74 50 3c
       -0.15995151 -0.06912092 0.11132287 0.012722971
0002f0 f0 db 25 3e 27 f6 27 3e cc b8 51 bd c1 60 03 3e
       0.16197181 0.16402493 -0.051201627 0.12829877
000300 9e de 07 be c1 4f 19 3e 2e 13 a2 3d c2 3b 36 be
       -0.13268515 0.1497183 0.079138145 -0.17796233
000310 ee 9f 80 bd b4 07 27 be 68 75 7f bd db 9a 48 3c
       -0.06280504 -0.16311532 -0.062367827 0.012243952
000320 e2 14 21 3e 5e 8e 36 be ef 10 c7 bd 63 60 6b 3d
       0.15730622 -0.17827746 -0.09720027 0.05746497
000330 f1 ff 2d 3e d1 ab d6 bd 62 f2 1f 3e 38 0d 74 bd
       0.16992165 -0.1048199 0.15619805 -0.05958292
000340 1f 2b 14 be 04 f1 f0 bc 24 ab ae bd 34 01 da 3d
       -0.14469574 -0.0294118 -0.08528736 0.10644761
000350 f6 01 1a 3e bc 54 98 bc 0b 5d 8b bd a7 ef f8 bc
       0.1503981 -0.018595092 -0.06804856 -0.030387713
000360 1d 95 c8 3b e6 88 e4 3d e8 a2 f9 3c 9e 56 8b bc
       0.0061212913 0.11158924 0.030473188 -0.017009076
000370 82 6e 03 bc 35 2d 9e bd b7 34 c4 3b 88 4d 1d bc
       -0.008021953 -0.07723466 0.0059877294 -0.009601004
000380 f9 ee 17 be 05 21 d2 bd 25 61 bc 3d c8 0f 8c bd
       -0.14837255 -0.10260204 0.09198216 -0.068389475
000390 3b 6f 19 3e 52 50 bb bd 05 a7 14 be ac 42 ff 3d
       0.14983837 -0.09146179 -0.14516838 0.124638885
0003a0 62 11 26 be 2f f2 c9 3d 62 6a b6 3d d7 e7 c3 bc
       -0.16217569 0.09860646 0.0890701 -0.02391426
0003b0 74 a4 d2 3d 11 05 5c 3d 20 a6 29 3e e9 69 18 bc
       0.10285273 0.05371577 0.16567278 -0.009302595
0003c0 00 e7 f0 3d a3 ff 77 bd b2 79 a7 bd 1a 70 ab 3c
       0.1176281 -0.06054653 -0.081775084 0.020927478
0003d0 d3 1b ac 3c 28 cc a9 3c 5c fa 9e 3d 70 b0 05 3e
       0.021009361 0.020727232 0.07762596 0.13055587
0003e0 1d 12 1d 3e a8 a1 23 3e 4c bc ac 3d 83 dd e4 3d
       0.15338941 0.15979636 0.08434352 0.111750625
0003f0 85 55 35 be 68 f8 b1 bc 88 5b 93 3d e1 3b 46 3c
       -0.17708404 -0.021724895 0.071951926 0.012099237

classifier.bias f4 [50]
000000 bc d0 86 bb 8c a2 a0 bd 9f ee 0a 3d c9 e3 b0 bd
       -0.0041142385 -0.07843503 0.033918973 -0.086371966
000010 a0 2f b8 bd 60 5a ee 3d e8 43 a3 3d 98 24 8a 3c
       -0.08993459 0.116383314 0.079719365 0.016863152
000020 fd 99 40 3d fb 4c 8e 3d 83 57 b3 3d 66 43 cc bb
       0.047021855 0.069482766 0.08756926 -0.0062336205
000030 2b 47 cf bd bb 35 9f 3d 5a 5b 1a 3d 7a 63 b9 bc
       -0.10120996 0.0777392 0.037684776 -0.022630442
000040 e8 af 43 3c db 3e 9d 3d 77 95 83 3d 3b 78 c5 3d
       0.011943795 0.07678004 0.064249925 0.09642073
000050 42 00 5b bd cb 2a b8 bd ca eb 3f bc af 26 99 3b
       -0.053467043 -0.08992537 -0.011713931 0.004673801
000060 36 44 97 3d 99 1e a5 3c 19 0f cb bc a6 0f e7 3d
       0.07386057 0.020156192 -0.024787473 0.112822816
000070 e0 39 5e bd 0c 73 70 3c d5 ba 0e bd bf a3 e4 3d
       -0.054254413 0.014675867 -0.034846146 0.111640446
000080 c1 de 02 bd a3 82 d6 3c 65 b5 cd bd 30 dd a7 3d
       -0.031950716 0.02618534 -0.10044364 0.08196485
000090 8e a1 ba 3d 01 05 e5 bd f2 e2 66 bd 98 35 96 3c
       0.09112845 -0.11182595 -0.056368776 0.018336102
0000a0 3a c3 6b 3d a9 06 74 3d ab a7 c2 bd 60 d7 22 bd
       0.05755923 0.059576664 -0.095046364 -0.03975618
0000b0 2d ff 27 3d 47 0c c0 3d a2 c1 a4 3d 52 2a 31 3c
       0.04101484 0.09377342 0.08044745 0.010813313
0000c0 b2 ca 3a 3d 44 aa 4b 3c
       0.04560346 0.012430731
