results/CIFAR100_dataset/contrastive_loss/margin_2.0_first_model_nb_classes_50_data_percent_70/model_ckpt.pt (torch_old, 802778 bytes, 6 tensors)

layer1.0.weight f4 [64, 3072]
000000 dc 03 5d bc 21 16 df 3b f2 64 a0 3c a9 2c d9 3b
       -0.01348969 0.006808058 0.019579384 0.0066276384
000010 31 58 15 3c ed bc 21 bc 3a d9 17 bc cf f6 8a 3c
       0.009115265 -0.009871704 -0.009268099 0.01696339
000020 12 e3 e8 bb 0e b1 28 bc fe 09 43 3b 0c 99 c0 3b
       -0.007107147 -0.010296119 0.0029760594 0.0058776196
000030 71 c9 8a 3c 64 9f 23 bc c1 94 00 bc 7f 66 56 bc
       0.016941758 -0.009986732 -0.007847966 -0.01308596
000040 50 8b ec 3b 32 54 58 3c 70 84 95 3c d6 ab 80 bc
       0.007218756 0.0132036675 0.018251628 -0.015706938
000050 05 6b 85 3c be 30 82 bc 64 5f 5d 3c e2 91 0b 3c
       0.016286382 -0.015892383 0.013511512 0.008518668
000060 71 88 f3 bb b5 13 3b bc 35 d4 1f 3b 35 a3 a5 ba
       -0.0074320366 -0.011418273 0.002438796 -0.001263714
000070 42 e3 d5 3b 8e f5 5d 3b 06 0a 8b bb df 3f bb 3b
       0.0065273354 0.0033868286 -0.0042431382 0.005714401
000080 a9 a6 9f 3c 95 f8 96 b9 5e 09 95 3b 4d f6 7b 3c
       0.01948865 -0.00028795438 0.004548236 0.015378547
000090 4f e5 3c 3c d2 a1 3a ba 92 ec 87 3c 70 93 fb bb
       0.011529281 -0.000711945 0.016592298 -0.007677488
0000a0 04 35 1c bc 40 75 b3 3c 6e 52 3f bc 3c 58 87 bb
       -0.009534124 0.021906495 -0.011677368 -0.0041303914
0000b0 e8 22 eb b9 cf 54 f0 3b 83 4c b8 3b bd ef da bb
       -0.000448487 0.0073343287 0.0056243553 -0.006681411
0000c0 83 89 fb bb 40 db 21 bc 30 b7 a0 3c 1b 8a 5f bc
       -0.007676305 -0.009878933 0.0196186 -0.013643767
0000d0 c7 3c 0b bb fc 23 06 bc 3a 05 3a 3c 11 43 8c bc
       -0.0021245943 -0.00818729 0.011353785 -0.017121824
0000e0 f4 0e 4b bc 1e 40 8a bc 82 02 ea bb 8d 48 84 3a
       -0.012393702 -0.016876277 -0.0071414122 0.0010092423
0000f0 15 3e 2d 3b 85 50 1a bc d2 30 42 3c 4c 9e ce bb
       0.002643471 -0.009418611 0.01185246 -0.0063054916
000100 24 80 35 bc 69 14 af ba 51 a5 93 3c 65 31 79 3c
       -0.011077914 -0.0013357523 0.018023165 0.0152095305
000110 fe 45 82 bc db fc 2e 3c e6 36 c6 bb 8e 1d 3b 3c
       -0.015902516 0.010680403 -0.006049025 0.011420621
000120 ba 23 f6 bb 30 2f 27 bc ab 8a 5b bc 6a 3d 5f bc
       -0.007511583 -0.0102041215 -0.01339976 -0.013625482
000130 fa bc 94 ba 3d d6 93 bb d1 de 9e bc be 7c 24 bb
       -0.0011347823 -0.004511623 -0.019393357 -0.0025098766
000140 0d c2 cf bb 34 94 36 3c 4f 29 23 3a b8 d0 e8 3b
       -0.0063402713 0.011143733 0.0006224112 0.0071049593
000150 f3 c8 14 bc cb 0b 1e 3c 33 53 25 b9 d4 cd cf 3b
       -0.009081113 0.009646366 -0.0001576662 0.0063416753
000160 84 80 65 3b df 61 96 39 5b 0d 81 bc 98 7b d6 3b
       0.0035019228 0.0002868315 -0.015753439 0.0065454952
000170 f1 dc cd 3b 19 28 a9 bb 0c 22 75 bc bb 80 43 bb
       0.006282442 -0.0051622507 -0.014961731 -0.0029831368
000180 30 a1 48 ba 1e 58 63 3b 10 66 85 3c 67 67 42 3c
       -0.00076534133 0.0034689973 0.016284019 0.011865473
000190 51 66 56 bc b8 a1 df bb 06 53 95 3c 03 59 4d 3c
       -0.013085918 -0.0068246983 0.018228065 0.012533429
0001a0 93 86 7f bc 0d 39 f7 bb 17 4f 9b bb fb e2 3a 3c
       -0.01559605 -0.007544643 -0.004739653 0.011406655
0001b0 c4 c0 d2 3a e9 11 14 3c 74 74 f2 bb d6 93 27 3c
       0.0016079177 0.009037473 -0.007399136 0.010228118
0001c0 ec e0 3e bb f7 7e b6 3b 1c c3 e9 3b 43 41 93 bc
       -0.0029125763 0.0055693346 0.0071338546 -0.017975455
0001d0 d8 c0 b4 bb de 37 41 bc b1 57 1c 3c ed ac f3 b9
       -0.005516153 -0.011793105 0.009542392 -0.00046477412
0001e0 d8 3b e2 3a a5 ff 4e 3b b9 04 2d 3c 3a 94 6d 3c
       0.0017260266 0.0031585481 0.010560208 0.014500672
0001f0 11 de 04 bc 9c 3e 6e bb 75 90 e8 b9 95 7e cc 3a
       -0.008109585 -0.0036353236 -0.00044358117 0.0015601689
000200 cf ae 81 3c 27 7c 79 bc d0 64 91 bb ff 3d 92 bc
       0.015830426 -0.015227354 -0.0044370666 -0.017851828
000210 00 10 4b 3c b2 e8 1c 3c 5a d3 eb 3b 9c 61 05 3c
       0.012393951 0.009576963 0.007196826 0.008140948
000220 30 53 ca 3b 38 ca d3 3a 24 b3 f9 3b b2 60 a2 3a
       0.0061744675 0.0016158288 0.007620232 0.0012388437
000230 d7 4b 8e bc 82 41 94 3a 12 ac f3 3b 98 85 3a bc
       -0.017370148 0.0011311027 0.007436284 -0.01138439
000240 49 0a 06 3c bc 71 78 3c 6c 29 2f bc 71 83 4b 3c
       0.008181163 0.015163835 -0.010691028 0.012421475
000250 6d 02 a0 b8 9d 22 51 3b 47 6d 7d bc 5d 82 36 3c
       -7.6298464e-05 0.00319115 -0.015467948 0.0111394795
000260 1a 21 6f bc d8 25 c2 bb 9c fe e4 3b 9a 51 b8 bb
       -0.014595294 -0.0059249215 0.0069883596 -0.005624962
000270 58 4e 79 bc 29 d6 0f 3c f6 2c f2 bb 12 b8 37 bc
       -0.0152164325 0.008779087 -0.0073906137 -0.011213319
000280 ac d7 6d 3c 6e ec c3 3b c1 a9 9d bb 71 dd e5 ba
       0.014516752 0.0059791123 -0.004811496 -0.0017537308
000290 3a 97 65 3c 3f 38 d9 ba 6f 49 5f bc 67 e8 b0 bb
       0.014013106 -0.0016572549 -0.013628348 -0.0053987983
0002a0 e2 72 9f bc 9d 8d 9c ba 85 f0 a1 ba 22 13 22 bc
       -0.01946396 -0.001194406 -0.0012355006 -0.009892257
0002b0 45 4c 0d 3c e1 a9 26 3a ee a9 d0 3a 4f 66 ff 3a
       0.008624141 0.00063577114 0.0015919784 0.0019485446
0002c0 35 16 19 bc 24 12 90 39 b9 d2 11 bc 77 c2 21 bc
       -0.0093436735 0.00027479336 -0.008900338 -0.009873024
0002d0 3d 29 71 bc ea 24 d3 b9 81 ee 38 bb 59 b2 ef bb
       -0.014719305 -0.0004027256 -0.0028218331 -0.007314962
0002e0 ac e0 9b bc ef 00 7d bb 03 fb d9 ba 35 ab a3 bc
       -0.01902803 -0.0038605293 -0.0016630593 -0.019979099
0002f0 8c 98 00 bc 16 50 20 3c 46 d5 6d 3c c6 6e f7 3b
       -0.00784887 0.009784719 0.01451618 0.007551047
000300 f9 9c 59 3c c8 15 c1 bb fd c2 f3 3b 9e 49 73 3c
       0.013282054 -0.005892489 0.007439016 0.014849095
000310 d9 cb 90 bc 74 a1 2f 3c a9 a3 2e 3a 21 73 a8 3b
       -0.017675327 0.010719646 0.00066619605 0.0051406776
000320 fe 67 2b 3c 1d 68 65 ba de 40 5a bc c7 e9 97 bc
       0.010461805 -0.0008751171 -0.01332113 -0.01854409
000330 17 64 58 3c 87 e6 48 3b 28 66 83 3a 3f 36 96 bb
       0.013207457 0.0030654983 0.0010024952 -0.0045841034
000340 de aa 11 ba 17 45 35 bb 52 2e b1 bb 8b 94 3e bc
       -0.0005556772 -0.002765959 -0.005407133 -0.011632095
000350 69 33 11 bc 77 2a 4e bc 8d fe 39 3c f5 b1 85 bc
       -0.008862355 -0.012583367 0.011352194 -0.016320208
000360 05 b8 c6 3b d4 fb 1c 3c 57 20 00 3c 37 ff 6e bc
       0.0060644173 0.009581525 0.00782021 -0.014587215
000370 55 08 a0 bc 0e 14 66 3a 6d 4c b0 3b c7 0f 44 3c
       -0.019535223 0.0008776792 0.0053802044 0.011966652
000380 b1 b5 23 bc 8d 0e 02 bc 84 72 84 3c ea 8c ed 3b
       -0.009992049 -0.0079380395 0.016167887 0.0072494643
000390 e0 0a 93 bc d3 d5 c0 bb 54 03 69 bc 5d c0 2b 3c
       -0.017949522 -0.005884865 -0.014221985 0.010482875
0003a0 0a 90 c9 3b 8d 8f 02 bb a1 b2 e2 3b 35 b9 90 ba
       0.006151204 -0.0019921989 0.006918267 -0.0011041524
0003b0 d8 f5 79 bc ea a6 b7 3b 10 3d 62 3c ae 29 1c bc
       -0.015256368 0.0056046145 0.013808504 -0.009531422
0003c0 a0 ff 75 bb b5 f0 3b 3c e5 03 b3 3b 16 ae f4 3b
       -0.0037536398 0.011470963 0.0054631107 0.0074670417
0003d0 82 c3 0b bc 1c a3 39 3c d4 14 96 3b fc 44 64 bc
       -0.008530499 0.011330392 0.0045801196 -0.013932463
0003e0 63 a8 41 bc f9 40 9d bc 6c 70 4d 3c 9a 32 4c bc
       -0.011819932 -0.01919602 0.0125390105 -0.012463236
0003f0 ec 97 f0 bb c9 d6 ff bb 0d 94 0a 3c e7 f5 dd bb
       -0.0073423292 -0.007807587 0.00845815 -0.0067736986

layer1.0.bias f4 [64]
000000 21 0c 0d bd 28 d0 d2 bb 53 df a3 bc 6d 1a 18 bc
       -0.034435395 -0.0064335056 -0.02000395 -0.009283644
000010 cd ac 3e 3a 03 aa ea bb a1 d4 c8 bb 1f 00 24 ba
       0.0007273674 -0.0071613803 -0.006128863 -0.00062561216
000020 78 a5 c2 b9 65 c1 da 3a 04 66 a7 bb b3 5d 0a 3a
       -0.00037125847 0.0016689716 -0.0051085968 0.00052782445
000030 81 e0 19 3c f2 06 d1 bc 0a 52 44 bc 5d a6 51 bc
       0.009391905 -0.025516007 -0.01198245 -0.012796012
000040 3e 61 ae bc e7 b3 8f bc d7 68 bf bc 7f 16 e8 3a
       -0.021286603 -0.017541839 -0.023365421 0.00177069
000050 52 b4 da bc 59 74 da 3b f3 30 f2 bb ab c2 76 3c
       -0.026697312 0.0066667018 -0.007391089 0.015061061
000060 da 4f c2 bc ac e1 2a bd 8e a4 2b bc 33 7d a8 bc
       -0.023719717 -0.041719124 -0.010476245 -0.020567512
000070 12 58 e6 bc fd af d2 bc 24 2e f3 bb e0 3a 82 bc
       -0.028118167 -0.025718683 -0.007421272 -0.015897214
000080 4d fb 8b bc 35 7c 6d bc 72 1f 02 bb 0d 93 02 bc
       -0.017087603 -0.014494945 -0.0019855169 -0.00796963
000090 0e df 32 3b b6 43 20 bd 47 b9 ad bc 86 1e 49 bd
       0.0027293595 -0.039127074 -0.021206511 -0.049101375
0000a0 3b 12 80 bc ab a5 1d bd b1 73 7d bc df 62 8a bb
       -0.015633693 -0.03848807 -0.0154694775 -0.004223212
0000b0 d1 09 2a 3d 05 0c f9 3b da 46 f2 3b 9b a0 9f bc
       0.041513268 0.00760031 0.0073937 -0.019485762
0000c0 25 1d fc 3b 41 84 06 bd 2a d4 1e bd d1 a8 08 bd
       0.007693904 -0.03284097 -0.038776554 -0.03336412
0000d0 f5 8b 12 bb 28 ce 1d bd b9 fe 11 3c f3 e7 10 bc
       -0.0022361253 -0.038526684 0.008910828 -0.0088443635
0000e0 45 e2 ed bb 99 c9 a2 3c e7 10 18 bb e3 ee 5b bc
       -0.0072596394 0.01987152 -0.0023203434 -0.013423654
0000f0 4c c8 38 bc 29 8a 81 bc 11 5a da bc 1a bc 5d bc
       -0.011278223 -0.01581295 -0.026654275 -0.013533616

layer2.0.weight f4 [32, 64]
000000 8e 3c 9e bd 43 3d bb bd a5 ed af bc 2f 87 da 3d
       -0.07726394 -0.09142544 -0.021475622 0.106703155
000010 6f 5b 98 3d 52 c3 83 3d 85 ab 07 be c4 99 d4 3c
       0.074393146 0.06433739 -0.13249023 0.025952227
000020 d8 ad cd bd 34 b7 d7 bd bc 41 a4 3c 99 ec f4 bd
       -0.10042924 -0.1053299 0.020050876 -0.1195919
000030 70 51 f7 bc 5d 35 ae 3d 73 cf e3 bc 97 49 5f bd
       -0.0301902 0.08506272 -0.02780888 -0.05451354
000040 e0 04 e8 bd 69 dd a3 bc 4b de 25 3d ff fb 94 3d
       -0.11329055 -0.020003038 0.0404952 0.07274627
000050 6b 3d cc 3c 8e 1a 39 3c 0c 73 d7 bd cb 89 c1 bd
       0.02493163 0.011297835 -0.1051999 -0.0945011
000060 ff 5e 9e 3d 9d 5c df bd a2 e2 f6 bd 2b 12 71 bd
       0.07732963 -0.109063365 -0.120549455 -0.058855217
000070 53 1c db bd 71 fc 99 bd 88 e6 83 bc ee 82 bd bd
       -0.10698762 -0.075188525 -0.016101137 -0.092534885
000080 c0 06 78 bd 1b 97 bd 3d c1 82 9d 3d d2 14 02 be
       -0.060553312 0.09257337 0.07690955 -0.12703255
000090 27 45 ca 3d 40 12 49 bd f3 79 e3 3d 17 e0 94 3d
       0.09876471 -0.04908967 0.11107244 0.07269304
0000a0 65 02 96 bd ba 7c c1 3b b2 39 2f 3d 0f 8f 5f bd
       -0.073246755 0.005904761 0.042779632 -0.05457979
0000b0 1b 9c dc bc 5e 68 d9 3d d3 d8 e7 bc 97 4e bd bd
       -0.026929906 0.106156096 -0.028301632 -0.092435054
0000c0 70 df 93 bd 96 6a 95 bd 9f ca 98 3d 7b 58 8c bc
       -0.07220352 -0.0729572 0.07460522 -0.017132035
0000d0 f5 63 ae 3d 4b 14 7b 3d 21 a9 b5 bd 48 b6 fa bc
       0.08515159 0.06129865 -0.088701494 -0.030604497
0000e0 4f 81 c4 bc fc 22 db 3d 6b 97 8a 3d ad 56 f7 bd
       -0.02398744 0.10700032 0.06767162 -0.12077079
0000f0 33 4d b6 bd f6 6e 99 3d 4f cd fb bd 9b f7 34 3d
       -0.08901443 0.07491867 -0.12295019 0.044181447
000100 b1 99 00 be 9e b7 35 3c fb 5f d5 bd 92 ca 4e bd
       -0.12558629 0.011091141 -0.104186974 -0.050486155
000110 f9 34 b5 3c 3c 61 c0 bd b0 1e e9 bd e3 bc ac bd
       0.022119986 -0.09393546 -0.11382806 -0.08434465
000120 b0 07 99 3d a8 a5 9f bd e4 d0 0b be 80 28 94 3d
       0.074721694 -0.07795268 -0.13653904 0.07234287
000130 b7 7a 53 bd e5 dc 0b bd b4 7e 31 bc 5f 54 d8 bd
       -0.051630702 -0.03414621 -0.010833431 -0.105629675
000140 10 d3 64 bd 11 a9 03 3d ad c0 dc bd 0c 8b e6 bd
       -0.055865347 0.032143656 -0.107789375 -0.1125699
000150 25 71 99 bd e4 b1 2f bd 5f f0 01 bb b9 f6 a1 3d
       -0.07492284 -0.04289426 -0.001982711 0.07908387
000160 ae a7 a5 bd 28 84 e0 3d 4b e8 bb 3d 94 75 d2 3c
       -0.08088623 0.10962707 0.09175166 0.025690831
000170 c4 b3 ae 3d e8 84 a8 bd 51 55 c4 3d 57 1e ab bd
       0.08530381 -0.08228475 0.09586585 -0.08355396
000180 9c 47 de 3d 9e f3 ad bd d9 04 f4 bd 14 40 f5 bd
       0.10853502 -0.08493732 -0.11914987 -0.119751126
000190 2b bf e5 bd 6c 3d e2 bc 77 c7 6f 3c 8b 54 a6 bd
       -0.11218103 -0.027617179 0.0146349585 -0.08121594
0001a0 d8 3d f9 3c a6 66 75 3d c3 6c e9 3c c9 69 0d bc
       0.030424997 0.059912346 0.028494244 -0.008631178
0001b0 45 f0 8c 3d ef 03 ec bd a3 22 6f bd bb c3 93 3d
       0.06881765 -0.11524188 -0.05838264 0.07215067
0001c0 b5 de 62 bd 0d 65 bd 3a ba b3 fa bb a2 45 a2 3d
       -0.05538817 0.0014449671 -0.0076508196 0.07923438
0001d0 b4 45 77 3d 38 ce 55 bd 8b c8 9a 3d c6 9b 4c 3d
       0.06036921 -0.05219862 0.07557782 0.049953245
0001e0 4b 27 e2 3d b8 c7 ac 3d ae 75 cb bd 85 b8 d3 bc
       0.11042651 0.08436531 -0.09934555 -0.025844822
0001f0 c5 2d 79 bc a2 83 59 3d a2 9b 8e 3c 49 8f 0e bd
       -0.015208666 0.05310405 0.017408196 -0.034804616
000200 61 cb 03 3d f2 f8 ac 3d 9c cd d6 3d 8f 07 9c bc
       0.03217638 0.0844592 0.104884356 -0.019046573
000210 a7 c0 b2 bc ea f4 90 bd 2d 7b 91 bb 34 4f ae bc
       -0.02182038 -0.07077964 -0.0044397325 -0.021278001
000220 47 60 9a bd 8b 3b 30 3d 28 cc 04 bd 29 4c 91 3d
       -0.07537895 0.043025535 -0.03242126 0.070946045
000230 5b 14 f7 bd 17 75 b2 3d 29 31 48 3d 3c 10 65 3d
       -0.120644294 0.08713739 0.048875008 0.055923685
000240 01 67 12 3d b5 a0 19 bd 51 c4 e4 bd 37 ab 9a bd
       0.035742763 -0.037506778 -0.11170257 -0.07552188
000250 69 7b 7d bd 99 13 06 be a9 8e 2e 3c c0 ac eb 3b
       -0.06188527 -0.13093413 0.01065413 0.0071922243
000260 39 58 9d 3d c3 99 b8 3d e0 36 6c bd 29 0c 07 3d
       0.07682843 0.09013703 -0.05766952 0.03297058
000270 61 fa 65 3b 9d 98 96 bb 01 d1 f9 3c 1b 13 db 3c
       0.0035091864 -0.0045958296 0.030495169 0.026742509
000280 41 8b 8a bd e0 e9 74 bd 17 f1 3a 3d b5 e8 a5 bd
       -0.06764842 -0.059793353 0.045640077 -0.08101026
000290 14 a5 0b bd e6 af a6 3d aa 44 3e 3d c1 9d c6 3d
       -0.034092978 0.08139019 0.046452202 0.09698058
0002a0 7b 95 e0 3d 1a c9 05 be 1a 5d 09 3d 36 7f 68 bd
       0.10966011 -0.13064995 0.033536054 -0.056761943
0002b0 c7 63 b7 bd a0 73 d2 3c db 93 6d 3d c5 f7 d9 3d
       -0.08954578 0.0256899 0.058002334 0.106429614
0002c0 32 f4 01 be 99 e2 ab 3d 70 f2 1e 3b 83 8d b4 bd
       -0.1269081 0.083928294 0.002425339 -0.08816054
0002d0 c6 b5 94 bd 0e f5 f8 3c 19 0c 98 3d c9 68 04 3d
       -0.07261233 0.030390289 0.074241824 0.032326493
0002e0 38 f6 96 bc 75 48 5d 3d 5b cf 38 bd 81 68 9e 3c
       -0.018427953 0.05402418 -0.045119625 0.01933694
0002f0 a7 53 7a 3d dd 50 de 3c a3 b6 cd 3c 1e 78 d7 3c
       0.061114933 0.027138168 0.025111502 0.026302394
000300 46 13 da 3c b0 57 0d 3c 07 5a b8 3d 7c 03 b1 3d
       0.026620518 0.008626863 0.09001546 0.08643243
000310 7d 48 5d 3d 86 09 ec bd ff 79 8a 3c 57 ec 06 be
       0.05402421 -0.11525254 0.016903875 -0.13176094
000320 68 47 2a 3d 43 71 1a 3d 4d 29 a4 3c 1c 95 6a 3d
       0.041572005 0.03770567 0.020039225 0.057271108
000330 85 c0 b0 bd 03 03 50 bd b7 0b 36 3c 9b 8e 93 3d
       -0.0863047 -0.050784122 0.0111111915 0.07204934
000340 7c e2 d9 bd 96 fd 7a bc 0e e3 7c 3d b1 a0 79 3b
       -0.106389016 -0.015319249 0.061739974 0.0038090164
000350 71 04 1e 3d 90 c8 c0 bd 54 dd 8a bd 1e e8 0a 3c
       0.038578454 -0.09413254 -0.06780496 0.008478193
000360 f4 5d 07 be de 38 19 3c ba 06 4a 3c ae f1 81 3d
       -0.13219434 0.009351937 0.012330705 0.06344925
000370 c6 e6 ad bc 08 a4 b4 3c ff 26 d1 bb f5 c9 50 3d
       -0.021228205 0.022050872 -0.0063828225 0.05097385
000380 91 d9 58 3c 26 4d f4 bd c7 86 af 3c 84 1a 8d bd
       0.013235466 -0.119287774 0.021426572 -0.06889823
000390 b5 a3 0d be 2c 8f 0a bd 72 c3 ad bb 1d 02 42 bd
       -0.1383198 -0.033827946 -0.00530284 -0.047365297
0003a0 78 5c 48 3c ae a0 5f bd 9d 20 75 3d e6 5a eb bd
       0.0122290775 -0.054596595 0.059845556 -0.11491947
0003b0 5f 58 85 3d 05 68 7e 3b ca e3 6a bd e6 c2 fd bd
       0.06510996 0.0038819325 -0.057346143 -0.123906896
0003c0 bb 11 07 be 8a 55 65 3c 5f f0 a8 bc 20 68 55 bc
       -0.13190357 0.013997445 -0.02062243 -0.013025314
0003d0 0e b4 33 3d 89 8e 9b 3d 73 37 42 3b ca f0 26 3c
       0.043872885 0.07595546 0.00296351 0.0101892445
0003e0 a7 d2 ae 3d 31 6f c7 3d 86 a4 9d bd 9c 1c ab ba
       0.085362725 0.09738005 -0.07697396 -0.0013054791
0003f0 62 81 82 bc 72 08 e3 bd 3e b5 82 3c 3a 1b 24 3d
       -0.015930835 -0.11085595 0.015955564 0.040065028

layer2.0.bias f4 [32]
000000 4f 20 7f 3d ba 53 ea bd 13 9e 1e 3d 54 55 46 bd
       0.06228667 -0.11441751 0.03872497 -0.04842122
000010 09 2d a7 bd 87 42 11 bd f8 a9 43 3d e9 22 0a 3e
       -0.08162887 -0.035463836 0.047769517 0.1348988
000020 5d 49 8a bd 24 33 53 3d 79 b6 0a be 29 8b e9 3c
       -0.06752274 0.051562443 -0.1354617 0.02850874
000030 db 49 c5 3d 99 ef 9d 3d 81 74 ab 3d 7a 61 f4 bd
       0.096332274 0.07711715 0.08371831 -0.11932655
000040 7e 62 02 be 9c d6 ad bd f7 fa d7 bd c8 a9 f7 bc
       -0.12732884 -0.08488199 -0.105459146 -0.030232325
000050 f0 d8 f1 bc ae 94 0a bc 47 e4 cd 3c 0e 80 bc bd
       -0.02952239 -0.0084583 0.025133265 -0.09204112
000060 b5 59 04 be 82 ec 08 be ee 25 de bd f1 95 a9 3d
       -0.12924846 -0.1337147 -0.10847078 0.08280552
000070 bc 4f 4a bb 93 f4 db 3d a0 c2 b5 bc 54 a7 0f be
       -0.003087028 0.10740008 -0.022187531 -0.14028674

classifier.weight f4 [50, 32]
000000 3c a1 11 3e b8 2d 10 be b6 4d 42 3c 09 d5 1d be
       0.14221662 -0.1407994 0.011859348 -0.15413298
000010 72 ad 20 be 49 6d cd be f1 96 c7 3d 64 91 19 3e
       -0.15691164 -0.4012244 0.09745587 0.14996868
000020 30 1c 1e be d1 2b 1f 3d b2 4b d7 bd 63 08 2f 3d
       -0.1544044 0.038860146 -0.105124846 0.042732608
000030 fd 95 56 3d 20 26 4b bd 7f be 63 be 3a 46 3e be
       0.052389134 -0.049596906 -0.22240637 -0.18581477
000040 2d c0 17 bd 17 d9 03 bc bf 59 94 3d f6 66 bd 3d
       -0.037048507 -0.008047364 0.0724368 0.09248154
000050 26 08 6c b9 12 e7 30 bc bb 00 1f be 84 d0 13 3e
       -0.0002250975 -0.010797279 -0.15527622 0.14435011
000060 35 d9 ce bd bc 3f 76 3d 1b b3 4f 3d 17 c2 28 3e
       -0.10100023 0.060119376 0.050707918 0.1648029
000070 26 4f fc 3c 5b be 41 be 09 cd ff bd e4 1e 36 3e
       0.03079946 -0.18920271 -0.12490279 0.17785221
000080 09 42 f2 3c 36 95 df bd 4a c9 bd bd 3e a2 31 be
       0.029572504 -0.109171316 -0.092669085 -0.17347047
000090 74 fa 43 bd 9c c9 ab 3d a3 e4 a9 3d 48 b1 95 be
       -0.047846273 0.08388063 0.08295562 -0.29236817
0000a0 c9 ea 01 3e 30 15 0f be 01 fe a2 3d a2 2f d0 3d
       0.1268722 -0.13972926 0.07958604 0.10165335
0000b0 26 43 55 be 5b 37 2b bd e2 33 8d 3c a4 ea 0b bd
       -0.20826396 -0.041800838 0.017236654 -0.034159318
0000c0 31 8d fa 3d b1 09 cf bd 73 3d 16 be 06 61 1c bc
       0.122339614 -0.1010927 -0.14671879 -0.009544617
0000d0 35 44 57 bd f3 49 1c 3d 7a 33 20 be 4d 59 e9 3c
       -0.05255528 0.03815646 -0.15644637 0.028484965
0000e0 f4 11 de bd 6b e0 28 be 1f 57 fb 3d 0f 92 25 be
       -0.10843268 -0.16491859 0.122724764 -0.16168998
0000f0 a7 b0 88 3d af b8 99 bd 28 83 fc bd f3 ff 41 3e
       0.06674319 -0.07505929 -0.123297036 0.18945293
000100 1f 7e 2b 3b df ef f7 bb 10 04 de 3d ce fb e4 bd
       0.0026167703 -0.0075664367 0.108406186 -0.111808404
000110 93 7a 2d 3c 16 3e a1 be f3 c4 3e be 41 1f 89 be
       0.010588306 -0.3149268 -0.18629818 -0.26781657
000120 0f 83 2d be a4 ae 34 bd 72 4b d5 bd a4 1c e3 3d
       -0.16944526 -0.044111863 -0.10414781 0.11089447
000130 1f 39 9e bd d7 1a 0e 3e 28 d3 33 be 6c ce f2 3d
       -0.07725739 0.13877426 -0.17561018 0.11855778
000140 d6 a0 41 3e b2 45 21 be fc 87 57 bd d7 a2 60 be
       0.1890901 -0.15749243 -0.05261992 -0.21937118
000150 67 3b fe 3d 91 c3 2a be 06 f7 55 3d de 64 56 be
       0.12413674 -0.16676165 0.052237533 -0.20936915
000160 b9 9d eb 39 c8 9f d7 bd 3d 82 1a be a1 2b 53 3d
       0.00044940205 -0.10528523 -0.15088744 0.05155528
000170 8e d1 fa bd e0 26 30 bb 66 86 88 3d d1 5c a1 bd
       -0.12247001 -0.002687864 0.066662595 -0.078790314
000180 f1 4b 33 be a8 a6 e9 3d fa 7d 0d 3e b8 59 4e be
       -0.17509438 0.1140874 0.13817587 -0.20151412
000190 ba 23 8d 3d f0 3f a4 be a1 0d e1 3d f6 4c 0d 3e
       0.0689158 -0.3208003 0.10988928 0.1379889
0001a0 a0 01 95 be fc f2 93 bc 9c 58 b4 3d fb c2 0b 3e
       -0.29102802 -0.0180602 0.088059634 0.13648598
0001b0 ea 99 b7 bd a0 57 51 3e 15 ab 62 3d 8e 0a 19 3e
       -0.08964904 0.20443583 0.055338938 0.14945433
0001c0 fa de 0b be 41 79 29 3d 98 e6 16 be 80 f6 2e 3e
       -0.13659278 0.041375402 -0.14736402 0.1708622
0001d0 56 3f d3 3c e3 f0 ed bd 28 80 d3 3d 83 34 94 bd
       0.025787037 -0.11618211 0.10327178 -0.07236578
0001e0 52 7f d8 3d 7a e3 ca bd 67 ea b0 bd a1 d8 2c 3e
       0.105711594 -0.09906669 -0.08638459 0.16879512
0001f0 e2 f3 a0 3d 3c 74 8e bd 55 8f ba bd 31 67 a3 3d
       0.07859017 -0.06955764 -0.0910937 0.079786666
000200 fa d5 f8 bd a6 74 47 3d f0 d3 cc bd 6e 65 1d be
       -0.12150188 0.04869523 -0.10001361 -0.15370724
000210 eb 94 f9 bd 1a a0 b9 be be f7 13 be 30 78 e1 bc
       -0.12186607 -0.3625496 -0.14449975 -0.02752313
000220 f9 f9 e4 bd 37 cc e6 bd af 7a 3c be 0d e8 12 3d
       -0.11180491 -0.1126942 -0.18406175 0.035865832
000230 98 90 77 be 08 1d 8f bd 32 e2 07 3e 85 c0 24 3d
       -0.24176252 -0.06987959 0.1326988 0.040222663
000240 84 9d 52 be 24 42 45 bd 15 88 38 3c 62 47 d1 bd
       -0.205679 -0.04815878 0.011262913 -0.10218693
000250 2e 3d c2 3d 7b 40 83 bc 2c 72 3e bd 94 8e bb 3d
       0.09484325 -0.016021958 -0.0464956 0.09158054
000260 52 c1 1e 3e a9 0a ae 3d 59 f9 9e 3d b2 ee d8 3d
       0.15503433 0.08498127 0.07762403 0.105924025
000270 e1 1a 26 3e f9 c2 27 bb 43 06 81 bd cc 98 8f bd
       0.16221191 -0.002559839 -0.063000225 -0.070115656
000280 08 11 5b 3c e6 b9 8f 3d c3 43 f1 bd d2 9b 67 bd
       0.01337076 0.07017879 -0.11780503 -0.056545086
000290 54 c1 14 3b 69 0f 99 be 12 85 6a be 09 8a af be
       0.002269824 -0.2989457 -0.22902325 -0.34285
0002a0 7f 42 72 be 65 e6 be bd 79 70 bc 3d af 76 e0 bd
       -0.23658179 -0.09321288 0.0920114 -0.10960137
0002b0 57 f0 96 be f9 80 04 be ec 47 b2 bd ef 54 a1 bd
       -0.2948024 -0.12939824 -0.08705124 -0.07877528
0002c0 af ce 04 3e 63 85 92 3d 72 53 57 bd f3 1b c0 bc
       0.12969469 0.07154348 -0.052569814 -0.023450827
0002d0 c3 ad 0b be 8b a2 df 3c 92 4c c4 3d 25 23 94 bc
       -0.13640504 0.027299186 0.09584917 -0.018083164
0002e0 d6 ca a1 3d 09 d6 0b be cb e2 27 bd 04 17 8e bd
       0.07900016 -0.13655867 -0.04098777 -0.06937984
0002f0 fa 3e 4a be be 4b 6d be ba 1c 67 3a 7d eb 16 3e
       -0.19750586 -0.23173425 0.0008816231 0.14738269
000300 30 8e bf 3d e9 42 14 be d3 2f 06 be 25 fd a4 bd
       0.09353292 -0.14478649 -0.13104181 -0.08056096
000310 54 b7 a6 bd 6c 3b 0d bf 9b 12 a1 bd 13 d9 ba 3e
       -0.08140436 -0.55168796 -0.07864877 0.3649374
000320 bb 69 33 be 44 30 8b 3d 15 e8 05 3d fb ad cc bd
       -0.17520802 0.06796315 0.032692034 -0.09994122
000330 69 ae cf be ed ec ef bd 99 4a 9a 3d cd 1c b7 bd
       -0.40562752 -0.11715112 0.075337596 -0.0894104
000340 f5 25 e7 3c 55 d9 e8 bd 19 66 f8 bd b8 01 38 3d
       0.028216342 -0.11369578 -0.121288486 0.044923514
000350 d9 15 0c bd 35 9b fe 3d 84 10 05 3e 9a e0 32 be
       -0.034200523 0.12431947 0.12994581 -0.17468491
000360 01 15 51 3d 0e 9a 41 3b 0d 08 f5 bd 2c b1 15 be
       0.05104542 0.0029541287 -0.11964426 -0.14618367
000370 69 00 bc bd 60 6e 1f be ea b8 13 3d 5a b3 91 bc
       -0.09179766 -0.15569448 0.03606502 -0.017785717
000380 26 30 95 bd f1 f7 2c be 8e f4 26 ba 18 73 da bc
       -0.07284574 -0.16891457 -0.0006368839 -0.02666621
000390 c6 5b 34 be 93 a3 f8 be 85 7e 35 bd cc 48 20 3e
       -0.17613134 -0.48562297 -0.04431011 0.1565277
0003a0 38 b8 1a be 85 ce 19 3e f3 9b b8 3a 0b 86 ea 3d
       -0.15109336 0.15020187 0.0014084562 0.11451348
0003b0 e5 a6 28 bf 03 27 51 bd d8 4a b1 3d 71 f3 be bd
       -0.6587966 -0.051062595 0.086568534 -0.093237765
0003c0 0b 39 1e be c2 b1 1f 3e 26 1b f5 3d ab ed 82 bb
       -0.15451448 0.15595153 0.11968069 -0.0039956174
0003d0 c9 a6 13 be 7b cb b3 3c 0d 22 85 3d ec d6 30 be
       -0.14419092 0.021947613 0.06500635 -0.17269486
0003e0 ae dd 33 be da 33 11 be 8b 04 26 bd 1f ae f5 3c
       -0.17565033 -0.14179936 -0.040531676 0.029990254
0003f0 77 a1 9c bb de 80 ca bd 5b d7 9c 3d 9b ab 19 be
       -0.0047799903 -0.09887861 0.07658263 -0.15006869

classifier.bias f4 [50]
000000 8f bb 98 bc f9 74 bc bc e4 63 04 3d 67 6e 5d 3c
       -0.018644122 -0.023004996 0.032321826 0.0135150915
000010 c9 32 5b 3b e9 c9 31 3d 2e ca 77 3c e6 1b da 3b
       0.0033447018 0.043405447 0.015123887 0.006656158
000020 d4 08 c8 3c 29 50 b1 bc 7b b9 72 bd 76 76 0e bd
       0.024418272 -0.021644669 -0.05925892 -0.034780942
000030 77 47 0e bd d0 89 6c bc e5 5d 7b bc 80 8f 81 bc
       -0.034736123 -0.014437154 -0.01534221 -0.015815496
000040 72 2d 11 bc 41 36 8b bd 19 41 19 bc b4 93 6c 3d
       -0.008860933 -0.067974575 -0.009353899 0.05775805
000050 1f ba 3e bc 7c 0b 2c 3d 6e b8 5f bd 4f f2 c9 3c
       -0.011641054 0.04200314 -0.054619245 0.024651675
000060 be a8 0e 3d 5e f5 53 bc 1c e1 07 bc 75 02 a9 3c
       0.034828894 -0.012936918 -0.008293416 0.020631054
000070 e1 7c 8b 3d c3 83 18 bc a1 ca 01 3d 6b a8 d3 bb
       0.06810928 -0.009308758 0.031687383 -0.006459286
000080 ce 86 31 3d 23 8d c6 bc 79 b4 fe 3c 0f a7 63 bc
       0.04334145 -0.024237221 0.031091915 -0.01389481
000090 fc 74 b7 3c f8 fc 34 3d aa 48 d9 bc 2a a8 33 3d
       0.02239465 0.044186562 -0.026523907 0.043861546
0000a0 3b de 11 3d 04 30 2b bd b8 1c 67 3d 36 da 27 3b
       0.035612326 -0.04179384 0.056423873 0.0025612242
0000b0 49 96 c0 bd 19 e7 43 bd ec 35 23 bd 21 ac 23 bd
       -0.094036646 -0.047827814 -0.039846346 -0.039959077
0000c0 cb d2 5d 3c 80 df 91 bb
       0.0135390265 -0.004451692
