results/CIFAR100_dataset/contrastive_loss/margin_2.0_first_model_nb_classes_50_data_percent_90/model_ckpt.pt (torch_old, 802778 bytes, 6 tensors)

layer1.0.weight f4 [64, 3072]
00000000: 081a 98bb 7e9b 863c e8cf 5d3c eccf 63bc
00000010: 1146 1fbc c3de 183c f086 abbb 1252 8ebc
00000020: 511b f13b 90a4 643c 06da 0c3c 313c 0f3c
00000030: 4201 c1bb 9981 a03a 3df4 5a3b 31b6 453b
00000040: d165 343b 7c65 4e3c d56d 543c 15cf 58bb
00000050: 815d e73a d7c4 37bc 07a3 debb e2c2 66bc
00000060: 932a 2cbc b380 ee3b 1efc 953c f113 f93a
00000070: 6196 dc39 5ad3 b3bb 2294 c23b 07b0 2c3c
00000080: a40f 7bbc 2689 ab3b 26a3 6e3c cc23 20bc
00000090: 3505 67bc 3fe0 08bc 00e3 20bc 8ea7 70bb
000000a0: 5817 0b3c a1d0 bdbc 85b9 bbbc ec09 83bc
000000b0: c27b a23a 07ea 673b 4159 253c df21 17bb
000000c0: 3a31 203c a7e9 edbb beb5 033c dd92 5bbc
000000d0: 1bea e23b 2d54 243c b7d3 3e3c 0917 473c
000000e0: 5f16 053c 5cd1 33b8 795e 3e3c 38da 69bb
000000f0: d092 8fbb 0681 74bc eb8f d63b aedc 81bc
00000100: fb60 f83a 4363 353c 6a10 dbbb 2765 8bbc
00000110: aa4f 1ebc a9fd d7bb b034 ff3a 7974 223c
00000120: 6f93 e7bb 11bb 93bb 8cc5 c3bc 7c2d a4bc
00000130: f07b c6bb fdf4 07bb 47cb b9bc baf8 8cbc
00000140: 487f 3e3c ef03 abbc b9d3 443b e19d fcba
00000150: 1140 05bc bd4a 0e3c bbd2 b73b 855a 56bc
00000160: a523 ce3b 436e 50ba c456 df3b cdbf 993c
00000170: faba f73b b7e7 06bc 64b3 8bbc 58bf 453b
00000180: bfd6 c8bb 671d 8d3b de25 5a3c d602 603c
00000190: 221b 2a3c c0f6 583b bd53 7fbb cda7 10bc
000001a0: e8c2 24bc 4af2 af3b c033 b8bb c41f bdbc
000001b0: 9710 1eba c760 60bc 237c 6f3b fb6f 453c
000001c0: cb6c 463c bcae b7ba 3829 74bc 3b09 3fbc
000001d0: b7fe 9ebb c20a a93b 7d55 a2bc de95 80bc
000001e0: b6d5 e63b 453a 063c cb14 65bb 0bdd 553a
000001f0: 5579 253c 6d86 533c 691e 25bc ab3d 863c
00000200: 37da 463c 208d 1fbb 5450 243c d16e 193c
00000210: bdb2 363c 6928 cebb 39e6 35bb 74ea 00bc
00000220: dc4f f9ba bbc3 0e3b 0bc3 02bb 8657 81bb
00000230: 47d4 34bc 47b4 bbbc 8a7c 44bc 8e75 07bc
00000240: c631 cfbc dcc0 e03b 020d 013b 14a0 9cbb
00000250: c7d9 aebc a9bf 85bc 9f95 afbc a896 98bc
00000260: f6c3 753c c472 483b 3dd9 99bb 36b0 d3bb
00000270: caf5 4fbc ff4b 33bc e1ca 42bb d34e 183b
00000280: ff40 71ba 10d3 ae3c 3f0d 1f3c 710f 24bc
00000290: fa40 0e3c d135 563c c107 b83b 5ede b5bb
000002a0: 3398 55bc 04f7 673b 63a3 dc3b 31a5 343c
000002b0: e7ca 97bc b26e 5abc e9b3 10bc 81ee 94bc
000002c0: 3ba2 da3b 4d98 9ab9 a04f 02bc 7641 74bc
000002d0: 1763 503b e803 2f3c 1550 96b8 6dde 54bc
000002e0: 2ee1 753c e81d 223c 0619 893c d25f 503c
000002f0: 7b96 6b3c 0425 57bc 3e72 4fbc 9d0f a93b
00000300: 6bfe bbb8 8dbc e33b 38b7 8cba 45aa ac3b
00000310: d764 a33c 73a5 b43c 5d2d 583c 9409 93ba
00000320: e688 adbb 26c6 a4bb 2e38 803c 3512 2a3c
00000330: dd4e 85bc 8bfd bdbc 0355 1bbc 072b 5bbc
00000340: 9a74 c8bc 307f 333b fd6f cdbb c4a3 a4bb
00000350: e495 0e3c 8615 103a 93dd 23bc b847 87bc
00000360: e1b4 cd3b 616d 7bbb 1327 9a3c fa5a 873c
00000370: 2d2d 403c c96c 803c d53e 003c de6d 823c
00000380: 2daf 14bc fe27 a43c 7ab8 883c 29c8 303c
00000390: 125e 9cbb 4ba6 ac3b 53d9 66bc c3b6 70bc
000003a0: fd76 fbbb 5a72 02bc c720 fbbb 96cc 023a
000003b0: 7abf c2bb a678 4fbc 1380 d5bb 4749 a13b
000003c0: 8df7 aebc 30ba ed3b 52cb 89bb e25b 94bc
000003d0: 78c5 9abb 9943 7d39 8241 9bbb 8c7b 80bc
000003e0: ba76 1dbb ba5e 943c 4831 453c e7d6 173c
000003f0: 1dce 0fbc 992f 323c ea11 b53c 6860 413b
-0.004641775 0.016431566 0.013538338 -0.013904553 -0.009721295 0.009330454 -0.0052345917 -0.017373119
0.0073579927 0.01395525 0.008596903 0.008742378 -0.0058900425 0.0012245654 0.0033409738 0.003016841
0.0027526508 0.012597438 0.012965639 -0.0033082415 0.0017651768 -0.011216364 -0.0067943367 -0.01408455
-0.010508197 0.0072785257 0.018308695 0.0019003135 0.0004207371 -0.0054878416 0.005938069 0.010540015
-0.015323553 0.005234855 0.014565265 -0.00977416 -0.014100363 -0.008354246 -0.009819746 -0.0036720964
0.008489452 -0.023170771 -0.022915611 -0.015995942 0.0012396502 0.0035387294 0.010092081 -0.002306096
0.0097773615 -0.0072605195 0.008038936 -0.013401714 0.00692488 0.010029835 0.011647156 0.012151488
0.008123009 -4.2871907e-05 0.011619204 -0.0035683047 -0.004381515 -0.01492334 0.006547918 -0.015852299
0.0018949801 0.011071029 -0.0066853063 -0.017016007 -0.009662548 -0.006591518 0.0019470658 0.009915465
-0.007067136 -0.004508384 -0.023897909 -0.02004122 -0.006057255 -0.002074539 -0.022679938 -0.017208446
0.011627026 -0.0208759 0.0030033423 -0.0019273126 -0.00813295 0.008684811 0.005609838 -0.013083105
0.0062908703 -0.00079510006 0.006815763 0.018768216 0.007560131 -0.008233956 -0.017053314 0.0030173864
-0.0061291154 0.0043064835 0.013314692 0.013672551 0.0103824455 0.003310606 -0.0038959824 -0.008829069
-0.010056235 0.0053694593 -0.0056214035 -0.023086436 -0.0006029694 -0.0136949485 0.0036542497 0.012050624
0.012110899 -0.0014013867 -0.014902405 -0.011659916 -0.0048521417 0.005158753 -0.019816155 -0.015696462
0.0070445193 0.0081926035 -0.003495502 0.0008158243 0.010099729 0.012910468 -0.010078051 0.016386827
0.012136987 -0.0024345592 0.010028917 0.0093648 0.011151013 -0.0062914384 -0.0027755632 -0.007868398
-0.0019020992 0.0021784145 -0.001995268 -0.003947201 -0.011036939 -0.022913111 -0.011992583 -0.008267773
-0.025292289 0.006858928 0.001969159 -0.004779825 -0.021344079 -0.016326742 -0.02143365 -0.018626526
0.015000334 0.0030585984 -0.0046950863 -0.006460215 -0.012692878 -0.010943412 -0.0029722976 0.0023240342
-0.00092031056 0.021340877 0.009707748 -0.010013447 0.008682484 0.013074354 0.0056161587 -0.00555019
-0.013036775 0.0035395036 0.0067333444 0.011025713 -0.018529369 -0.013332056 -0.008831956 -0.018180134
0.0066721714 -0.00029486642 -0.007953554 -0.014908185 0.0031797343 0.010682084 -7.167474e-05 -0.012992484
0.0150073 0.0098948255 0.016735565 0.012718158 0.014379139 -0.013131384 -0.012661515 0.005159332
-8.964244e-05 0.0069499672 -0.0010735756 0.005269321 0.019945545 0.022051549 0.013194409 -0.0011218064
-0.0052958606 -0.005028504 0.015651789 0.010380317 -0.016272957 -0.023192188 -0.009480718 -0.013376958
-0.024469662 0.0027389042 -0.0062694536 -0.005024405 0.008702729 0.00054963713 -0.010001558 -0.01651369
0.006277666 -0.0038364755 0.01881746 0.016522873 0.011729521 0.015676873 0.00782748 0.01592153
-0.009074968 0.020038601 0.016689528 0.010789909 -0.0047719562 0.005268847 -0.0140899 -0.014692011
-0.0076740966 -0.007961834 -0.0076638195 0.0004989592 -0.005943236 -0.012663042 -0.006515512 0.0049220654
-0.021358276 0.0072548613 -0.004205146 -0.01811022 -0.004723247 0.00024153142 -0.0047380337 -0.015683912
-0.0024027065 0.018111575 0.012035675 0.009267545 -0.008777169 0.010875606 0.022103269 0.0029506925

layer1.0.bias f4 [64]
00000000: ada0 183c 57cc fbbc 2d99 bd3c 00b5 e6bc
00000010: fbe1 d3bc 4b7f 61bc b3de 1fbd 2843 00bd
00000020: b6a3 29bc ce16 87bc f974 173c dda5 44bc
00000030: 11c7 00bc 1099 edbc dc25 09bc 0122 943c
00000040: 9189 94bc 7b57 923c 2c68 98bc 744b 5b3c
00000050: a00d b33c f203 bebc 3559 353a 9d06 67bc
00000060: 7f81 3ebc 4402 46bc 08d0 25bd c5a3 5dbc
00000070: 3ca8 82bc 0ac3 31bd aa7a c43b f32d 7ebc
00000080: 48cd 90bc 4891 52bd 35ae bdbb 25a3 13bd
00000090: 119e 0abd fce2 b6bc 26f6 6fbc b6e6 9bbc
000000a0: fb2a 45bc 9899 53bc 8433 f2bc 97dd 0abd
000000b0: 249c 24bc 7655 4d3c f411 d3bc d2c3 99bc
000000c0: f2d0 dbbc 53cf 29bd b4de f33c 0938 5ebc
000000d0: fb12 d7bc 68d1 ddbc e769 033d ffe0 4bbb
000000e0: 7425 30bb 1534 85bc a0ae c9bc 633a e3bb
000000f0: fd6d a4bb 618b f0bc c7c8 cb3c 834c 7cbc
0.009315652 -0.030737085 0.023144329 -0.02816248 -0.025864592 -0.013763259 -0.039030742 -0.031314045
-0.010353973 -0.016490366 0.009244197 -0.0120024355 -0.007859961 -0.02900365 -0.008370843 0.01808262
-0.018132003 0.01786398 -0.01860436 0.013384689 0.021857083 -0.02319524 0.0006917895 -0.014100698
-0.011627554 -0.012085501 -0.040481597 -0.013527815 -0.015949361 -0.043398894 0.005996068 -0.015513885
-0.01767601 -0.051408082 -0.0057885894 -0.03604426 -0.03384215 -0.022325031 -0.014646089 -0.01903091
-0.012034173 -0.012915038 -0.02956558 -0.03390273 -0.010046992 0.0125325825 -0.025765397 -0.018770132
-0.026833031 -0.041457485 0.029769279 -0.0135631645 -0.026254168 -0.027077392 0.03208342 -0.003110945
-0.0026877793 -0.016260186 -0.0246194 -0.0069344505 -0.0050179944 -0.029363336 0.024876012 -0.015399101

layer2.0.weight f4 [32, 64]
00000000: 8d9a 74bb 0332 5b3d 9cc2 183d 34d6 02bc
00000010: 5aac 913d cd4a f63b 164a 693d 019b 54bc
00000020: 70e5 b73d eb09 3dbc f227 dcbd b660 483b
00000030: 04d7 093d b045 53bd 78db ecbd bd3d 9bbd
00000040: d9ef e43c b281 f0bd d55b 8dbd 17cd 00be
00000050: 970c 24bd 102d 393d 9b1c e6bc 7663 fabc
00000060: aec1 233d 1bba 913d 3aa8 c8bc 394b 5d3d
00000070: 1ea0 ae3d 2c6d 0d3d 75b0 d9bc c070 8cbd
00000080: 6aad 5b3d 31af 08be 3a69 c0bd 4f98 bbbd
00000090: 146a 7a3d a42d 15bd 653d cb3d b927 e3bd
000000a0: bbea 01bd 8507 383d f74c 453d 51fe 26bc
000000b0: 54bb ce3d 6c69 8d3d 88d2 813b 9d8c 76bd
000000c0: a946 eabd 13e3 babb 82be 0fbe ecec 06be
000000d0: a7f6 503d fca7 33bc cef7 5e3d ad6e dc3c
000000e0: 5928 dabd bce8 ac3d 0d2a c8bd 8d8e cfbb
000000f0: b9d9 f93c 6040 a43d 7112 97bd 6bd9 80bc
00000100: 1cf5 16bd 3982 d93c f0f9 e4bd f806 863d
00000110: 3810 a03c 21f5 24bd 8676 1b3d 8a05 8dbd
00000120: e7c7 003d 3cc0 7d3d 8c98 d739 6212 5b3d
00000130: 2582 81bc 7ea9 8ebd c723 3bbd 9074 d0bc
00000140: f773 e23d 569c f8bd 6635 afbd fa58 34bd
00000150: 0329 b73c 0cbd f2bd 480c e13c 93ce 90bd
00000160: 61fc cd3d 72df e4bd 0ef1 aabb 3878 973b
00000170: 23cf 3bbd 7351 eebd f80f c63d 2bc7 e6bc
00000180: 74bf b43c e96a 9dbd 115b c2bd cf6e dbbd
00000190: c692 cf3d 99d2 4fbd b286 a4bc 2036 c8bd
000001a0: 7132 e2bc 7745 ffbb d58b 0dbd c6bd 7f3d
000001b0: e977 053d 55bd 9ebd dc8b 83bc a301 bd3d
000001c0: da94 4c3c 996c b6bd 1444 b6bd 9942 70bc
000001d0: 8ec1 c3bd fbf8 bcbd 3592 2ebd 11d2 ecbb
000001e0: 471f b63c 07e0 e83d e6b9 913d 24be 9dbd
000001f0: 5f22 0ebe 28d6 e63d 0fa8 60bd aca8 a8bd
00000200: 85ad 5f3d f645 653d 2d68 8abd 3529 31bc
00000210: 4120 88bd 36b5 1cbd 9982 733d 9341 4e3b
00000220: c0ae d7bc 0d3c 51bb 4c05 99bd 0018 9dbd
00000230: 8247 9bbd c9d3 d4bb 3139 a9bd 9408 aebd
00000240: 92fd 9a3c f6d6 0abe 33da e63a 431e 883d
00000250: 9810 29bd b986 f4bd d169 23bd 9b35 8abc
00000260: 083a bf3d 3547 e1bd ef1d ddbd ef3e 113d
00000270: 709d 233d 03b3 f1bd f3e5 85bc c184 d6bd
00000280: 2391 20bd 7be3 b03d ab2a 0a3d 3b45 dbbd
00000290: 85d6 e7bd 3c6a e23d 427e c0bb 3860 c03d
000002a0: b7cb 693d 7223 78bd ffa1 86bd bd10 3ebd
000002b0: b54c 5c3d c9c2 c1bd 7173 8cbd b9fe 87bb
000002c0: a93d b0bd 7e2e eebd 04e2 933c 1686 67bd
000002d0: c1ff 4bbd 4530 96bb f2d1 81bd 7989 2a3c
000002e0: 5aba 6b3c 7508 b33d 84ee 423d 44d4 98bc
000002f0: 133a 5a3c eddf 983d 3624 d73d 30b1 943d
00000300: 910b d2bd ae44 993d 31be 1fbc b0e1 01be
00000310: b5f8 54bd 48d5 59bd 03aa af3c 8b4a 0a3d
00000320: ab31 8cbd bcd0 6dbd de03 aabb 8891 4eba
00000330: 8852 6b3d b6e0 a73d 41c1 683a 757a 59bd
00000340: b9b9 78bd 9e06 1abc 6da3 28bd 1a13 da3b
00000350: 937c 6cbd c0dd 1c3b 091a 0f3c 44c2 853d
00000360: 348b 173c 0e11 1a3d 3a3b a13d 7fd4 bb3d
00000370: 65db a73d a285 fbbd 0793 83bd 5f17 06be
00000380: 1945 3e3d 5dc6 22bd 39f7 77bc 2efb 643c
00000390: 753d 6e3d 6e47 86bc 9a8f fabd 6367 5c3c
000003a0: 46dd 593c 1c11 ffbd 89dd c43d f881 8e3d
000003b0: 913b 62bd b5d3 bcbd 2ab7 b9bc 85a5 88bd
000003c0: f001 7a3d 741d 2b3d 7b81 c23c eae4 8a3d
000003d0: 89cb 1e3c c06f af3b 0c87 adbc 5813 d4bd
000003e0: 90ed 97bc 264a a7bc 1b2b 8b3c ddd0 503c
000003f0: a6a0 73bc 00b2 01be 6a02 7dbd 18b5 2fbd
-0.0037323565 0.05351449 0.03729497 -0.00798564 0.071129516 0.007516241 0.05695542 -0.012976409
0.089793086 -0.011538009 -0.107498065 0.0030575222 0.03365232 -0.05158013 -0.11565298 -0.07580135
0.0279464 -0.117434874 -0.06902281 -0.12578236 -0.04005107 0.04520899 -0.028089812 -0.030565005
0.03997963 0.07115575 -0.02449428 0.054026816 0.08526634 0.034527943 -0.0265734 -0.06857443
0.053632177 -0.1334808 -0.093950704 -0.0915991 0.06113632 -0.03642048 0.099238195 -0.11091561
-0.031717997 0.044929046 0.048169103 -0.01019247 0.10094324 0.06904873 0.003961865 -0.060192693
-0.114392586 -0.005703339 -0.14037517 -0.13176316 0.051016476 -0.010965344 0.054435544 0.026908243
-0.10652227 0.08442828 -0.097736456 -0.006334132 0.030499326 0.08020091 -0.07376564 -0.015728673
-0.03685485 0.026551353 -0.11180484 0.06544298 0.019538984 -0.040272836 0.03795483 -0.06885822
0.03144064 0.061950907 0.00041121652 0.053484328 -0.015809128 -0.06965922 -0.045688417 -0.025446206
0.11057275 -0.12139194 -0.08555107 -0.044030167 0.022358423 -0.11852464 0.027471676 -0.07070651
0.10057903 -0.11175431 -0.0052167242 0.0046224855 -0.045851838 -0.11636629 0.096710145 -0.028171143
0.022063948 -0.07686407 -0.09490026 -0.107144944 0.10135417 -0.05073795 -0.020083759 -0.097759485
-0.027611943 -0.0077902633 -0.034557182 0.06243684 0.03258506 -0.07750956 -0.016057901 0.09228828
0.012486661 -0.08907432 -0.088997036 -0.014664316 -0.09558402 -0.09227177 -0.042619903 -0.0072271903
0.022231711 0.11370855 0.071155354 -0.07702282 -0.13880299 0.11271316 -0.054847773 -0.082352966
0.05460884 0.055974923 -0.06758151 -0.010813047 -0.06646777 -0.038258754 0.05945072 0.003147219
-0.026328444 -0.0031926662 -0.074717134 -0.07670593 -0.075819984 -0.0064949733 -0.082628615 -0.0849773
0.01891974 -0.13558564 0.0017612636 0.06646397 -0.04127559 -0.11939759 -0.039895836 -0.016871264
0.093372405 -0.1099991 -0.10796725 0.03546041 0.039945066 -0.11801722 -0.016345 -0.104745395
-0.039200913 0.086371385 0.033732098 -0.10706564 -0.11320213 0.11055419 -0.005874426 0.09393352
0.057079043 -0.06058068 -0.06573867 -0.04640268 0.05378409 -0.094609804 -0.06857956 -0.0041502384
-0.08605511 -0.116299614 0.018052109 -0.05652436 -0.049804453 -0.004583391 -0.06338872 0.010408753
0.014387691 0.087418474 0.047590747 -0.018655904 0.01331951 0.074645855 0.105049536 0.07260358
-0.10256112 0.07483803 -0.009749935 -0.12683749 -0.051994998 -0.053181916 0.021443373 0.033762496
-0.06845411 -0.058060393 -0.0051884493 -0.0007879962 0.057451755 0.08197157 0.0008878895 -0.0530953
-0.060723994 -0.009400992 -0.04117148 0.006655109 -0.05773599 0.0023935884 0.008734235 0.06531194
0.009249497 0.03761392 0.07872625 0.0917139 0.08196143 -0.12281348 -0.064245276 -0.13094853
0.046452615 -0.039739955 -0.015134626 0.0139759015 0.05816408 -0.016391482 -0.12234421 0.013452384
0.013297385 -0.12454435 0.09612567 0.06958383 -0.05523259 -0.092200674 -0.022670347 -0.06672195
0.061037004 0.041776136 0.023743382 0.06781943 0.009692081 0.005353898 -0.02118256 -0.10355252
-0.018545896 -0.020421099 0.016988328 0.012745109 -0.014869845 -0.12665558 -0.06176988 -0.042897314

layer2.0.bias f4 [32]
00000000: 0032 58bc e734 b8bd c512 d73d 941d 17be
00000010: 65ef 83bd cd3b a83c c1ad 23bd ef51 893d
00000020: e802 0b3d 5a25 dfbc 91d4 5f3d 0022 0a3d
00000030: bffa f13d 1b33 f1bd bdf9 e2bd e4b4 ae3d
00000040: 2ca2 b33d 1459 343d beb0 a93d f321 12be
00000050: 233d 76bd 8d42 243c 04f1 ccbd 18dc 92bc
00000060: 99a1 1fbd 007c ae3c 3f2a 9b3c d19c ec3d
00000070: b341 573d fb2f 7c3d efa2 83bd 8b18 4e3d
-0.013195515 -0.08994465 0.10501627 -0.14757377 -0.06442145 0.020536328 -0.039960627 0.06705081
0.03393832 -0.02723949 0.05464608 0.03372383 0.11815404 -0.11777326 -0.1108279 0.08530596
0.08771166 0.044030264 0.08285664 -0.14270763 -0.0601169 0.010025633 -0.100069076 -0.017927215
-0.03897247 0.021299362 0.018941043 0.11553348 0.05255289 0.061569195 -0.064275615 0.050316375

classifier.weight f4 [50, 32]
00000000: 1bae 52bb 441b d73d 8339 11be 7084 a1bc
00000010: 07b2 4fbd d5f9 89bc 50aa f5bc 5abb 83be
00000020: d4d0 05bc dca8 3b3e 6f40 a3be 4911 b83d
00000030: ea8a 86bd 561a ff3d 085b 88bd 1599 4bbe
00000040: b5e1 873d 1746 2bbe edd7 adbd c4fb 053d
00000050: d5b7 523d 4659 ffbd 832f 38be 3cd4 313d
00000060: 3ad3 5bbe 35c1 d1bd 1599 e03d eccf fe3d
00000070: d4ad 443e 382a 4d3d bd4f b33d 63ea e93d
00000080: 1158 0e3e ef43 253c def3 c3bc 8797 383d
00000090: d9d2 bfbc 46a8 2bbe 425d f1bd d82a 05be
000000a0: 0604 e7bd 59c1 b13c 882c ea3d ab5f 23bc
000000b0: 273e 8ebd d45b adbc 23ee f33c 06c4 8a3d
000000c0: 1398 e5bd b37a d63d ada1 3abe cce5 8abd
000000d0: f66d ac3d b7d6 033e 3e6f abbd 6b6a 203d
000000e0: 63d2 a83d e7ca 45bd 95b9 c43d 1348 86be
000000f0: 13d4 8abd bbdc cdbd 70c8 13bc 55c8 05be
00000100: 7055 b33d 7a44 ca3d 7ca1 3f3d 589a 243e
00000110: a106 16bd 2888 a6ba 860f 713d 1109 5b3e
00000120: 12f7 cfbe 48c0 dabd 34dd a7be 64be e0bc
00000130: 8133 2a3e 99d6 e53d 1356 4cbb caa4 893c
00000140: 421a 60bc 1397 37bd fe57 53be 1775 e43c
00000150: 12e5 e1bc dc95 da3d d6fb ce3d 4813 e63d
00000160: 0d22 7cbe 5b9c 9b3c e1b4 2fbd ff46 0abe
00000170: 617a 093c 53e7 333d 2257 9ebd f1d7 963d
00000180: 9fd9 ac3c a17f 30be e3f1 05be c281 5c3d
00000190: f00d ffbd 5121 df3c 3250 e8bd edc2 833c
000001a0: ca4e f73e 8083 52bd a80e aa3d 18b5 07bd
000001b0: c76a 8fbe a59e e23d 5586 3cbe 1d0a 053e
000001c0: 0828 04be 6046 953d f1e1 f2bd 0217 863c
000001d0: ed81 343e 99c8 3abe 54a0 a33d b394 21be
000001e0: fe79 3e3e 3e16 093c 963e 683e 01a9 5b3e
000001f0: 5499 2dbe eee5 64bd a115 59ba 0322 373e
00000200: 93fd dbbd 9cb3 2fbe bdc3 323c e91c 4fbe
00000210: c219 f3bd 425d 71be a826 323d b409 07be
00000220: 4cf0 35be 2209 823d 9cf8 82be 250d d33d
00000230: 9ede f2bd b388 7cbd 186c fd3d 2865 71be
00000240: 0366 e33c 1d96 08be 2f42 a03d 217d e8bc
00000250: c69b debd bee3 06be 2f96 863d 9b8c 64be
00000260: 67a5 9abe 79d2 723d e851 a1bd fdcc 92be
00000270: 182f 603d 7357 8cbc d066 313b f81b 63be
00000280: f7b1 99bd e86b 2ebe 9614 76be e75d cabd
00000290: 413e 383d 13cb 0cbe 89f0 17be bcf0 d4bd
000002a0: 8205 a63d f395 b0bd b5b4 91bd af59 a63b
000002b0: 38a2 37be 9e18 47be aafc fcbd 4e91 87bd
000002c0: 94ee 2ebd c081 88bc 4748 b63d 7b2d 42be
000002d0: 64ba bdbd 7c71 eabd 5c8f 5cbd 863e 3abe
000002e0: 2c55 c6be 2f6d 96bd e264 5cbe 54b5 2abe
000002f0: 15c6 f73d 404a 313d bae6 343e ee15 a2bd
00000300: 260f 34be d706 f8bd 634e a43d ba61 bcbd
00000310: 2ee7 aebd a58e a4bd 77c8 1bbe 5817 01be
00000320: 7a62 a6be 3a37 783c 4041 7cbe 81da 13bd
00000330: caa4 9fbe 19e7 04bd 0079 90bd d0d1 8cbe
00000340: e49f 083e fa1c e2bd 650e 523d 7205 23be
00000350: 6b25 dcbd 6a1a 0a3d de9c d9bd 9cfa 53be
00000360: 3edc c1be eae3 6abd 38c0 87be b780 aabd
00000370: c97a 69bd f8e3 af3d 2053 153a 41f0 73be
00000380: 6de3 63bd 5b8d 543d bba0 0f3d db6b 53be
00000390: 0857 b03d bc7e d93d 513c 37bd 2e82 423d
000003a0: 650b 1cbe 27f5 8f3c 47a0 e33c c383 76be
000003b0: 75bb a4be 09d8 013d 8be1 fcbd 4577 0f3d
000003c0: 9105 1e3e 114e 5c3d da87 48be b5f0 4ebe
000003d0: 413c fd3d 72d0 ed3d 693f e1bd 1d1e 2ebe
000003e0: 5a8b 95be 5847 9d3c 5382 f0bd e3b7 47be
000003f0: f17d a4bd 3d3b 083e 1f81 b93d b1b6 423c
-0.0032147232 0.105032474 -0.14182095 -0.019716471 -0.05070689 -0.016842762 -0.029988438 -0.25728875
-0.008167464 0.18326133 -0.31885096 0.08987672 -0.065694645 0.12456195 -0.06657988 -0.19882615
0.06634847 -0.16725956 -0.0848845 0.032710806 0.051444847 -0.124681994 -0.17986874 0.043415293
-0.21467295 -0.102419294 0.10966698 0.12442002 0.19206935 0.05008909 0.08755443 0.11421659
0.13900782 0.010086997 -0.023919996 0.045066383 -0.02341597 -0.1676341 -0.11785366 -0.13004625
-0.11280064 0.02169864 0.11434275 -0.0099715395 -0.06945448 -0.021161951 0.029776638 0.0677567
-0.112106465 0.10472622 -0.18225737 -0.067821115 0.08419411 0.12874876 -0.08370827 0.039163988
0.08243253 -0.048289206 0.096057095 -0.26226863 -0.06778731 -0.100518666 -0.009019956 -0.13064702
0.0875653 0.09876342 0.046784863 0.16074502 -0.036627416 -0.0012705373 0.058852695 0.21390177
-0.40618187 -0.10681206 -0.32785952 -0.027434535 0.1662121 0.11222572 -0.0031179234 0.01680221
-0.013678135 -0.04482181 -0.20639035 0.027887864 -0.02757505 0.10673115 0.10106628 0.11234146
-0.24622364 0.018995455 -0.04289711 -0.13503645 0.008390994 0.04392178 -0.07731463 0.07365406
0.021099864 -0.17236187 -0.13080554 0.053834684 -0.1245383 0.027237566 -0.11343421 0.016084159
0.483023 -0.05139494 0.08303577 -0.03313169 -0.28011152 0.11065415 -0.18410619 0.12992139
-0.12905896 0.072888136 -0.11859501 0.016368393 0.17627688 -0.18240584 0.079895645 -0.1577938
0.18601224 0.008367119 0.22680125 0.21451189 -0.16953021 -0.05588334 -0.0008281116 0.17884068
-0.10741725 -0.1715836 0.010910925 -0.20225872 -0.11870147 -0.23570731 0.043493897 -0.13187295
-0.17767447 0.06349398 -0.255803 0.103052415 -0.11858867 -0.061653804 0.12374133 -0.23573744
0.027758604 -0.13338514 0.078251235 -0.028379979 -0.10869555 -0.13172814 0.06571614 -0.22319262
-0.30204317 0.059282754 -0.078769505 -0.2867202 0.054732412 -0.017131543 0.0027069338 -0.22178638
-0.07504647 -0.1703335 -0.2403129 -0.09881192 0.044981245 -0.13749342 -0.1483785 -0.10397479
0.08106519 -0.086223505 -0.07114545 0.005076609 -0.17932975 -0.19442984 -0.12352879 -0.066195115
-0.042707995 -0.016663432 0.089005046 -0.18962662 -0.09264067 -0.11447427 -0.053847656 -0.18187913
-0.38736856 -0.07345044 -0.21522859 -0.16670734 0.12098328 0.0432837 0.1766614 -0.07914339
-0.17583904 -0.121106796 0.080227636 -0.09198327 -0.08540188 -0.0803502 -0.1521319 -0.12606561
-0.32497007 0.015149886 -0.24634266 -0.036097053 -0.31180412 -0.032446954 -0.07054329 -0.27503824
0.13342243 -0.11040683 0.05128326 -0.15920046 -0.107493244 0.033716597 -0.10625623 -0.20701069
-0.37863344 -0.057346262 -0.2651384 -0.08325332 -0.057001863 0.085884035 0.00056962855 -0.23822118
-0.055636812 0.05189262 0.035065394 -0.20646612 0.0861035 0.10619876 -0.044735257 0.04748743
-0.15238722 0.017572952 0.027786387 -0.240737 -0.32174268 0.031700168 -0.123477064 0.035025854
0.15431811 0.053785387 -0.19583073 -0.2020901 0.12365008 0.116120234 -0.10998423 -0.17003675
-0.2920788 0.019199058 -0.11743607 -0.19503741 -0.08031834 0.13303848 0.09057831 0.011884377

classifier.bias f4 [50]
00000000: dbcf b43c f202 933c ed98 4bbd e73f 48bd
00000010: e08b ffbc 7a11 41bd 922b bf3c 28da c43b
00000020: 8932 023c d307 b4bc e347 36bd 9cb8 013c
00000030: 4939 823c 96e3 e1bc 5cb9 d03c 07b7 88bc
00000040: ba88 2cbd 923f 1dbd 3aff d5bc 8ae0 1d3d
00000050: d8ff 3abd 5364 853c 9a55 8d3c 9420 0e3d
00000060: 338a a6bc d9cc 02bd b8fd 143d 8fac 93bc
00000070: 8c50 31bc d698 a9b9 c280 2c3d 986c ed3c
00000080: 1374 68bc d724 0d3d eefc 2fbd 0aad 51bd
00000090: 1f04 db3c 0e39 5abc 8591 c5bc ae24 33bd
000000a0: a8f5 96bc fa32 0b3c 09a1 ae3c ded0 88ba
000000b0: d753 bcbc 453d 133d 3d76 063d ce56 5cbd
000000c0: 920e b0bc 8913 cabc
0.02207177 0.01794574 -0.04970639 -0.048889067 -0.031194627 -0.047135808 0.023336206 0.0060074516
0.007946619 -0.021976387 -0.04450215 0.007917549 0.015896456 -0.027574342 0.025479011 -0.016688837
-0.04212258 -0.038390703 -0.026122678 0.038544215 -0.045654148 0.01628319 0.017252732 0.034699038
-0.02032957 -0.03193364 0.036374778 -0.018026618 -0.0108224265 -0.00032348064 0.04211498 0.028982446
-0.0141878305 0.03445896 -0.042965822 -0.051190414 0.026735364 -0.013319267 -0.02411724 -0.043736152
-0.018427685 0.0084960405 0.021317022 -0.0010438224 -0.022989197 0.035947103 0.032827605 -0.05379372
-0.021491323 -0.024667518
