results/CIFAR100_dataset/contrastive_loss/margin_2.0_first_model_nb_classes_50_data_percent_50/model_ckpt.pt (torch_old, 802778 bytes, 6 tensors)

layer1.0.weight f4 [64, 3072]
00000000: 78cc ca3b db01 773a 1b68 62ba 6f0d f13b
00000010: 29fd 7c3c 35ea 0fbb 8521 a0bb d1c4 863c
00000020: 20ae dc39 7954 3bbc a50a 00ba 90af e23a
00000030: a499 293c f1ac 53bc 3bc1 a2bb 691b 5cbc
00000040: b36c 8ebb 68b2 4a3c d6d0 663c 660a 733b
00000050: 9cb0 55bc 6446 0a3c ca96 acba 5c14 3a3b
00000060: b230 c63b 0fd2 23bc 374f bb3b fbc9 983b
00000070: 86af 483c 4f57 18bb d7c1 1339 b413 88bc
00000080: 1957 b33b 8563 29bb 9f95 273c 57a7 d1bb
00000090: 84a9 253c f522 3dbc 53f4 a33b 9418 ecbb
000000a0: e3ab 663c 6521 6a3b 8cbd 39bb 17d8 7d3c
000000b0: cf6b 163a c6f8 8fbc a650 6d3c 7ccd 043b
000000c0: 31b9 313b 4247 a1bc 2314 80bc 3bf1 17bc
000000d0: 3f39 a2bc b2d7 1f3c d613 b53b ab3d 963b
000000e0: 2ecf 103b d981 383c ff36 b4bb 3786 a7ba
000000f0: 7a71 80bc 400f 81bc 7bdf 8ebc f277 d9bb
00000100: 7da0 883b 4fbc 46bc 0868 3a3c 77a8 ec3b
00000110: 1037 273c c642 873c 01ca a5b7 57ca 6e3c
00000120: c9fc 28bb 0476 5bbb ce7c d4bb aa4c 51bb
00000130: b8eb 18bc efa8 203b 68e4 bebb abd5 08bc
00000140: bf5a 3f3b 41fe 1ebc 7805 f7bb 17d8 523c
00000150: f332 2a3c c1df 88bc 17ef bebc dc26 0b3c
00000160: 074a 23bc bf00 13bc 699b 7cbc 481d 5f3b
00000170: 2d22 a5bc 3b08 47bc b402 a6bc 7653 95bc
00000180: 5eb4 3fbc 8f9c c9bb 8224 9dbc e4e1 b93a
00000190: 51ca 443c 9168 733c 68e9 a53b 9c03 963b
000001a0: c597 00bc 3ba8 abbc b7a7 dbba c831 ae3b
000001b0: 346f 1ebb cc75 33b9 2129 f7bb a3e7 853a
000001c0: e17e 52bc 6a43 023b 9ae8 c23b f754 993b
000001d0: d5bf b6bc 8647 a4ba 1064 80bc 5955 463c
000001e0: c943 f33b 8f3d afbc c43c 573c ad54 74bb
000001f0: 334e 86bb c850 9d38 0b0b e03b a68b 81bc
00000200: 33b5 a53b f97d 8cbb 1a8a 133c e8e0 223c
00000210: 36b4 2cbc c145 9fbc fa43 763c 820e 1ebb
00000220: 4c51 073c 57aa 9bbc 9e44 663b 17b4 0f3c
00000230: 4908 7abc d707 7bb9 6cbf 223c c4a7 89bb
00000240: a3eb 37bc 77a6 20bc 7d3a 19ba 171c 3bbc
00000250: e81c 343c f4e1 cbbb 7067 7f3b 65d0 173c
00000260: 4ece f4bb eeaf 5abb e165 073c 2d91 b6bc
00000270: 0a71 33bc a79b a23b 0a96 fabb 7e91 c83a
00000280: 0113 de3b 1382 24bc 4b44 22bb a4f5 053c
00000290: 3c54 553b b763 49bc 951a 553a 7411 e6bb
000002a0: 8102 96bc 3266 883c ce9b 893b 3d46 823a
000002b0: bc8e 113b d85c 593b 8132 68ba f09d 743c
000002c0: b0cc 3b3b 1240 983b b7f0 5e3b a715 5dbc
000002d0: f1b9 3bbc ca06 443c 75da 5bbc 15f5 9abb
000002e0: 16b2 70bc 3271 f03b 534b 93bc 2d6e 053c
000002f0: 2c2c 1738 32ba 8ebc a74d 01bb dc3b 71bc
00000300: a0b9 49bb 86c8 383c bfbb 103b bdf1 b6ba
00000310: 52f6 403b 0677 703c e6a2 34bc ceac f5ba
00000320: d2cd 6b3c 9e62 1fbc 982e 98bb 3fb9 153b
00000330: 2303 8bbc 24e5 363c ba5a beb9 9279 b5bb
00000340: 87d5 733c 74f2 3b3c d33c 8bbc ff3b 95bc
00000350: dc28 523b 4ce3 57ba a101 663c e062 223c
00000360: 39bf f7bb 82d5 9cbc 2587 8ebc 1212 103b
00000370: 6f65 8fbc f4ec c13b 929f b63a a77f 143c
00000380: 4305 08bc 2a75 063b a7c2 3e3c 0edd 02bb
00000390: 7292 abbb b941 03bc 2eba 0038 ebeb 9a3b
000003a0: e84f 41ba 580b 8bbc 531e 413c e6a1 8abc
000003b0: 091a 3dbc ea09 5eba 2bd9 e6ba b11b 413c
000003c0: 7a7d 9ebc c06c 0cbb cc5b 6d3b cf23 3a3c
000003d0: 2755 fabb b0c2 6bbc 522e f73b 2caf 46bc
000003e0: 0509 0f3b 50e9 adbc 9c1c b6bc 0cda 1c3c
000003f0: 0562 ca3b 7352 21bc e496 79bc 7621 b939
0.0061889254 0.0009422579 -0.0008636729 0.0073563377 0.015441217 -0.0021959667 -0.0048868083 0.016451271
0.00042091403 -0.011433714 -0.00048843987 0.0017294753 0.010351572 -0.01291965 -0.0049668825 -0.013434269
-0.004346454 0.012371637 0.014087876 0.0037085055 -0.013042595 0.008439634 -0.0013167497 0.0028393483
0.0060482854 -0.009998812 0.0057162303 0.00466275 0.012248879 -0.00232454 0.00014091223 -0.016610958
0.0054730293 -0.0025846672 0.010228544 -0.0063981223 0.010111216 -0.011543979 0.005003491 -0.0072050784
0.014079067 0.003572547 -0.0028341739 0.015493414 0.00057381106 -0.01757468 0.01448456 0.002026408
0.002711844 -0.019687299 -0.015634602 -0.009273822 -0.019802688 0.009756016 0.0055260463 0.004584988
0.0022096145 0.011261427 -0.00549972 -0.0012781088 -0.01567911 -0.015754342 -0.017440548 -0.006636613
0.0041695223 -0.012129857 0.011377342 0.007222231 0.010205999 0.016511332 -1.9763598e-05 0.014574609
-0.0025785437 -0.003348709 -0.0064846044 -0.0031936564 -0.0093335435 0.0024514755 -0.005825568 -0.008351724
0.0029198376 -0.009704174 -0.0075384937 0.012868903 0.010388124 -0.016708257 -0.023307366 0.0084931515
-0.00996638 -0.008972346 -0.015417912 0.0034044553 -0.020157898 -0.012147958 -0.02026496 -0.018228274
-0.011700718 -0.0061526964 -0.019182447 0.00141817 0.012011127 0.014856474 0.0050632246 0.004578067
-0.007848685 -0.020954242 -0.0016758357 0.005315993 -0.002417517 -0.00017114653 -0.0075427447 0.0010216128
-0.012847633 0.0019876608 0.0059481384 0.004679318 -0.02230827 -0.0012533523 -0.015672714 0.012105309
0.007423852 -0.021391658 0.013137046 -0.0037281916 -0.0040986775 7.50139e-05 0.006837254 -0.01581366
0.005057001 -0.004287478 0.009005094 0.009941317 -0.0105410125 -0.019442441 0.015030855 -0.0024117534
0.008259129 -0.019002123 0.0035136114 0.008770964 -0.015260764 -0.00023940146 0.009933334 -0.0042009074
-0.011225614 -0.009805313 -0.0005845202 -0.011420271 0.01099322 -0.006222004 0.0038971566 0.009265994
-0.0074708825 -0.0033369022 0.008264036 -0.022286022 -0.010952244 0.004962403 -0.0076472806 0.0015302149
0.006777168 -0.010040778 -0.0024759944 0.008176241 0.0032551428 -0.01229184 0.0008129266 -0.0070211235
-0.01831174 0.016650293 0.0041994816 0.0009939146 0.002221032 0.0033166911 -0.00088576233 0.014930233
0.0028655939 0.0046463097 0.003401799 -0.013493932 -0.011457906 0.011964509 -0.013418783 -0.004728923
-0.0146908965 0.0073377127 -0.017980253 0.008143944 3.6042344e-05 -0.01742277 -0.0019730122 -0.014723744
-0.0030780807 0.011278277 0.0022084562 -0.0013957542 0.0029443693 0.014676815 -0.011025166 -0.0018743516
0.014392333 -0.009728102 -0.0046442263 0.002284601 -0.01696927 0.01116303 -0.0003630722 -0.005538174
0.014882452 0.01147138 -0.016996777 -0.018217085 0.003206781 -0.0008235469 0.014038474 0.009911269
-0.0075606373 -0.019144777 -0.017398426 0.0021983427 -0.017504422 0.0059181396 0.0013933054 0.009063638
-0.008302036 0.0020516613 0.011643088 -0.0019968185 -0.0052359635 -0.008011275 3.069097e-05 0.0047278306
-0.00073742727 -0.016973183 0.011787015 -0.016922902 -0.011541852 -0.0008470105 -0.0017612329 0.011786387
-0.019346941 -0.0021427125 0.0036218045 0.0113610765 -0.0076395455 -0.014389679 0.0075433636 -0.012126725
0.0021825444 -0.021229416 -0.022230439 0.009573471 0.0061762356 -0.009846318 -0.015233729 0.0003531088

layer1.0.bias f4 [64]
00000000: 44d4 90bb 4568 a2bc b452 ef3a d131 6abc
00000010: 481a 16bc 66b5 d1bc 79d8 1d3b ad9e 0039
00000020: 2b10 393c 7d89 0cbc 77cd 9fba 5835 e338
00000030: a11b 543c 3d5b 01bc 3088 073c 0b13 cdbc
00000040: 1690 c4b7 7d6e c4bc 586a 7e3b 4380 5d3c
00000050: 7a64 ed3b c15d 2e3c 8640 a6bc 0e88 743c
00000060: 2b5e 70bb ef10 7abc d120 ea39 fe53 81bc
00000070: b841 fcbc 1f63 5cbb 2ec5 25bc 3416 c5bc
00000080: b1ad e7bc 6db0 d6bb 54db 74bc 25aa 09bc
00000090: a1a2 d3bb 1917 fe3a 403a 39bc 124b 413c
000000a0: 6b49 9cb9 9a66 bd3b bddd bfba caa8 c03b
000000b0: 8e72 f8ba 4939 993c 9c6a 9a3c c4c9 d9bc
000000c0: 4ffb 33bc 23e1 93bb 044a bfbb 9739 1f3c
000000d0: 4c8d ab3c 9207 cbbb 72a9 b4bb e09b 12bb
000000e0: 0546 523b 156b dcbb 5ff1 acbc 90f1 3dbb
000000f0: 28d1 383c 0d8f 953c 265d 80ba e2c4 cebb
-0.0044198353 -0.01982511 0.00182589 -0.014294104 -0.009161539 -0.025599193 0.0024085327 0.00012266143
0.011295359 -0.008577702 -0.0012191971 0.000108341395 0.01294604 -0.007895288 0.008272216 -0.025033494
-2.3432116e-05 -0.023978466 0.003882071 0.0135193495 0.0072446438 0.01064247 -0.020294439 0.014925016
-0.0036677222 -0.015262826 0.00044656408 -0.01578712 -0.030793056 -0.0033628417 -0.010117812 -0.024058439
-0.028281065 -0.0065517933 -0.01494487 -0.008402382 -0.006458596 0.0019385546 -0.011305392 0.011797683
-0.0002980934 0.0057800533 -0.0014638227 0.005879496 -0.0018955038 0.018704074 0.018849663 -0.026585467
-0.01098521 -0.0045129224 -0.005837681 0.00971832 0.020941399 -0.006195971 -0.0055133635 -0.002237074
0.0032085192 -0.0067266324 -0.021111188 -0.0028983094 0.0112803355 0.018256688 -0.0009793385 -0.0063100914

layer2.0.weight f4 [32, 64]
00000000: 643b cdbd 382b 5cbc 6d9d 54bc f544 acbd
00000010: 4bdf 99bd ffbe d83d 9c27 b7bd b05b 683c
00000020: 9b02 db3b a48d 88bd d737 b2bb 0a3d ddbb
00000030: caf1 a83d 2d5d d5bd 645e df3b 7c52 433d
00000040: d0f0 67bc b1b1 89bc dcad 87bd fe8d 49bd
00000050: 4e77 64bd c7d4 9b3d 4247 a3bd e952 bdbd
00000060: 27a1 553d 61d4 b83d 8db8 4ebd 9b4c 89bc
00000070: 0866 a7bc 50c6 d0bd cbf5 d9bd 2a21 bebd
00000080: 93ef 6bbd b20d 843c e921 5bbc bc38 653d
00000090: 6c0e 903d 01fb 92bd 4986 b5bd c7f3 963d
000000a0: 6529 16be 8a1e f03c b6f2 b33d b47a ce3d
000000b0: cf98 0dbc 4cac 9ebd 70fe 933c 1e80 b7bd
000000c0: d8e3 dabc fb9f b0bc 1065 d43d 302a 6bbd
000000d0: 138b c7bd 0789 bebd cd21 03be e128 fa3c
000000e0: f291 43bd 8a2d 333d 610b c63d 702e 89bd
000000f0: 6859 a8bd dba9 943d 3543 fabd 936f debd
00000100: beaf fabd 6498 b4bd ac54 e7bd 38e1 09bd
00000110: 94f3 d13d dd1d 9bbd 59c9 5b3c 611b 83bd
00000120: 26b5 fbbd f2ef 433d 12fd 6fbd 0b8b 233c
00000130: 3b3f a1bb 5125 debc 01be f83d a04b 263d
00000140: e76d 4bbd 9d21 bdbd 1365 d73d 7bfe 743d
00000150: 383d 373d b0c9 8f3d 6c90 65bd 947b 8a3d
00000160: c11f 95bd 1fe7 ebbd 64e0 743d 7d99 52bd
00000170: ebcc cebd afc9 5cbc 1863 f8bd b85a 00be
00000180: 1b1c 943b 3a2a a13d b2f1 883d 4a93 a6bd
00000190: 58c3 a2bd ff92 e03a 0a01 523a 2c49 2cbd
000001a0: bf16 85bd 4f91 7dbd 80be 8cbd a964 cbbd
000001b0: 53a6 9b3d 4840 c73d ad12 223c d961 503c
000001c0: 2b85 243d 06e2 293d 402c e6bd 32d8 94bc
000001d0: 0649 babd e47c b43c 2a3c 4abd 0b55 a0bd
000001e0: 2b51 04be 6896 5c3d 2701 e6bd d818 1c3d
000001f0: 800b 7a3d dfb5 d63d c20a 05bd f861 e83d
00000200: 72b1 9ebc 0ecd d6bc ea2e c93d 313b a43d
00000210: 3c25 cbbd f49b 8b3d 4ffa dcbd 2011 d8bd
00000220: 6a10 6fbc d1e9 e2bd de7f b3bd 8fbc ae3d
00000230: 6204 babd c29f ddbb 4a1a c73d 3691 843d
00000240: f5fc 7ebd ad0c ae3d f652 ce3c 7596 99bd
00000250: 04c7 a0bd 73a6 babd aa60 efbd e928 3bbc
00000260: 7ac6 90bc 736e 10be be51 0d3d 8275 b6bc
00000270: 1291 f1bd 3cbf eabd ef5f 67bd 3e9e 863d
00000280: 02e3 c3bd cd46 07be d200 3fbd 8d2a cd3d
00000290: f582 aa3d 3425 273d 65c2 e33c 91f2 e03c
000002a0: ccef e83d 42d1 9bba caaa 80bd 9a81 403d
000002b0: ae15 a0ba 57ce 6c3d 6528 3f3b f7eb 69bd
000002c0: 0bcd b53d 62de b7bd 2d43 703d 528b e2bd
000002d0: c181 ecbb ad57 bebd 87f9 9fbb 13e0 873d
000002e0: 3bc6 ba3d 3ef5 fcbd 2510 47bd 55a1 36bd
000002f0: 570b 9d3d 78ef 4abd 12d1 c63d f4ed 16bd
00000300: 8261 903d 777c b83d 576c b0bd 65ac bb3d
00000310: e4ea eb3d 7b69 09be afb0 82bc e316 333d
00000320: c209 a73d 9f9a b83c 9b15 3a3d 6b3d 493d
00000330: 06bc 743c fbfc e1bd 5356 ffbd 303b 94ba
00000340: 792d 5cbc 6d43 32bd 3151 76bd b927 b6bd
00000350: 5f45 8d3d 7fc6 7d3c fcf0 45bd 264a fcbd
00000360: 08e4 a7bd 684e 6dbd 157d 633c 12f8 cd3d
00000370: 33ac 3fbd 5ce7 c53d d62c 1a3d 7ae9 30bd
00000380: 0226 a03d a8a5 053d a386 743d 7e72 893b
00000390: 8e1f c03d 5591 72bd ef1f 88bd 8ffd a43d
000003a0: d16a 95bd c62e a2bc e405 b73d 3cca 2bbd
000003b0: 9ebd f53d 19a2 84bd 5d36 2c3d f79e 81bd
000003c0: 186e 97bd 27d9 79bd 61d5 88bd e952 1bbd
000003d0: ee0e 8c3c 9560 04be 8a4f 29bb 99df 8fbd
000003e0: af5b 4a3b 0729 bfbd 7ed9 883d 8bfb 493d
000003f0: ada3 69bd cd0c 8fbd f816 c53d d8a6 aa3d
-0.100210935 -0.0134380385 -0.012976986 -0.0841159 -0.07513293 0.105833046 -0.08943102 0.014182016
0.00668366 -0.06667641 -0.0054387855 -0.006751661 0.082492426 -0.104181625 0.006816672 0.047686085
-0.014156535 -0.016808363 -0.06624958 -0.04920768 -0.05577784 0.076089434 -0.07972576 -0.092443295
0.05215564 0.09024883 -0.05046897 -0.016760161 -0.020434394 -0.10194075 -0.106425844 -0.09283669
-0.057601523 0.016119812 -0.013374784 0.05596231 0.07034001 -0.071767814 -0.088635035 0.073707156
-0.14664228 0.029311437 0.08786528 0.100819975 -0.008642389 -0.07747707 0.018065661 -0.08959983
-0.026719972 -0.02156066 0.10370839 -0.05741328 -0.09743323 -0.0930348 -0.12805863 0.03053707
-0.047746606 0.0437446 0.09670139 -0.066983104 -0.08220178 0.0725896 -0.1221985 -0.10861125
-0.122405514 -0.08818129 -0.11295447 -0.03366205 0.10251537 -0.07574055 0.013414704 -0.064017065
-0.12290411 0.04783625 -0.058590956 0.009981881 -0.0049208677 -0.027117403 0.12145615 0.040599465
-0.049665358 -0.09234927 0.10517325 0.059813004 0.044736117 0.07020891 -0.056045935 0.06761852
-0.07281447 -0.11518692 0.059784308 -0.05141591 -0.10097679 -0.0134758195 -0.12128276 -0.12534606
0.004519952 0.07869382 0.06686725 -0.08133562 -0.07947415 0.0017133652 0.0008011019 -0.04206197
-0.06498479 -0.061906155 -0.068722725 -0.09931309 0.07600083 0.097290576 0.009892148 0.012718641
0.04016606 0.04147532 -0.11238909 -0.018169496 -0.09095959 0.022032209 -0.049373783 -0.07828721
-0.12921588 0.053854376 -0.112306885 0.03810963 0.061046124 0.10483908 -0.032480963 0.11346811
-0.019371722 -0.026220825 0.09823401 0.08019102 -0.09919211 0.06816855 -0.1078993 -0.10550141
-0.014591316 -0.11079753 -0.08764623 0.085320584 -0.09082867 -0.0067634294 0.09721811 0.06473009
-0.062252957 0.084985115 0.025186043 -0.074994005 -0.07850459 -0.09113779 -0.11688359 -0.011423328
-0.017672766 -0.14104633 0.034501784 -0.022272829 -0.11795248 -0.11462256 -0.056487974 0.06573151
-0.09564783 -0.13210602 -0.04663164 0.100178815 0.08325759 0.040806964 0.027802655 0.027459415
0.113738626 -0.0011887925 -0.062825754 0.046998598 -0.0012213492 0.05781397 0.0029168364 -0.0571098
0.088769995 -0.08977963 0.058657814 -0.110617295 -0.0072176163 -0.092940666 -0.004882041 0.06634536
0.09119841 -0.12351464 -0.04859938 -0.044587452 0.076681785 -0.04954478 0.09707846 -0.036848024
0.07049848 0.09008115 -0.08614414 0.09163741 0.11519411 -0.13419144 -0.01595339 0.043723
0.08156158 0.022534667 0.04543076 0.04913084 0.014937406 -0.1103458 -0.12467637 -0.0011309143
-0.013438576 -0.043521333 -0.060136024 -0.08894295 0.06897997 0.01548922 -0.048325524 -0.1231883
-0.081977904 -0.057936102 0.013884802 0.10057081 -0.04679508 0.09663269 0.037640415 -0.04319141
0.078197494 0.032628685 0.059698712 0.0041945567 0.093810186 -0.05922063 -0.06646716 0.08056175
-0.07295764 -0.019797694 0.089366704 -0.041940913 0.11999057 -0.0647623 0.042044032 -0.06329148
-0.073940456 -0.06099811 -0.06681324 -0.037920866 0.017096963 -0.12927468 -0.0025834762 -0.0702507
0.0030877402 -0.09333997 0.06682108 0.049312156 -0.05704086 -0.069848634 0.096235216 0.08332604

layer2.0.bias f4 [32]
00000000: f828 a83d 9f0e 8b3b 4deb 44bc 9a24 6abd
00000010: 21f9 c6bd eb9f b53d 7691 4a3d 324f 9f3d
00000020: 3818 4f3d c082 2dbd 9871 81bc fbc0 cb3d
00000030: 236c 2b3d 8edb d03d 11f6 f83d c32f 3b3c
00000040: c6ca 0bbd 8837 083d 816a 2f3c d97f 7f3d
00000050: 4a2f 9bbd fdd2 3ebd a1bf f9bc 0eeb d3bd
00000060: 2efd 44bd be98 a53d 9cdb 23bc 3f3e db3c
00000070: cad6 53bc b536 cd3d 2110 33bd 5551 c13b
0.08210939 0.0042436863 -0.012018991 -0.057163812 -0.09715486 0.088683926 0.04945513 0.07778777
0.050560206 -0.04236102 -0.015801236 0.099489175 0.041851174 0.10198127 0.121563084 0.0114249615
-0.034128927 0.033256084 0.010706545 0.062377784 -0.07577379 -0.046587933 -0.030486884 -0.103475675
-0.048093013 0.08085774 -0.010001089 0.02676308 -0.012929628 0.100202 -0.043716554 0.005899588

classifier.weight f4 [50, 32]
00000000: 16d2 593d 747a 31be 148f edbd 2606 08be
00000010: f240 273e dc1a 203e 0c28 b63d be98 f23d
00000020: e7fb 2d3d 7962 233d b2dc 08be 1878 e73b
00000030: aaa8 76bd 3522 c83d 7ae6 d8bd 2a00 643d
00000040: e9fd 3dbd 385a b83d 9812 20be 9dc1 40bd
00000050: 5207 6c3d 0f79 243e c607 42be 939e ecbd
00000060: d1fe 1d3e cea0 04bd 5a67 adbd 1c3f c43d
00000070: dad1 df3d 1272 00be 50c1 c33c 69e1 63bb
00000080: 24d0 533c 9cec f0bc 6eb6 223d cd68 c53c
00000090: 117b f0bd 3323 fabd 6c86 38be 2956 0dbe
000000a0: 1215 84bd 1efd 4f3d 5ab8 553e 34df 90bd
000000b0: 0e10 39be 8810 313e 55e4 a7bd cb28 453e
000000c0: 7f2b 09be 8c30 2fbe bba6 db3d cddc f6bd
000000d0: 80c1 333d bf68 523d 7c8f 32be 498c b9bd
000000e0: f6be 4dbe d428 973d 946c a23d c8bd ca3d
000000f0: d03e 543e 1bab 01bd ec5e 353e 2a66 02be
00000100: 111c 5e3e e93b 1ebe 5bf5 0dbe f8bb e63d
00000110: 1853 7d3d b2ce a03c 28b8 f2bd e1b6 58be
00000120: 5622 abbd 05f0 12be 1ade 1f3e 47cf 3d3e
00000130: 9772 3cbe f265 3f3e 7576 333c 462e 10be
00000140: 49d1 cc3d 367b 7cbd f74e 913d 9549 103e
00000150: 5a9e 6abd 04f0 193e 2f22 b5bd 7db3 e5bc
00000160: 3158 f2bd 6a7c 44be 9b50 cf3d 826f 40be
00000170: 8f1a b2bd e642 43be 4f20 eb3c 3f58 67bc
00000180: a035 273e e971 f73b 24fa 283e 5c85 ad3b
00000190: 670c fb3d 2938 243e 728d 15bd 6e85 8a3d
000001a0: 6016 bdbd 8995 dfbd 997f 0cbe ad1a 02be
000001b0: ea6f 6a3d 40dc 433e b295 403e fe53 ac3c
000001c0: 05d0 733d d305 dd3d eed0 0dbd 101a 96bd
000001d0: ab3f f8bd cd4e 963d adc5 3fbe 7b17 8dbd
000001e0: 6126 8abe 6fef 2ebe 065e 663d dd16 0e3d
000001f0: 4881 cfbd f9e4 1c3d db07 fbbd ee6f a3bd
00000200: 9502 2fbe 8bb2 dcbd d851 bdbd 63cf 533c
00000210: a161 e03d 1eb7 bbbd 4f82 863d 4bfb 13be
00000220: a87f a9bd fa63 d3bc 090b 093e 4014 38be
00000230: 0f5c 4c3b 1b98 813c 1483 3cbe 70e7 a63c
00000240: 079c 78bd 4ac7 253d 560a 0d3e f1b4 863d
00000250: 87bf 283e 93a7 2e3d 155e 83bc ae75 483d
00000260: 190b afbd 3495 0bbe a04b a43d 5f7d 313d
00000270: 3c21 3abd 8f94 77bc f8ee 01be 83ef 4abe
00000280: d4c9 3f3c f4ac 1c3e 8cce 7b3d 5800 10be
00000290: 95d5 183c e145 b8bd 7b66 89bc 5025 f0bd
000002a0: ad89 98bd ae70 d3bd 7495 413c d8c5 19be
000002b0: effc ab3d fe55 04be 0e87 3c3d e480 fa3c
000002c0: 07bc f8bc c048 e5bd 5dde 843c eb43 38be
000002d0: b04c 40bd 080f 203d ced0 433d ec08 883d
000002e0: 729e b9bd 5046 263c 4a44 3d3c ef45 2d3d
000002f0: 60af 81bd c711 453e 8619 893d 2bb8 6abe
00000300: c019 d2bd dd76 2cbe 2b2c 1d3e f341 5dbd
00000310: 0c58 6bbd 047e 3ebd 0da4 35be 2a2e 38be
00000320: f6a4 3fbd 354a bb3d a8b0 1a3e c48d 19be
00000330: da34 5f3e 72a8 f9bc 1399 aa3d fb37 a4bd
00000340: fb31 0e3e ecca 36be a9b2 2c3e a57d f43d
00000350: 758c 2bbe ec3a 173c eefb 12be 7834 593d
00000360: 7703 043e a3e8 babd 6383 18be 32c9 e73c
00000370: c193 323e 09b0 33be 8279 dcbd e797 5d3e
00000380: 9560 41bd b442 893d d471 d8bd 5191 d33d
00000390: c18e 1f3d bde1 0d3e 0923 0abe 2b91 1a3c
000003a0: bc6b a33d 5496 09bd daa1 5f3c a54d 593d
000003b0: bd8d 0f3d 82a7 72bd 9a39 39be 0a9f 2dbd
000003c0: ea95 4bbe 1ef2 21be 3949 473d 2f46 47be
000003d0: c789 1ebd ecf9 14be 655d 26be 94ac 153e
000003e0: c9e7 99bb 5f18 063d b681 bcbc 6518 efbd
000003f0: ec29 bebd b3bc 073e f60c 0dbe edc5 23be
0.05317887 -0.17331868 -0.115995556 -0.13283595 0.16333368 0.15635246 0.08894357 0.118455395
0.04247656 0.039888833 -0.13365439 0.007063877 -0.060219444 0.097721495 -0.10590835 0.05566422
-0.046384726 0.09001583 -0.15632093 -0.047059644 0.05762417 0.16061805 -0.18948278 -0.11553683
0.15429236 -0.032379918 -0.08466978 0.0958235 0.10928698 -0.12543514 0.02389589 -0.0034771806
0.012928043 -0.0294097 0.03972476 0.024097824 -0.11742223 -0.12213745 -0.18020028 -0.13802399
-0.06449331 0.0507785 0.20871106 -0.070738226 -0.1807253 0.17291462 -0.08197848 0.19253843
-0.13395499 -0.17108363 0.10725161 -0.12053833 0.043885708 0.051369425 -0.17437547 -0.090599604
-0.20092377 0.07380834 0.07930866 0.09899479 0.20727086 -0.03165732 0.17711991 -0.12734285
0.21690394 -0.15452541 -0.13863127 0.11266321 0.061846823 0.01962981 -0.11851531 -0.21163513
-0.083561584 -0.14349373 0.15612069 0.18536101 -0.18403088 0.18691233 0.010953535 -0.14080152
0.100008555 -0.06164094 0.070951395 0.1409057 -0.057279922 0.15032965 -0.08844411 -0.028039688
-0.118332274 -0.19188085 0.10122796 -0.18792537 -0.08696472 -0.19068488 0.02870193 -0.014120161
0.1632905 0.007551421 0.16501671 0.0052954387 0.12258225 0.16037048 -0.036511846 0.06763731
-0.09232783 -0.109171934 -0.1372055 -0.12705489 0.057235636 0.19126987 0.18807104 0.021036144
0.059524555 0.107921265 -0.03462308 -0.0732919 -0.12121519 0.07339249 -0.18727751 -0.06889244
-0.26982406 -0.17083524 0.05624201 0.034689773 -0.1013208 0.038304303 -0.12257358 -0.07980333
-0.17090829 -0.10776242 -0.09244126 0.012927863 0.10956121 -0.09165786 0.06567823 -0.1445133
-0.082763016 -0.025804508 0.13383116 -0.17976475 0.00311828 0.0158196 -0.18409377 0.02037403
-0.060695674 0.04047326 0.13773474 0.065774806 0.16479312 0.04264028 -0.016036073 0.048940353
-0.085470386 -0.13631135 0.08022237 0.043332454 -0.04544185 -0.015111103 -0.12688816 -0.19817929
0.011705834 0.15300351 0.061476275 -0.14062631 0.009328266 -0.08997703 -0.0167725 -0.11725867
-0.074481346 -0.10324226 0.011815418 -0.15016878 0.08397853 -0.12923428 0.046027236 0.030579038
-0.030363096 -0.111955166 0.016219312 -0.17994659 -0.046948135 0.039076835 0.047806554 0.06642327
-0.09063424 0.0101486 0.011551926 0.042303022 -0.06332278 0.19245063 0.06694321 -0.22921817
-0.10258818 -0.16842218 0.1534888 -0.054017972 -0.057457015 -0.046506897 -0.17738362 -0.1798636
-0.04678818 0.09145013 0.15106452 -0.14995486 0.21797505 -0.030475829 0.08329978 -0.0801849
0.13886254 -0.17850846 0.16865028 0.11938027 -0.16752799 0.009230357 -0.14353916 0.053028554
0.12891947 -0.09126403 -0.1489387 0.02829418 0.17439176 -0.17547621 -0.10765363 0.21639977
-0.04721125 0.06702176 -0.10568586 0.10330451 0.0389545 0.13855644 -0.13489927 0.009434025
0.07979533 -0.03359063 0.013649428 0.053052563 0.03504728 -0.05924178 -0.1808838 -0.042388
-0.19881406 -0.15815017 0.048653815 -0.19460367 -0.038705613 -0.14548463 -0.16246565 0.14616615
-0.0046968204 0.032738086 -0.02301107 -0.11674575 -0.0928534 0.13255577 -0.13774475 -0.15993471

classifier.bias f4 [50]
00000000: a615 a0bd e843 213d a172 90bd 11b4 5ebd
00000010: b7a9 5b3c 9404 0cbc 9de1 623d c369 7c3d
00000020: 0df6 5abd 4a07 b3bc e94c 683d 1637 a3bc
00000030: 4c06 25bd cdb9 29bd 078a 313d f6de 0ebd
00000040: 79de 3d3d 5741 823d 9b3a 083c eae4 8dbd
00000050: 4a87 c0bd ee17 09bd ece8 37bd 8dea 613d
00000060: 4acb 813d 3ef2 1abd 7d41 e0bc e4cc 433c
00000070: 0207 3f3c a5bf babd eac6 86bd 6f82 8bbd
00000080: cce8 b8bc 5735 96bd 6a4e 9f3d 1618 a23c
00000090: 42b2 043d f4eb c0bd c233 793d 1ac6 b0bc
000000a0: d269 35bd bfb8 043d 14e3 88bd ef2c 683d
000000b0: c92b 623d 7ffa 9e3c 4f54 03bd b55b 9c3d
000000c0: 3be6 75bd 0077 7bbd
-0.07816629 0.0393714 -0.07053114 -0.054370943 0.013407162 -0.008546013 0.055390943 0.0616243
-0.05345731 -0.021854062 0.056713972 -0.019923728 -0.04028921 -0.04143696 0.043344524 -0.0348806
0.046354745 0.06360119 0.008314754 -0.069284275 -0.09400804 -0.033470087 -0.044899866 0.055155326
0.063376024 -0.037828676 -0.027374977 0.011950705 0.011659386 -0.091185845 -0.065809086 -0.068119876
-0.022571944 -0.073343925 0.07778628 0.019786876 0.032396562 -0.094200045 0.060840376 -0.021578837
-0.04429037 0.03240275 -0.06683937 0.056683477 0.055217538 0.019406555 -0.032062825 0.07634679
-0.060034018 -0.061392784
