results/MNIST_dataset/contrastive_loss/margin_2.0_first_model_nb_classes_5_data_percent_60/model_ckpt.pt (torch_old, 211107 bytes, 6 tensors)

layer1.0.weight f4 [64, 784]
0	0xbc2fa57a	-0.010720605
1	0xbd04de3c	-0.0324385
2	0xbc0046a4	-0.007829342
3	0x3a19731d	0.000585364
4	0xbccab287	-0.024743332
5	0x3cf308fd	0.029667372
6	0x3cf2fe51	0.029662283
7	0xbca046f3	-0.019565081
8	0x3d11cfce	0.03559857
9	0xbcf68f02	-0.030097488
10	0xbc6fc5b8	-0.014634542
11	0xbcde7745	-0.027156482
12	0x3cc68b49	0.024236338
13	0x3cc1fab5	0.023679117
14	0xbc9e40d7	-0.019318027
15	0xbcd39779	-0.025829064
16	0xb9659b61	-0.00021897025
17	0x3ce749ed	0.028233493
18	0x3bd8cde9	0.0066163433
19	0xbc9b1b73	-0.018933987
20	0x3d08b99c	0.033380136
21	0x3ccd4481	0.02505708
22	0x3d1cfb36	0.03832551
23	0x3c4b0896	0.012392184
24	0x3d10eae2	0.03538025
25	0xbcdf3ca3	-0.027250594
26	0x3bef7286	0.0073073534
27	0xbd018714	-0.03162296
28	0xbc948d83	-0.018133884
29	0xbc7c49f0	-0.015398487
30	0xbc2e5808	-0.0106411055
31	0x3c577a9a	0.013151789
32	0x3a0d66cd	0.00053940417
33	0xbc4e40cd	-0.012588692
34	0xbc32a89c	-0.010904457
35	0x3d0b34fb	0.033986073
36	0x3cadce8a	0.02121665
37	0x3cb4153f	0.021982787
38	0xbbd0cb1c	-0.006371869
39	0xbc635c9f	-0.013877063
40	0xbced9694	-0.029002465
41	0x3cf29e83	0.0296166
42	0x3b99c968	0.004693199
43	0xbccbf20e	-0.024895694
44	0x3be674ac	0.0070329513
45	0x3ba43c2e	0.005012057
46	0x3c6c90ce	0.014438821
47	0x3cc84d96	0.024451058
48	0xbc143ac2	-0.009047212
49	0x3d1e4b71	0.038646165
50	0xbb660dba	-0.0035103397
51	0xbc9b398d	-0.01894834
52	0x3b90b740	0.0044163764
53	0x3b34645e	0.0027525644
54	0xbc9341c7	-0.017975701
55	0x3d13d75c	0.036094055
56	0xba9d0911	-0.0011980851
57	0xbca9e509	-0.020739095
58	0x3cb55caa	0.022138912
59	0x3b8cdbfc	0.004298685
60	0xbc8fbee1	-0.017547073
61	0xbcbb4f09	-0.022864835
62	0xbc3d4cbe	-0.011553941
63	0xbba05a73	-0.004893595
64	0xbc12b0f9	-0.008953326
65	0x3c9b095e	0.018925365
66	0xbd0cebbe	-0.03440451
67	0x3cb162ca	0.021653552
68	0x3cf2e537	0.029650314
69	0x3c8fb434	0.017541982
70	0xbcb1b4b3	-0.02169261
71	0x3ca8127d	0.020516628
72	0x3cdd8de6	0.027045202
73	0x3d11c8e7	0.035591986
74	0xbc45b691	-0.012067453
75	0xbcd44607	-0.025912298
76	0xbcd0486a	-0.025425155
77	0x3d1f7ae0	0.038935542
78	0xb98acc6a	-0.00026473711
79	0x3c79b6a7	0.015241302
80	0x3bb61629	0.005556841
81	0xbc67639e	-0.014122872
82	0x3cefe943	0.029286033
83	0x3d19657c	0.0374503
84	0xbb573d17	-0.003284281
85	0x3cb80e23	0.022467678
86	0xb98f3b9b	-0.00027319495
87	0xbb1ed65e	-0.002423666
88	0xbcfc3682	-0.03078771
89	0x3d02fc54	0.03197892
90	0xbbfaa2cb	-0.007648801
91	0x3bc9c466	0.0061574457
92	0x3ccfb59a	0.025355149
93	0xbd2ab921	-0.04168046
94	0x3c252caa	0.0100814495
95	0xbd3d361d	-0.046194185
96	0xbcb1593f	-0.021649001
97	0x3aa1aad3	0.0012334235
98	0x3cae2ac3	0.021260625
99	0xbc9bcf6c	-0.019019805
100	0xbcaef323	-0.021356171
101	0x3c5ad167	0.0133555895
102	0xbcbe2cdb	-0.023214748
103	0xbc091426	-0.00836662
104	0xbc8463af	-0.016160814
105	0x3c67aa9a	0.014139796
106	0xbc8cd136	-0.017189603
107	0x3d0fb520	0.035084844
108	0x3c8125eb	0.015765151
109	0x3cdfaef1	0.027305098
110	0xbca5f2c3	-0.02025736
111	0x3cfe8a8f	0.03107193
112	0x3b4a5fc1	0.0030879828
113	0xbc65bfb8	-0.01402276
114	0xbbd1f382	-0.006407202
115	0xbcdc60b4	-0.02690158
116	0x3be82e4a	0.007085596
117	0x3ce8d275	0.028420666
118	0xbd099980	-0.033593655
119	0x3c87cf41	0.016578319
120	0xbd35d40d	-0.04439168
121	0xbb864be7	-0.0040984037
122	0xbcd627b9	-0.026141988
123	0xbb1f9637	-0.002435101
124	0xbd19e6b0	-0.037573516
125	0xbcfbe124	-0.030747004
126	0xbc7c0bd5	-0.01538368
127	0xbc8d8e04	-0.017279632
128	0xbc82801e	-0.015930232
129	0xbc90fc36	-0.017698389
130	0xbca9acc2	-0.02071226
131	0xbb2ca00e	-0.0026340517
132	0xbd29bdf8	-0.041440934
133	0xbc9053e2	-0.017618123
134	0x397ee51a	0.00024308675
135	0xbce9f409	-0.028558748
136	0xbc9304ed	-0.017946685
137	0x3a8e2953	0.0010846056
138	0x3cb85013	0.02249912
139	0xbc09c744	-0.008409325
140	0xbc8661cb	-0.016404053
141	0xbca81151	-0.02051607
142	0x3acf1c40	0.0015801266
143	0x3d0da755	0.03458341
144	0xbc5b608a	-0.013389716
145	0x3b5b0433	0.003341925
146	0xbcdc5424	-0.02689559
147	0xbbc26bc3	-0.0059332564
148	0xbc544173	-0.012955057
149	0x3c5b30da	0.013378346
150	0xbcd1521a	-0.025551844
151	0x3c2f5e00	0.010703564
152	0xbc0fd3fb	-0.008778567
153	0xbd09326d	-0.033495355
154	0xbbe14b59	-0.006875437
155	0xbd0fa352	-0.035067864
156	0xbd2401ca	-0.04004077
157	0xbc7f321a	-0.01557591
158	0xbc7f4755	-0.015580972
159	0xbcbc105b	-0.022957018
160	0xbd0f56ac	-0.034994766
161	0xbd521e4f	-0.051298436
162	0xbbed528c	-0.0072425064
163	0xbc2945e6	-0.0103316065
164	0x3bff7268	0.0077956207
165	0x3a7874a9	0.0009477833
166	0x3cf7c21a	0.030243922
167	0xbb2156f9	-0.002461849
168	0xbbefc612	-0.007317313
169	0xbd043e02	-0.032285698
170	0xbcb87124	-0.022514887
171	0xbca9f89e	-0.020748433
172	0x3c6ca07a	0.0144425575
173	0xbb8c4588	-0.0042807497
174	0x3b31ffa9	0.0027160442
175	0x3c9b4648	0.018954411
176	0xbb8f00b5	-0.004364098
177	0x3cebe5bb	0.028796067
178	0xbb41a8c3	-0.0029550053
179	0xbbfa3046	-0.007635149
180	0xbc1651e5	-0.009174799
181	0xbaaef075	-0.0013346808
182	0xbb5bd9dd	-0.0033546605
183	0x3c141a86	0.009039527
184	0x3a52b67b	0.0008038056
185	0xbcc9a16d	-0.024613107
186	0xbb3ec822	-0.0029110988
187	0xbc975fd3	-0.01847831
188	0xb9eb7a2f	-0.00044913727
189	0x3cd30a1e	0.02576166
190	0xbccb6b74	-0.024831511
191	0xbd029d42	-0.031888254
192	0xbcb4f0a9	-0.022087412
193	0xbccd6dd9	-0.025076794
194	0x3ca5e634	0.020251371
195	0xba915059	-0.0011086568
196	0x38ef5704	0.00011412616
197	0x3bb97095	0.005659173
198	0xbc1217ae	-0.0089167785
199	0x3caa8b38	0.020818338
200	0x3d11af87	0.035567787
201	0x3c977b94	0.018491544
202	0xba9423bc	-0.0011302154
203	0x3cbf6ad3	0.023366367
204	0xbc1d1b8b	-0.009589086
205	0x3cc82826	0.024433207
206	0xbcd77807	-0.02630235
207	0x3c9a1d6b	0.018812856
208	0x3cd5b238	0.026085958
209	0xbce40206	-0.027832996
210	0x3cac0544	0.020998605
211	0x3b879df2	0.0041387016
212	0xbc0bd04f	-0.008533551
213	0x3bb73c77	0.005591925
214	0xbbcdb900	-0.0062781572
215	0x3cde3ba4	0.027128048
216	0xbc31e3c0	-0.0108575225
217	0xbc08a568	-0.008340217
218	0xbcac0e92	-0.021003041
219	0xbc1e128e	-0.0096479785
220	0xbc4bab31	-0.012430952
221	0x3c3a3d8b	0.011367212
222	0xbc746865	-0.014917468
223	0x3cb0a560	0.021563232
224	0x3b9b776e	0.0047444617
225	0x3ca711e2	0.02039427
226	0xbc99fe3c	-0.018797986
227	0x3c8b7c6c	0.017027102
228	0x3c3171ce	0.010830356
229	0x3cb7e298	0.022446916
230	0x3ca26d08	0.01982738
231	0xbb81300f	-0.0039424966
232	0x3c843f75	0.01614354
233	0x3b4aee56	0.0030964813
234	0x3c3badf0	0.011455044
235	0xbb52e8d1	-0.0032182226
236	0x3c298fe5	0.010349249
237	0x3c88aadc	0.016683035
238	0xbcb3a94e	-0.021931317
239	0x3d1946ed	0.037421156
240	0xbbb87925	-0.005629676
241	0xbc2d213d	-0.010567007
242	0x3cc6495a	0.024204899
243	0xba411a3b	-0.00073662744
244	0xbcb62fef	-0.022239653
245	0xbcacdff6	-0.021102887
246	0x3cf55cb8	0.029951438
247	0xbd06064b	-0.032720845
248	0xbb29428c	-0.0025827019
249	0xbcfb786a	-0.030697066
250	0xbd0526e2	-0.032507785
251	0xbbbb1eb7	-0.0057104486
252	0xbc90c930	-0.017674059
253	0x3be5d77c	0.007014213
254	0x3ba512f7	0.005037661
255	0x3d01c1e9	0.031679068

layer1.0.bias f4 [64]
0	0x3bfb1160	0.0076619834
1	0xbbfa2855	-0.0076342025
2	0xbd042b7e	-0.03226804
3	0xbcc73a78	-0.024319872
4	0x3c697e5b	0.014251317
5	0x3aec75b4	0.0018040449
6	0xba268e7d	-0.000635363
7	0x3c9d0466	0.019167136
8	0xbcbd25d1	-0.023089321
9	0x3ccb5b4a	0.024823803
10	0x3b7af63b	0.0038293737
11	0xbbf24284	-0.007393183
12	0x3c1dc353	0.009629088
13	0xbbf29d9b	-0.007404042
14	0xbccd8cc0	-0.025091529
15	0xbd0c55cd	-0.034261514
16	0xbc97393b	-0.018459907
17	0xbd0beab0	-0.034159362
18	0x3b80f007	0.0039348635
19	0x3cc26710	0.023730785
20	0xb961e801	-0.000215441
21	0x39dbc325	0.0004191633
22	0x3cc75f39	0.024337398
23	0xbac309da	-0.0014880255
24	0x3c92a46e	0.017900672
25	0x3c913d4c	0.017729424
26	0xbb268c30	-0.0025413148
27	0xbca29233	-0.019845104
28	0x3ce12c33	0.027486896
29	0x3cce8679	0.025210606
30	0x3c14daa6	0.009085333
31	0xbcb2600f	-0.02177432
32	0x3c0f6554	0.008752186
33	0x3ce29686	0.027659666
34	0xbc8ea88f	-0.01741436
35	0xbcc9a102	-0.024612907
36	0x3cb2cf62	0.021827403
37	0xbcd10c55	-0.025518576
38	0x3c751a36	0.014959862
39	0xbcd38325	-0.02581937
40	0xbc8e6188	-0.01738049
41	0x3d23e76c	0.040015623
42	0x3a9ab4d5	0.001180316
43	0xbbbf4ee2	-0.005838261
44	0xbd19e80c	-0.037574813
45	0xbccb5bb7	-0.024824006
46	0xbce6eb71	-0.02818844
47	0x3cc5d636	0.024149995
48	0xbb3a9e8b	-0.0028475847
49	0x3c23a43e	0.009987889
50	0xbb8dc36e	-0.0043262755
51	0xbcf47904	-0.029842861
52	0x3ca57785	0.020198593
53	0x3b1c4418	0.0023844298
54	0x3ce2b7a4	0.027675457
55	0xbc1a6c86	-0.009425288
56	0xbd2bdc8c	-0.041958377
57	0x3cbe9f08	0.023269191
58	0xbca3038d	-0.019899154
59	0x3cb248cc	0.021763228
60	0x3cd4960b	0.025950452
61	0xbc52e43e	-0.0128718
62	0x3c617458	0.013760649
63	0x3c2e1bdf	0.010626762

layer2.0.weight f4 [32, 64]
0	0xbd8a2998	-0.06746215
1	0xbbfbd83f	-0.0076856907
2	0xbb949d20	-0.0045353323
3	0x3be73243	0.007055552
4	0x3d3ef517	0.046620455
5	0xbd9a9173	-0.075472735
6	0x3daf2451	0.08551849
7	0xbc1f5783	-0.009725454
8	0xbd6ae720	-0.057349324
9	0xbdad8589	-0.084727354
10	0x3cadb15f	0.021202741
11	0x3d1c775e	0.038199775
12	0xbd3b1532	-0.04567451
13	0xbd78b88b	-0.06072287
14	0x3d482acf	0.04886895
15	0xbbdd1120	-0.006746426
16	0x3d935502	0.07193948
17	0xbd99e72a	-0.07514794
18	0x3c610c9c	0.013735916
19	0xbdd27c5e	-0.102776274
20	0x3d0fc603	0.035100948
21	0x3cb8500e	0.02249911
22	0xbd0bf228	-0.034166485
23	0x3d65eda6	0.056134842
24	0xbdf740d0	-0.12072909
25	0x3b9967a3	0.004681544
26	0x3d77bfba	0.06048558
27	0x3d3afaca	0.045649327
28	0x3a778440	0.0009442009
29	0xbd2acd85	-0.041699905
30	0x3d090a51	0.033457104
31	0xbdbea004	-0.09307864
32	0x3ce3df04	0.027816303
33	0xbdabde08	-0.083919585
34	0x3daf4910	0.085588574
35	0xbdc6cf1f	-0.09707474
36	0x3cb14b26	0.021642279
37	0x3de1482c	0.11000094
38	0x3d0dfc72	0.03466458
39	0xbdec3b81	-0.11534787
40	0x3d899151	0.0671717
41	0x3d9ca0d0	0.0764786
42	0xbdc796f4	-0.09745589
43	0x3dbedc3b	0.093193494
44	0x3d3ad2ce	0.045611195
45	0x3d33ca5d	0.04389416
46	0xbc6288d2	-0.013826566
47	0xbc2bfbd1	-0.010497049
48	0xbd3cebc5	-0.046123285
49	0x3c8bb79b	0.017055323
50	0xbe6a29d6	-0.22867522
51	0x3cb6e52c	0.022326075
52	0xbce7e4d9	-0.028307365
53	0xbdaa8b58	-0.08327359
54	0xbccd6043	-0.025070315
55	0xbcef92a0	-0.029244721
56	0x3d4d3fae	0.050109558
57	0x3c8b8764	0.017032333
58	0x3cfa48d7	0.03055231
59	0x3d95c607	0.07313161
60	0xbdc5f981	-0.0966673
61	0x3d500a11	0.05079085
62	0xbd9d266a	-0.076733425
63	0xbe0a51f9	-0.13507833
64	0xbe2223a3	-0.15833907
65	0xbd2a0c3b	-0.04151557
66	0x3ce934c4	0.028467543
67	0xbde7cbbb	-0.113181554
68	0xbd2d7deb	-0.042356413
69	0x3d0c7a19	0.03429613
70	0x3da676ef	0.081281535
71	0x3dbae39f	0.091254465
72	0x3d94170a	0.07230957
73	0xbbaa3e63	-0.0051954254
74	0xbda678be	-0.081284985
75	0x3d35e7f4	0.04441066
76	0x3c86f41a	0.016473819
77	0x3a48b194	0.0007655856
78	0xbd95aa09	-0.07307822
79	0x3d559667	0.052145388
80	0xbb8fe4a3	-0.0043912693
81	0x3cbbb23b	0.022912135
82	0x3da4e77b	0.08051964
83	0x3c172fd8	0.009227715
84	0xbdc7220a	-0.09723289
85	0xbdada5cb	-0.08478888
86	0xbe39ca14	-0.18143493
87	0x3d7cb587	0.061696555
88	0xbd895289	-0.067051955
89	0xbdde770a	-0.10862549
90	0x3dbc247a	0.09186645
91	0xbdab0ead	-0.083524086
92	0x3dcf185f	0.1011207
93	0xbe123581	-0.14278223
94	0x3d40020d	0.046876956
95	0xbcd88a6f	-0.026433198
96	0x3da2e269	0.079533406
97	0xbdf0acd7	-0.117517166
98	0xbd34f5b4	-0.044179633
99	0x3d41ff69	0.04736272
100	0xbc3ad960	-0.011404365
101	0xbdb1b296	-0.08676641
102	0xbc2379bf	-0.009977757
103	0xbc04b774	-0.008100379
104	0xbb771a14	-0.0037704753
105	0x3d8b8e17	0.06814211
106	0xbe137738	-0.14400947
107	0xbdc58e1f	-0.09646248
108	0x3b194010	0.0023384131
109	0xbd0ccaee	-0.034373216
110	0x3d900b04	0.07033351
111	0xbb7ad9be	-0.0038276757
112	0x3cba977f	0.022777317
113	0x3d9f6654	0.077831894
114	0xbccca714	-0.024982013
115	0x3dc585b8	0.096446455
116	0xbd05b532	-0.032643504
117	0xbdab6ba1	-0.08370138
118	0x3d15f182	0.036607273
119	0xbcf75826	-0.0301934
120	0x3c9df7b7	0.019283159
121	0x3d11f005	0.03562929
122	0xbc69f870	-0.0142804235
123	0xbcde72dc	-0.027154379
124	0xbe0304c7	-0.12794791
125	0xbd9635d4	-0.07334486
126	0xbdb9af5e	-0.09066652
127	0xbcf3e065	-0.029770086
128	0x3cd724dc	0.026262693
129	0x39fe17a5	0.00048464272
130	0x3d799297	0.060930815
131	0x3d1dd417	0.038532343
132	0x3db9b2e2	0.09067322
133	0xbd7691cf	-0.060197648
134	0x3d8527a9	0.06501705
135	0x3c077539	0.008267694
136	0xbe028de8	-0.12749445
137	0x3d5dba41	0.054132704
138	0x38028003	3.1113635e-05
139	0x3c88c548	0.016695634
140	0x3d94d683	0.07267477
141	0xbe02844b	-0.12745778
142	0x3dbc496f	0.09193694
143	0x3d25d7b8	0.04048893
144	0xbd07774c	-0.033072755
145	0xbd0b9dcd	-0.034086037
146	0x3c5f1c95	0.013617654
147	0xbde322b1	-0.11090601
148	0x3deab9fe	0.114612564
149	0x3d83bf46	0.06432967
150	0x3ddce929	0.10786659
151	0x3d7aff5c	0.061278686
152	0xbc178376	-0.009247651
153	0x3dd7103a	0.10501142
154	0xbc0a15b8	-0.00842803
155	0x3d973c92	0.073846
156	0xbd5233f5	-0.05131908
157	0xbc83d193	-0.016091144
158	0xbb48fcf1	-0.0030668343
159	0xbdf4a005	-0.11944584
160	0x3d32c02b	0.043640297
161	0x3df8f38d	0.121558286
162	0x3ce05d6c	0.027388297
163	0x3daf96c6	0.085736796
164	0x3a4251d4	0.0007412706
165	0x3df77c67	0.12084275
166	0xbdb3004e	-0.087402925
167	0x3d19c3ef	0.037540372
168	0xbb54ef32	-0.0032491204
169	0x3beeb924	0.007285254
170	0xbd09ee73	-0.03367467
171	0xbdbfc4fe	-0.09363745
172	0xbbf234cd	-0.0073915482
173	0x3dc6666b	0.096875034
174	0xbd036910	-0.032082617
175	0x3d3b608b	0.045746367
176	0x3d988c98	0.07448691
177	0x3cfba9a1	0.030720534
178	0xbe4a4460	-0.19752645
179	0x3c583c9d	0.013198045
180	0x3dc79ba9	0.09746487
181	0x3d6c9816	0.057762228
182	0xbddd127d	-0.10794542
183	0x3d89d4ff	0.06730079
184	0xbcb23f73	-0.02175877
185	0x3ceca923	0.028889244
186	0x3d5b741e	0.053577535
187	0x3d79fe2f	0.061033424
188	0xbd5a6e26	-0.053327702
189	0x3d37a027	0.044830468
190	0xbd9bf419	-0.07614917
191	0xbdda898d	-0.10670767
192	0x3b04b559	0.0020249693
193	0x3db51533	0.08841934
194	0xbd814eab	-0.06313833
195	0x3d29cac3	0.041453134
196	0xbce347e0	-0.027744234
197	0x3c170195	0.009216686
198	0x3cc0bea1	0.023528399
199	0x3d86f421	0.06589533
200	0xbd59d5c5	-0.053182382
201	0xba63172f	-0.00086628174
202	0xbda57a1b	-0.080799304
203	0xbd61cb75	-0.055125672
204	0xbdbb4a95	-0.09145085
205	0x3d411825	0.047142167
206	0x3ba3e6b4	0.005001867
207	0x3dc20e79	0.09475417
208	0xbdaaff48	-0.08349472
209	0x3dbf7115	0.093477406
210	0xbca9073e	-0.020633336
211	0x3da54625	0.0807002
212	0xbcffd67b	-0.031230202
213	0xbd860f99	-0.06545944
214	0xbdb644ba	-0.08899827
215	0xbdcfa63f	-0.10139131
216	0x3d94b8b3	0.07261791
217	0x3dd3f601	0.10349656
218	0x3dbbb35e	0.09165071
219	0x3db6854b	0.08912142
220	0x3d44ffe0	0.048095584
221	0xbd939a7e	-0.072072014
222	0xbd289935	-0.041161735
223	0x3d092d91	0.03349072
224	0x3d344070	0.044006765
225	0x3df49d61	0.1194408
226	0x3d8d3c85	0.06896309
227	0xbd510420	-0.051029325
228	0xbd814f12	-0.063139096
229	0xbddea64e	-0.10871564
230	0x3d80251c	0.06257078
231	0xbdf48ddf	-0.11941122
232	0x3d8be5ff	0.06830978
233	0x3d36f563	0.044667613
234	0x3da47781	0.08030606
235	0xbda48559	-0.080332465
236	0x3d407af6	0.046992265
237	0x3d349bf6	0.04409405
238	0x3d882a23	0.06648662
239	0x3da5ccfd	0.08095739
240	0x3e024151	0.12720229
241	0xbcd51248	-0.026009694
242	0x3c897075	0.016777257
243	0xbbd5365c	-0.0065067243
244	0xbd2a1b2b	-0.041529816
245	0x3c39a3ea	0.011330584
246	0xbdaa23e6	-0.08307628
247	0xbdec99a7	-0.11552744
248	0x3d7f6872	0.062355466
249	0x3dab84f7	0.083749704
250	0x3e3651b6	0.17804608
251	0xbc86919a	-0.01642685
252	0xbd16a03f	-0.036773916
253	0xbd357eb6	-0.044310294
254	0x3ded4c91	0.115868695
255	0x3d218fc1	0.039443735

layer2.0.bias f4 [32]
0	0xbda39b6d	-0.079886295
1	0xbd9f787f	-0.07786655
2	0xbd6e3ccc	-0.05816345
3	0x3e305d86	0.17223176
4	0x3da66b59	0.08125944
5	0xbdcc844f	-0.09986173
6	0xbc8ba817	-0.017047925
7	0xbcbb8e16	-0.0228949
8	0xbb9e1c20	-0.00482513
9	0x3d6494bd	0.05580591
10	0x3ddf04b4	0.10889569
11	0xbd85521b	-0.06509801
12	0x3d4e9140	0.05043149
13	0x3c80f6fa	0.015742768
14	0x3d65c5a1	0.056096677
15	0xbd5b91a7	-0.0536057
16	0xbc1274b5	-0.008938958
17	0x3de3c9e6	0.111224934
18	0xbd81a4cb	-0.0633026
19	0x3d0389c9	0.032113824
20	0x3cc97d5b	0.024595907
21	0xbc91648b	-0.017748138
22	0xbda530c1	-0.0806594
23	0xbc0c3aee	-0.008558972
24	0xbde5bf2e	-0.11218105
25	0x3d86cf13	0.06582465
26	0x3dad55c5	0.08463625
27	0x3cfb99d5	0.030713001
28	0x3d8c4695	0.068494
29	0x3cc6e392	0.024278436
30	0x3d9c3430	0.076271415
31	0xbd89943f	-0.06717729

classifier.weight f4 [5, 32]
0	0xbf4b97cd	-0.79528505
1	0xbf2ff22f	-0.6872892
2	0xbf413eed	-0.7548664
3	0x3efdcce4	0.49570382
4	0x3f27d921	0.6556569
5	0x3f12d776	0.5736002
6	0xbf44a5dc	-0.7681558
7	0xbf467dde	-0.7753581
8	0xbf5ea876	-0.869758
9	0x3f155125	0.5832694
10	0x3f3eb466	0.74494016
11	0xbf37770f	-0.71666044
12	0xbf427d2c	-0.7597225
13	0xbf518f9a	-0.81859744
14	0xbf41abf0	-0.7565298
15	0xbf47926b	-0.7795779
16	0xbf46c3b7	-0.7764239
17	0xbf23e414	-0.64019895
18	0x3da55ed8	0.08074731
19	0x3f358ea7	0.70920795
20	0x3f166d15	0.58760196
21	0x3f47b455	0.7800954
22	0xbf352f4d	-0.707753
23	0x3eb77747	0.3583319
24	0xbf51373c	-0.81724906
25	0xbf46d30a	-0.7766577
26	0x3f1e536f	0.6184606
27	0xbf303034	-0.6882355
28	0xbf3ce99f	-0.7379398
29	0xbf526ba2	-0.82195485
30	0xbf0390e5	-0.51392967
31	0xbf37277e	-0.71544635
32	0x3f308f6e	0.68968856
33	0xbf30ab12	-0.6901103
34	0x3f40386e	0.75086105
35	0x3e6dd5f9	0.23226155
36	0xbf44d15a	-0.76881945
37	0xbf5a2730	-0.85216045
38	0xbf2c1c87	-0.6723103
39	0x3f3c391f	0.7352466
40	0xbf5a715c	-0.8532922
41	0xbf584bfe	-0.84490955
42	0xbf431708	-0.7620702
43	0x3f3d0c40	0.73846817
44	0x3f46dd9f	0.77681917
45	0x3f31f348	0.6951184
46	0x3f475241	0.77859885
47	0x3f10a05e	0.564947
48	0xbf25ea3c	-0.6481054
49	0xbf2068d2	-0.62659943
50	0xbd1cdb9c	-0.038295373
51	0xbf02f67d	-0.5115736
52	0xbf1dc1d1	-0.61623865
53	0x3f3a7cc2	0.72846615
54	0x3f3d7d22	0.7401906
55	0xbf03829b	-0.51371163
56	0x3f372a7b	0.71549195
57	0x3f33cbe6	0.70233
58	0x3f2c5c7a	0.6732861
59	0xbf381cb7	-0.71918815
60	0xbf27d7e0	-0.65563774
61	0x3ea5bec5	0.32372108
62	0xbf301fe7	-0.6879868
63	0x3f43a023	0.76416224
64	0xbf3a943e	-0.7288245
65	0x3f08ae6d	0.5339115
66	0xbf38f918	-0.72255087
67	0x3f24d1fc	0.6438291
68	0xbf3365ee	-0.7007741
69	0x3f3c07b5	0.7344926
70	0x3f3c6d37	0.7360415
71	0x3f34b03f	0.7058143
72	0xbf0e86ea	-0.5567461
73	0xbf4684e9	-0.77546555
74	0xbf2d0288	-0.6758199
75	0xbf277a1c	-0.654207
76	0xbf3a3418	-0.7273574
77	0xbf598391	-0.8496638
78	0xbf41d87a	-0.7572094
79	0x3f3713c0	0.7151451
80	0xbf2aa65d	-0.666601
81	0xbf229db8	-0.6352191
82	0xbd81c154	-0.063357025
83	0xbf2db0c2	-0.67847836
84	0xbf6f46ca	-0.9346739
85	0xbf2c6184	-0.673363
86	0x3f263179	0.6491924
87	0xbf5bc727	-0.8585076
88	0xbf4f85f3	-0.81063765
89	0x3f1f797c	0.62294745
90	0xbf458a83	-0.7716448
91	0x3f4fa89a	0.8111664
92	0xbf3ceae1	-0.73795897
93	0x3f3d55cc	0.7395904
94	0x3f32f5df	0.6990642
95	0xbf36e111	-0.71437174
96	0x3f2158e1	0.63026243
97	0x3f496828	0.78674555
98	0x3f14064f	0.57822126
99	0xbde8a211	-0.11359037
100	0x3f2e1a96	0.68009317
101	0x3f24e4d3	0.6441166
102	0x3f3433dc	0.7039163
103	0x3f1f0f9b	0.6213319
104	0x3f439d0a	0.764115
105	0xbf43e5a7	-0.76522297
106	0x3f2b47f0	0.6690664
107	0x3f401d67	0.75044864
108	0x3f4d5aed	0.80216867
109	0xbf26b01e	-0.65112484
110	0xbf2908e1	-0.66029173
111	0xbf2cdaeb	-0.6752154
112	0x3f4b390a	0.7938391
113	0x3f515e01	0.81784064
114	0x3da3da03	0.08000567
115	0xbf1211a7	-0.57058185
116	0x3f31b37b	0.6941449
117	0xbf2bb12a	-0.67067206
118	0xbf3a795d	-0.72841436
119	0xbf43e242	-0.7651712
120	0xbf4db8be	-0.8036002
121	0xbf16ee19	-0.5895706
122	0x3f31b13a	0.6941105
123	0xbeefe15d	-0.46851626
124	0x3f46c0d9	0.7763801
125	0x3f29e4df	0.66364855
126	0xbf06d05b	-0.52661675
127	0xbf3c211b	-0.73488015
128	0xbf469e0f	-0.7758493
129	0xbf3917c1	-0.7230187
130	0x3f3eb9bd	0.74502164
131	0xbf1b99dd	-0.6078165
132	0xbf47e3d3	-0.7808201
133	0xbf348b23	-0.70524806
134	0xbf30cb2b	-0.6906001
135	0xbf398cf8	-0.72480726
136	0x3f355f26	0.7084831
137	0x3ef7197d	0.48261634
138	0xbf3a5a18	-0.7279372
139	0xbf391014	-0.7229016
140	0xbf29b1e3	-0.6628706
141	0x3f1a8707	0.60362285
142	0xbf126c95	-0.57196933
143	0x3f313773	0.69225234
144	0x3f39f33e	0.72636783
145	0x3f42906d	0.76001626
146	0x3dc7b37b	0.0975103
147	0x3f2ee0cf	0.6831178
148	0xbebbfc33	-0.3671585
149	0xbf316857	-0.69299835
150	0x3f0501e7	0.5195603
151	0x3f3791f9	0.7170711
152	0x3f12afd7	0.5729956
153	0xbf275579	-0.65364796
154	0xbf5439e6	-0.82900846
155	0x3f33a320	0.70170784
156	0x3f123965	0.5711883
157	0xbf50b861	-0.8153134
158	0x3f2ceab9	0.6754566
159	0x3f237cbf	0.6386222

classifier.bias f4 [5]
0	0x3e815786	0.25262088
1	0xbdd5e5c2	-0.104442134
2	0xbd50b3ba	-0.05095265
3	0xbe95573c	-0.29168117
4	0xbc7ec9c9	-0.015551039
