results/CIFAR100_dataset/contrastive_loss/margin_2.0_first_model_nb_classes_50_data_percent_100/model_ckpt.pt (torch_old, 802778 bytes, 6 tensors)

layer1.0.weight f4 [64, 3072]
0	0xbc23cbf0	-0.009997353
1	0x3b86c7ff	0.004113197
2	0xbc886830	-0.016651243
3	0x3c504c18	0.012713455
4	0x3c4cd37c	0.012501594
5	0x3b03f172	0.0020132926
6	0x3c573a77	0.013136498
7	0xbc3510a4	-0.011051331
8	0xbca97952	-0.020687733
9	0xbc7c25a8	-0.015389837
10	0x3c27edd3	0.010249573
11	0xbca23e49	-0.01980509
12	0x3c50955e	0.012730924
13	0xbc9d506a	-0.019203383
14	0x3c215909	0.009847888
15	0xbca08354	-0.019593872
16	0xbc24dd48	-0.010062523
17	0x3c452770	0.012033328
18	0x3c5060a4	0.012718353
19	0x3c404aa3	0.011736545
20	0x3c4535a5	0.012036716
21	0x3c61a693	0.013772625
22	0xbc582918	-0.013193391
23	0x3c21f860	0.009885877
24	0xbbf439b9	-0.00745317
25	0x3c382d48	0.011241265
26	0x3c737d88	0.014861472
27	0xbc1fc791	-0.00975217
28	0xbc780add	-0.015139309
29	0xbc89b032	-0.01680765
30	0xbc3bdc35	-0.011466076
31	0xbc5539d8	-0.013014279
32	0xbc41a80a	-0.011819849
33	0xbbe10537	-0.0068670767
34	0x3c81a8d7	0.01582758
35	0x3b50ff52	0.0031890464
36	0xbb9fc2f6	-0.004875536
37	0x3c88314b	0.016625067
38	0x3c401e0a	0.011725912
39	0x3b51453b	0.0031932134
40	0xbc40b5df	-0.011762111
41	0xba575032	-0.0008213549
42	0x3baab17b	0.0052091456
43	0x3c3a0f46	0.0113561805
44	0x3c45ab99	0.012064838
45	0x3c458178	0.012054794
46	0xbbba2308	-0.0056804456
47	0x3bfef6a3	0.007780866
48	0x3b82b7b4	0.0039891843
49	0xbc86081e	-0.016361292
50	0x3c7500ba	0.0149537865
51	0xbc5fc000	-0.013656616
52	0x3bc9ce2b	0.0061586103
53	0x3aa11b5b	0.0012291478
54	0x3bc91701	0.0061367755
55	0x3c2debc3	0.010615292
56	0x3c809278	0.015694842
57	0xbc3dfa0c	-0.01159526
58	0x3c80850b	0.01568844
59	0x3ba66717	0.0050782072
60	0x3bafc8bb	0.005364505
61	0x3b87da5c	0.0041459035
62	0xbc978917	-0.018497987
63	0xbc4b3f4a	-0.012405226
64	0xbbb0ee7d	-0.005399524
65	0x3bc84610	0.0061118677
66	0xbad7efc4	-0.0016474654
67	0xbc70a9b0	-0.014688894
68	0x3b4e5ab5	0.003148717
69	0x3b55aa34	0.003260267
70	0x3c8d226a	0.017228324
71	0xbbc27f0d	-0.005935556
72	0x3bd6bbe2	0.006553159
73	0x3bca89ac	0.0061809625
74	0xbc09c9b2	-0.008409904
75	0x3bdf12dc	0.006807668
76	0x3be76abb	0.007062284
77	0xbc2bcfbf	-0.010486542
78	0x3c052317	0.008126042
79	0xbbbe1b64	-0.005801605
80	0xbc3e17da	-0.011602366
81	0x3c7032f0	0.014660582
82	0x3c225b6a	0.00990949
83	0xbc1eb43c	-0.009686526
84	0x3c602926	0.013681686
85	0xba9ecde3	-0.0012115802
86	0x3c660a2d	0.014040512
87	0xbb863553	-0.004095712
88	0x3bae378a	0.0053166794
89	0xbb61deed	-0.003446515
90	0x3c54956f	0.012975081
91	0x3b71c260	0.0036889538
92	0x3c1597f9	0.009130471
93	0xbc6e13df	-0.014531105
94	0xbb7495b1	-0.0037320668
95	0xbca4e6c7	-0.020129574
96	0xbc8f4b54	-0.017491974
97	0xbc090d2b	-0.008364956
98	0xbbc3a6d1	-0.005970814
99	0xbc301849	-0.0107479775
100	0x38aaa123	8.136246e-05
101	0xbbca6520	-0.006176606
102	0x3c9ab3d1	0.018884571
103	0x3b0689a3	0.0020528815
104	0xbbab3104	-0.005224349
105	0xbbdf489b	-0.006814075
106	0x39e3505c	0.00043356686
107	0xbc8fafe6	-0.01753993
108	0x3c5c0bfd	0.013430593
109	0xbc80a46c	-0.015703402
110	0x3c88735c	0.01665657
111	0xbc80fb08	-0.015744701
112	0x39b7fc8b	0.0003509264
113	0xba04034b	-0.0005035891
114	0x3bfd90c1	0.0077382033
115	0x3c2d24bf	0.010567843
116	0xbc973df9	-0.018462168
117	0xbc80b367	-0.015710546
118	0xbc2832a7	-0.010265983
119	0xbc9f9e20	-0.01948458
120	0x3bb7e0a7	0.0056114974
121	0xb9d498e8	-0.00040549715
122	0xbadd840f	-0.0016900318
123	0xbc674d62	-0.014117571
124	0x3c768af5	0.015047778
125	0xbb434e57	-0.0029801333
126	0xbbc74dde	-0.0060822805
127	0x3966d279	0.00022012916
128	0x3c2838b4	0.010267425
129	0xbc24614f	-0.010032966
130	0x3c27f409	0.010251054
131	0x3c36369d	0.011121419
132	0x3c36bc20	0.011153251
133	0x3c7b9c51	0.015357093
134	0xbc308fa4	-0.010776434
135	0xbc8e7d94	-0.017393865
136	0xbb321ba2	-0.0027177115
137	0xbcb1f615	-0.021723786
138	0xbc96e772	-0.018420909
139	0xbca154c7	-0.019693745
140	0xbc15c1a4	-0.009140406
141	0xba9ab526	-0.0011803254
142	0x3c2b76b6	0.010465315
143	0xbc9c58d3	-0.019085323
144	0xbc68f966	-0.0142196175
145	0xbc9a9f47	-0.018874777
146	0x3c82eacd	0.015981102
147	0xbc913fc3	-0.0177306
148	0xbc84f6b1	-0.016230913
149	0xbcacfbdd	-0.021116192
150	0xbc5944ac	-0.013261002
151	0xbc308fef	-0.010776504
152	0x3b98d624	0.0046641994
153	0x3b04e272	0.0020276573
154	0x3c4afc8c	0.012389313
155	0xba4d49a3	-0.0007831102
156	0x3bb29ef7	0.005451079
157	0xbc66c340	-0.014084637
158	0xbbeb255a	-0.0071760835
159	0xbc24959c	-0.010045435
160	0xbc9342ba	-0.017976154
161	0x3bb90284	0.005646052
162	0xbc0d9eab	-0.008643786
163	0x3c0d4b93	0.008623975
164	0x3c893f24	0.01675374
165	0xbc4b9ab4	-0.012427021
166	0x3b3363fd	0.002737283
167	0xbc5b5d61	-0.0133889625
168	0x3c501950	0.0127013475
169	0xbcad719d	-0.02117234
170	0x3b882d1f	0.0041557695
171	0x3c41f88c	0.011839043
172	0x39cd69b4	0.00039179402
173	0xbb6102a1	-0.0034333842
174	0xb9db74c8	-0.00041857944
175	0xbcc65ce9	-0.024214225
176	0x3c3cf1ec	0.011532288
177	0xbc741175	-0.01489674
178	0xbc5242bd	-0.012833294
179	0xbc260ff1	-0.010135637
180	0xbc42b5c2	-0.011884155
181	0x3b44f1d2	0.0030051363
182	0xbc189f47	-0.009315318
183	0xbcbbce49	-0.022925513
184	0x3af807c1	0.0018923209
185	0xbc506269	-0.012718775
186	0xbc1f1276	-0.009708991
187	0xbb501ce8	-0.003175551
188	0xbbfd45ef	-0.007729284
189	0x3c0c5163	0.008564326
190	0x3a4bd7af	0.0007775975
191	0xbc99e9c4	-0.018788226
192	0x3c486cea	0.012232998
193	0x3be1f5e9	0.00689577
194	0xbbec4446	-0.0072102873
195	0x3c5fe2d5	0.013664921
196	0xbc58c6a5	-0.013230954
197	0x3c6c5805	0.014425282
198	0x3c9ffa86	0.019528639
199	0xbc379e77	-0.011207215
200	0xbca40711	-0.0200229
201	0x3c3523cc	0.011055898
202	0xbc609d2b	-0.013709347
203	0xbb8e47ee	-0.004342071
204	0xbc9862a3	-0.018601721
205	0xbc9b3040	-0.018943906
206	0xbc01d971	-0.007925377
207	0xbc340092	-0.010986464
208	0x3b0e8b88	0.0021750648
209	0x3b429e68	0.0029696468
210	0xbbd15578	-0.0063883625
211	0xbca16a36	-0.019703966
212	0xbcce6481	-0.025194408
213	0xbc8ce680	-0.017199755
214	0xbccd95bf	-0.025095819
215	0xbb00ee4d	-0.0019673288
216	0x3c365cf8	0.011130564
217	0xbc0cc256	-0.008591255
218	0x3aac5e6d	0.00131507
219	0x3c6aaf1f	0.014323979
220	0x3c6765bc	0.014123376
221	0x3c1ca311	0.009560362
222	0x3c209b92	0.009802716
223	0xbca5c179	-0.020233857
224	0x3c2b2b2f	0.0104473075
225	0xbcabe1b4	-0.020981647
226	0x3c895cd6	0.0167679
227	0x3b8dd494	0.00432832
228	0x3c3b07c5	0.011415427
229	0xbc148fad	-0.009067458
230	0xbc74dede	-0.014945714
231	0xbc194dfb	-0.009356971
232	0xbb8821a1	-0.0041543995
233	0x39108d40	0.0001378553
234	0xbc3d78e5	-0.011564468
235	0xbb51bb20	-0.0032002404
236	0xbc22959b	-0.009923364
237	0x3bbda69e	0.0057876846
238	0xbc966e92	-0.01836327
239	0x3b6e56fb	0.0036367762
240	0x3ab32c6e	0.0013669857
241	0xbcbace24	-0.022803374
242	0xbc449e4b	-0.012000631
243	0x3c2efd09	0.0106804455
244	0xbc9418ad	-0.018078173
245	0x3b5b880a	0.0033497834
246	0xbcaddcda	-0.021223474
247	0x3c24a5b9	0.010049277
248	0xbc070d1d	-0.008242873
249	0xbbd505c9	-0.006500934
250	0xbb819b10	-0.0039552525
251	0x3c904f38	0.0176159
252	0xbbc45f81	-0.0059928303
253	0xbb01f672	-0.001983073
254	0x3b1866b5	0.0023254578
255	0xbb737c85	-0.0037153077

layer1.0.bias f4 [64]
0	0xbd0da99a	-0.034585573
1	0xbcbb651d	-0.022875363
2	0xbc0af654	-0.008481581
3	0x3bbfe161	0.0058557247
4	0x3c5a50f9	0.013324969
5	0x3c74871a	0.014924789
6	0xbbee560e	-0.007273442
7	0xbcf54f62	-0.02994508
8	0xb999534e	-0.000292445
9	0xbc567fb3	-0.013091969
10	0xbc321326	-0.010868823
11	0x3c311df3	0.010810363
12	0x3bb4ab9d	0.005513622
13	0xbc006f42	-0.007839026
14	0x3bd68a2b	0.0065472326
15	0xbc4671eb	-0.012112121
16	0x3bed6423	0.0072446032
17	0xbce26376	-0.027635317
18	0x3c4e137a	0.012577886
19	0x3c10450f	0.008805527
20	0xbd05b477	-0.032642808
21	0xbc78a1ed	-0.015175325
22	0xbd0c69c1	-0.034280542
23	0xbbbd2864	-0.005772637
24	0xbc06ec10	-0.008234993
25	0xbbc36a2d	-0.005963585
26	0xbc61c41c	-0.013779666
27	0xbcfdd206	-0.030983936
28	0x3c015c23	0.007895502
29	0xbba18b3c	-0.004929928
30	0xbd328164	-0.043580428
31	0xbc2e7ecf	-0.010650351
32	0xbbaf622f	-0.0053522806
33	0x3cb824c5	0.02247847
34	0xbcda297f	-0.026631115
35	0xbd1fb00c	-0.03898625
36	0xbbaea75e	-0.0053300103
37	0x3884919a	6.321371e-05
38	0x3c5ff6f2	0.013669716
39	0xbcfdcc44	-0.03098119
40	0xbc5bc08c	-0.013412606
41	0xbcbcd889	-0.02305247
42	0xbc08a65e	-0.008340446
43	0xbc040dbe	-0.008059917
44	0xbc66b775	-0.0140818255
45	0xbcbcf518	-0.023066089
46	0xbc959a7a	-0.018262137
47	0xbb3a23ab	-0.0028402607
48	0xbcbff8e0	-0.023434103
49	0x3cd0ab0b	0.025472185
50	0x3c970025	0.018432686
51	0xbd19d7ce	-0.037559323
52	0x3ce45473	0.0278723
53	0x3ba863f5	0.005138869
54	0xbc5506e6	-0.013002133
55	0xbc1603f7	-0.009156219
56	0xbc2de08c	-0.010612618
57	0xbc1f808c	-0.009735238
58	0x3b9acd91	0.0047242125
59	0xbbe591e3	-0.0070059164
60	0xbcc3e7dc	-0.02391427
61	0x39411c58	0.00018416473
62	0xbc97ef5f	-0.018546758
63	0xbb90c5f6	-0.00441813

layer2.0.weight f4 [32, 64]
0	0x3d866cfb	0.06563755
1	0x3d706dd0	0.058698475
2	0xbd71d2c0	-0.059038877
3	0x3dac4da4	0.08413246
4	0x3cc1dd1a	0.023665
5	0xbca144d8	-0.019686148
6	0xbdcf3e1b	-0.101192676
7	0x3d1381cb	0.036012452
8	0xbc7a0040	-0.015258849
9	0x3b275d8b	0.0025537934
10	0x3d80dc77	0.0629205
11	0xbdc45ad6	-0.09587638
12	0xbc208935	-0.009798338
13	0xbce94810	-0.028476745
14	0xbe0ee8f1	-0.13956048
15	0x3d95ad5f	0.073084585
16	0x3d507587	0.050893333
17	0xbe03358f	-0.128134
18	0xbe0d661d	-0.13808484
19	0xbdc760f9	-0.09735293
20	0x3d8734f1	0.06601895
21	0x3be516ee	0.006991259
22	0xbdd09434	-0.101845175
23	0xbcf34830	-0.029697508
24	0xbce012be	-0.027352687
25	0xbc2efe3e	-0.010680733
26	0x3c84574d	0.01615491
27	0xbda2de16	-0.07952516
28	0xbcd7febd	-0.026366586
29	0xbdc3bf44	-0.095579654
30	0x3beb6273	0.007183367
31	0xbdc273fa	-0.09494777
32	0x3b2e2b66	0.002657616
33	0x3d911380	0.070837975
34	0xbda686c4	-0.08131173
35	0xbcb2316e	-0.021752086
36	0xbe010f42	-0.12603477
37	0x3d382a6d	0.044962335
38	0xbdc2e500	-0.095163345
39	0x3b7fedce	0.0039051655
40	0x3cc9916b	0.024605474
41	0x3d6b457a	0.057439305
42	0xbd7e75b4	-0.06212397
43	0x3da1fa27	0.07909041
44	0x3d02478c	0.031806514
45	0x3b1870d1	0.0023260603
46	0x3cc4e56d	0.02403518
47	0xbe02fbe7	-0.12791406
48	0x3dcce45a	0.10004492
49	0xbdffb6fe	-0.12486075
50	0xbde415f4	-0.11137
51	0xbc803c96	-0.01565389
52	0x3d9acb34	0.07558289
53	0xbdb7daa5	-0.0897725
54	0x3d9973f0	0.074928164
55	0x3dc253e5	0.09488658
56	0xbac9082e	-0.0015337521
57	0xbb59aa83	-0.0033213205
58	0xbd8adf23	-0.06780841
59	0xbde4492b	-0.11146768
60	0xbd9a0662	-0.07520749
61	0xbc805cf8	-0.015669331
62	0x3c34594e	0.01100762
63	0xbdb39aca	-0.08769758
64	0xbdf3a55b	-0.118967734
65	0xbe128dce	-0.14311907
66	0xbdf4e434	-0.11957589
67	0xbdc1e16a	-0.094668224
68	0xbe040d72	-0.12895754
69	0x3d6a84f8	0.057255715
70	0x3da021c8	0.07818943
71	0x3dabd7a8	0.083907425
72	0xbd255dd8	-0.0403727
73	0xbbb3f5b1	-0.005491935
74	0xbdae2740	-0.0850358
75	0x3bf5e1ac	0.007503709
76	0x3da3d534	0.0799965
77	0x3d0e5dc0	0.034757376
78	0xbddac1eb	-0.10681518
79	0x3d7ff3e5	0.062488455
80	0xbde45a70	-0.11150062
81	0x3db58851	0.08863891
82	0xbc68a140	-0.014198601
83	0xbe14a0dd	-0.1451449
84	0x3d9396c2	0.07206489
85	0x3d681fbb	0.056670886
86	0xbde40613	-0.11133971
87	0x3dc64a16	0.096820995
88	0x3c4ce3ac	0.012505453
89	0xbdee9192	-0.11648859
90	0x3d98c753	0.07459893
91	0x3dcb8743	0.099379085
92	0xbd83bc5b	-0.0643241
93	0x3d5829b1	0.052774135
94	0x3c8e956e	0.017405238
95	0xbc96139a	-0.018319894
96	0x3db0bfa2	0.08630301
97	0xbd873635	-0.06602136
98	0x3dad18cc	0.08451995
99	0x3ce6362d	0.028102005
100	0x3dcc27d1	0.09968532
101	0x3db083aa	0.08618863
102	0x3d4afffd	0.049560536
103	0x3d283c2e	0.041073017
104	0xbdfab126	-0.1224082
105	0x3d45ee34	0.04832287
106	0x3d65dec9	0.056120668
107	0xbdfc9828	-0.12333709
108	0xbdf9bbeb	-0.12194046
109	0xbdb48a34	-0.08815423
110	0x3cb72a75	0.022359112
111	0xbd2968e0	-0.041359782
112	0x3cd47140	0.025932908
113	0xbdcaea3d	-0.09907959
114	0xbd0f6bff	-0.035015102
115	0x3d80e7a7	0.06294184
116	0x3ca53083	0.020164734
117	0xbdbbcac6	-0.09169535
118	0x3da15e12	0.078792706
119	0x3c8c0791	0.017093452
120	0x3d9b4190	0.075808644
121	0x3d676279	0.056490395
122	0xbd66dae6	-0.0563611
123	0x3d7897e7	0.06069174
124	0xbcaf22d6	-0.021378916
125	0xbc89e1cf	-0.016831307
126	0xbc6f13d9	-0.014592134
127	0xbdf76677	-0.120800905
128	0xbdfa6a33	-0.12227287
129	0xbd858c97	-0.06520956
130	0xbd057f78	-0.032592267
131	0x3d9b603e	0.07586716
132	0xbdcfbe38	-0.10143703
133	0xbce0ce7e	-0.027442213
134	0xbda6fdc0	-0.08153868
135	0xbdb8fa08	-0.09032065
136	0xbdedc434	-0.116096884
137	0xbde74daf	-0.11294114
138	0x3d4ea59e	0.050450914
139	0xbd9b8bbd	-0.07595012
140	0xbd805484	-0.0626612
141	0x3d2c2db9	0.042035792
142	0x3d082621	0.033239488
143	0xbd7c8d0b	-0.061657947
144	0x3d4fecc0	0.05076289
145	0xbdc1dfdc	-0.09466526
146	0xbd74bd86	-0.059751056
147	0xbdba37f2	-0.09092702
148	0xbda7cf36	-0.08193819
149	0x3db0d4e0	0.08634353
150	0x3d5bdf61	0.053679828
151	0xbdf0f729	-0.11765892
152	0xbdb037fb	-0.086044274
153	0x3d66d29e	0.056353204
154	0x3d11d0d0	0.03559953
155	0x3d81c633	0.063366316
156	0xbe06b906	-0.13156518
157	0xbda595b5	-0.08085195
158	0xbd808827	-0.06275969
159	0xbd80b8fd	-0.06285284
160	0xbca514f7	-0.020151598
161	0x3d98abd6	0.0745465
162	0xbd95ae5c	-0.07308647
163	0x3befa73f	0.0073136385
164	0xbd772580	-0.060338497
165	0x3dc0a6ee	0.09406839
166	0xbbf06756	-0.0073365374
167	0xbdb217a4	-0.08695915
168	0xbc2c00cb	-0.010498236
169	0xbd9b4030	-0.07580602
170	0xbd20ee53	-0.039289784
171	0xbd5e1874	-0.05422254
172	0x3dee85d8	0.116466224
173	0x3da65114	0.08120933
174	0x3d40674f	0.046973523
175	0x3d523938	0.0513241
176	0xbd589bd8	-0.052883
177	0xbd8e61d5	-0.06952254
178	0xbcd143ad	-0.025544966
179	0x3d6a775e	0.057242744
180	0xbd76afe8	-0.06022635
181	0xbd7a49a2	-0.061105378
182	0x3d2854b3	0.0410964
183	0x3ccc34f8	0.024927601
184	0xbde5caf4	-0.11220351
185	0x3c49b6ae	0.012311621
186	0x3d4369e6	0.047708414
187	0xbc0889bd	-0.008333621
188	0xbdaf89f8	-0.08571237
189	0xbd4c1756	-0.049826942
190	0xbd0a8d7b	-0.033826333
191	0xbcee1068	-0.029060557
192	0x3de29f18	0.11065501
193	0xbcbd9330	-0.023141474
194	0xbdf27b42	-0.11839916
195	0xbdeb2833	-0.11482277
196	0xbd14e412	-0.036350317
197	0xbcc8d853	-0.024517214
198	0xbc905f2b	-0.017623505
199	0xbd4c46d5	-0.04987224
200	0xbd445f9a	-0.047942735
201	0x3dc4ce7d	0.09609697
202	0x3d2bdcb8	0.04195854
203	0xbd46db98	-0.048549265
204	0xbcd3c6b9	-0.025851594
205	0xbc204955	-0.009783109
206	0x3db3f797	0.087874584
207	0xbe0561cf	-0.13025592
208	0xbdff4072	-0.12463464
209	0x3b3bbfd4	0.0028648274
210	0x3d6ab7d0	0.057304204
211	0xbd21c259	-0.039491985
212	0xbbc441e1	-0.0059892987
213	0xbd6d3a44	-0.057916895
214	0x3d9e7bd8	0.07738465
215	0xbdcc226f	-0.09967505
216	0x3d544ead	0.051832844
217	0x3d85434b	0.06506976
218	0x3cd13ede	0.025542673
219	0xbd498e38	-0.049207896
220	0xbdbd87d4	-0.09254423
221	0x3db6ad6c	0.08919796
222	0x3d2cc2cf	0.04217797
223	0xbdbab561	-0.091166265
224	0xbdfd7556	-0.12375896
225	0xbdfd9bc8	-0.123832285
226	0x3d5aab04	0.05338575
227	0x3d8dd9ba	0.06926294
228	0xbda060e3	-0.0783098
229	0xbd292aa3	-0.041300427
230	0xbdbe3ce1	-0.092889555
231	0xbd891e8b	-0.06695279
232	0xbb272a5e	-0.002550743
233	0x3cb9cd31	0.02268085
234	0xbd69a1ce	-0.057039075
235	0x3d18a188	0.037263423
236	0xbd666556	-0.056248985
237	0xbc093327	-0.008374012
238	0xbe05491f	-0.13016175
239	0x3dac2b1a	0.084066585
240	0xbd77eab1	-0.060526554
241	0xbd35a831	-0.044349853
242	0x3da5d99d	0.08098147
243	0xbdefee14	-0.11715332
244	0xbda68a3e	-0.08131836
245	0xbdad29a4	-0.08455208
246	0x3c11d4f8	0.008900873
247	0x3db07cb9	0.08617539
248	0xbdb28547	-0.08716827
249	0xbe0ad410	-0.13557458
250	0xbd360295	-0.044436056
251	0xbdac4345	-0.08411268
252	0x3d492223	0.04910482
253	0xbdde6b87	-0.10860353
254	0x3d2ffead	0.042967487
255	0x3d4e1ddd	0.05032145

layer2.0.bias f4 [32]
0	0xbd864490	-0.06556046
1	0xbd629832	-0.055320926
2	0xbdca07f2	-0.09864797
3	0x3d0e83c2	0.034793623
4	0xbd316706	-0.04331114
5	0xbdc8e9fc	-0.09810254
6	0xbb2a3998	-0.002597427
7	0xb95bd9f0	-0.00020966656
8	0xbd248878	-0.04016921
9	0xbc91d92a	-0.017803747
10	0xbb3b219b	-0.0028553966
11	0x3ad81ad0	0.0016487483
12	0xbcecd900	-0.028912067
13	0x3dbe9651	0.09306014
14	0xbd5a1f05	-0.05325224
15	0x3d8e0e5e	0.06936334
16	0x3d0ac30c	0.033877417
17	0xbe039ec2	-0.1285353
18	0xbdeca751	-0.115553506
19	0xbe00066c	-0.1250245
20	0xbe0b2727	-0.13589154
21	0xbdadcb77	-0.084860735
22	0x3db14394	0.08655468
23	0x3dcc1879	0.09965605
24	0x3d4f3ff1	0.05059809
25	0xbe008acb	-0.12552945
26	0xbe099e7e	-0.13439366
27	0x3da4def3	0.08050337
28	0xbdbdc148	-0.09265381
29	0xbbc5c06b	-0.006034901
30	0x3ab13efc	0.0013522799
31	0xbd8c89ca	-0.06862219

classifier.weight f4 [50, 32]
0	0xbcfcbf67	-0.030852986
1	0x3db7f494	0.089821965
2	0x3e0ce925	0.13760813
3	0xbddc7b09	-0.107656546
4	0x3bd49779	0.0064877835
5	0xbdc1fba5	-0.094718255
6	0xbd75e062	-0.06002844
7	0xbde165b7	-0.11005729
8	0x3def5fa1	0.11688162
9	0xbb25ad68	-0.002528036
10	0x3c80d3c1	0.015725972
11	0x3da9ccab	0.082909904
12	0x3dd767de	0.10517858
13	0x3df5bb15	0.11998574
14	0x3d5613ca	0.052264966
15	0x3dfba8bc	0.12288043
16	0x3c47d8c9	0.012197682
17	0xbd05b9f7	-0.032648053
18	0x3e08f4d0	0.13374639
19	0xbe0f98aa	-0.1402308
20	0xbe25f60d	-0.16207142
21	0x3ddd6833	0.1081089
22	0xbcd07a11	-0.02544883
23	0xbc7b52b5	-0.015339543
24	0x3d8202fa	0.06348224
25	0x3e221f9e	0.15832373
26	0xbe0a962a	-0.13533846
27	0x3dc050a5	0.09390382
28	0x3d164937	0.036690917
29	0x3d6ba051	0.057525937
30	0xbd5ae880	-0.053444386
31	0xbd8d527c	-0.06900498
32	0xbdfe7cc2	-0.124261394
33	0x3df404f3	0.119150065
34	0x3d94b96b	0.07261928
35	0xbe536e4c	-0.20647544
36	0x3de7df2f	0.11321866
37	0xbe12f3bb	-0.14350788
38	0xbd8be3f5	-0.06830589
39	0xbe5da6b2	-0.2164562
40	0x3c1bf3d0	0.009518579
41	0xbe6cb802	-0.23117068
42	0xbe2e4bf6	-0.17021164
43	0x3e132707	0.14370357
44	0xbe27840c	-0.16358966
45	0xbba99b1b	-0.0051759607
46	0xbe64acdb	-0.22331564
47	0x3e36eea8	0.17864478
48	0x3ddfe3ec	0.109321445
49	0x3cf96772	0.030444834
50	0xbc8c8559	-0.017153429
51	0x3e18eb10	0.14933419
52	0x3c49fd1b	0.012328411
53	0xbdb5712b	-0.08859476
54	0x3dd43dc5	0.10363344
55	0xbd0abe92	-0.03387315
56	0xbe45db56	-0.19321951
57	0x3e190c6f	0.1494615
58	0x3e0293e1	0.12751724
59	0xbe221b99	-0.1583084
60	0x3deddf53	0.11614861
61	0x3d1da366	0.038485907
62	0xbcc20b58	-0.02368705
63	0xbd5018c1	-0.050804857
64	0x3e2df7fc	0.1698913
65	0x3d01be02	0.031675346
66	0xbcf94ca7	-0.030432058
67	0xbe2748c1	-0.16336347
68	0x3de78976	0.113055155
69	0x3d2744f8	0.040837258
70	0xbdd6fadd	-0.10497067
71	0x3e690144	0.22754389
72	0x3cc90a6e	0.024541106
73	0xbe51b6f3	-0.20479946
74	0xbe557d44	-0.20848566
75	0xbe02e897	-0.12784038
76	0xbdf11206	-0.11771016
77	0x3d5b8dd5	0.05360206
78	0xbe3122d9	-0.1729845
79	0xbe3b078c	-0.18264598
80	0x3e2b762a	0.16744295
81	0xbe00f095	-0.12591775
82	0x3e15fea6	0.14647922
83	0x3d4bcdb1	0.04975671
84	0xbe1ae669	-0.15126957
85	0xbdde9f35	-0.1087021
86	0xbe6c0429	-0.23048462
87	0xbe10c7f6	-0.14138779
88	0xbe290574	-0.16505986
89	0x3e149ae2	0.14512208
90	0xbd6b0e64	-0.05738677
91	0xbe13dfc1	-0.14440824
92	0x3c93b7fe	0.01803207
93	0xbe2416f1	-0.16024376
94	0x3e367c68	0.17820895
95	0xbd748ff7	-0.059707608
96	0xbe3acd59	-0.18242396
97	0x3dbc2212	0.09186186
98	0xbcf67414	-0.030084647
99	0x3e0f5f89	0.14001288
100	0x3dd0ce7d	0.101956345
101	0xbe14231a	-0.14466515
102	0xbcbe9562	-0.02326459
103	0xbe55564f	-0.20833705
104	0xbde351e2	-0.11099602
105	0x3b3a5a0c	0.002843502
106	0x3ddd1980	0.10795879
107	0xbe34f5c0	-0.17671871
108	0x3bc22624	0.005924957
109	0xbd635947	-0.055505063
110	0xbe03d898	-0.12875593
111	0x3e2cd92e	0.16879722
112	0xbdaed318	-0.08536357
113	0xbe3d3ece	-0.1848099
114	0xbddcff24	-0.10790852
115	0xbdf3da1a	-0.11906834
116	0x3ce277cb	0.027645012
117	0xbdb33132	-0.08749618
118	0x3e19881e	0.14993331
119	0xbb8a010a	-0.0042115496
120	0x3d82bb87	0.06383424
121	0xbe399d1c	-0.18126339
122	0x3da2f539	0.07956929
123	0x3dfec771	0.12440384
124	0x3d97d0e7	0.07412892
125	0xbda3c7fd	-0.07997129
126	0xbe1ba8af	-0.15201066
127	0xbdeedebf	-0.11663579
128	0xbdb4e3e2	-0.08832528
129	0xbe10aafc	-0.14127725
130	0xbe1be6e8	-0.15224802
131	0xbcfebda6	-0.03109629
132	0xbdfd9724	-0.123823434
133	0xbe644499	-0.22291793
134	0x3d304689	0.043036018
135	0x3c85bb2f	0.016324608
136	0xbe0e9bbf	-0.139266
137	0xbe585f4c	-0.21130103
138	0xbe3de7e2	-0.18545488
139	0xbd671358	-0.056414932
140	0xbdb6e264	-0.08929899
141	0xbce1005f	-0.027465997
142	0x3cefb8c7	0.029262913
143	0xbe1d0d0b	-0.15337007
144	0x3ccf5d09	0.025312917
145	0x3dc54ab9	0.09633393
146	0x3dbc4d18	0.09194392
147	0xbc019e66	-0.0079113
148	0x3d89f10b	0.067354284
149	0xbe2e0e2f	-0.16997598
150	0xbe6ec391	-0.2331679
151	0x3d4441e0	0.047914386
152	0x3dd4c874	0.10389796
153	0xbdbf31ac	-0.09335646
154	0xbe2c28d1	-0.16812445
155	0xbe1dffe6	-0.15429649
156	0xbe358ba9	-0.17729057
157	0x3dff122f	0.1245464
158	0xbe6857f1	-0.22689797
159	0x3cefe976	0.029286128
160	0xbd245124	-0.040116444
161	0x3e234d7b	0.15947525
162	0xbe550a79	-0.20804776
163	0x3db37ab1	0.08763636
164	0xbe35f45d	-0.17768998
165	0x3d8e472c	0.06947169
166	0xbdd9ffff	-0.106445305
167	0x3e38938f	0.18025039
168	0xbc5d3c85	-0.0135031985
169	0x3d5661b4	0.05233927
170	0x3d05933f	0.032611128
171	0xbc58a0f6	-0.01322197
172	0xbd4988d1	-0.049202744
173	0xbbbe7f29	-0.0058134985
174	0xbc8b752f	-0.01702365
175	0x3d66886e	0.056282453
176	0x3d98fbce	0.07469903
177	0x3dcd0044	0.10009816
178	0xbbcc74bc	-0.0062395018
179	0xbc7f7720	-0.015592366
180	0xbd633138	-0.05546686
181	0xbd522c19	-0.051311586
182	0xbe205ebd	-0.1566114
183	0x3dd294bb	0.10282274
184	0x3e459614	0.19295532
185	0xbc2442a2	-0.010025652
186	0x3c3a7800	0.011381149
187	0xbdcd35a7	-0.10019999
188	0xbe26589c	-0.1624474
189	0x3b73e25b	0.0037213776
190	0xbe0d9d34	-0.138295
191	0xbcbb184b	-0.022838732
192	0xbdd6b5d5	-0.104839005
193	0xbe4371af	-0.19086336
194	0xbd62d4bb	-0.055378657
195	0xbe44093c	-0.19144148
196	0xbcd0fde7	-0.025511695
197	0xbe8596d4	-0.26091635
198	0xbe1c1b50	-0.15244794
199	0xbe139a34	-0.14414293
200	0xbd78b114	-0.06071575
201	0xbe220f73	-0.15826206
202	0xbe1cbccb	-0.15306394
203	0x3da10b98	0.078635395
204	0xbe24e800	-0.16104126
205	0xbc8d1620	-0.017222464
206	0xbe488774	-0.19582921
207	0x3d4843d1	0.0488928
208	0x3d6cfe80	0.057859898
209	0xbe22d3f7	-0.1590117
210	0xbcd2a054	-0.025711216
211	0xbd891603	-0.066936515
212	0x3b280b0d	0.0025641352
213	0xbcb2446e	-0.021761145
214	0xbe66742f	-0.22505258
215	0x3b758f16	0.003746932
216	0x3e0fa079	0.14026059
217	0xbdebd5b2	-0.115153685
218	0x3dbbb524	0.09165409
219	0xbe070ba1	-0.1318803
220	0xbe4916af	-0.1963756
221	0x3c843f93	0.016143596
222	0xbe920844	-0.2852193
223	0xbc62ce9e	-0.013843207
224	0x3d003549	0.031300817
225	0x3d5b77e4	0.053581133
226	0x3de22544	0.11042264
227	0xbe4f30f2	-0.20233515
228	0x3dec646a	0.1154259
229	0xbcf2440f	-0.029573468
230	0xbd456006	-0.04818728
231	0x3d664966	0.056222342
232	0x3d9853e8	0.07437879
233	0x3d20e605	0.039281864
234	0xbd5af492	-0.053455897
235	0xbd6cccdd	-0.05781256
236	0x3d11c5b8	0.03558895
237	0xbd83ff1e	-0.06445144
238	0xbe6f9e07	-0.23400126
239	0x3d5b314f	0.05351382
240	0x3e443ab2	0.19163015
241	0x3d1adaa0	0.037806153
242	0xbe2a960b	-0.166588
243	0xbe1bc874	-0.15213186
244	0xbcc168f0	-0.023609608
245	0x3de38efb	0.11111256
246	0x3d5d684d	0.054054547
247	0x3e0b1f42	0.13586143
248	0xbe3afca1	-0.18260433
249	0xbe086a7f	-0.13321875
250	0xbdaf97ef	-0.08573901
251	0x3a8a2304	0.0010539
252	0xbd0f83e6	-0.035037898
253	0xbd889650	-0.06669295
254	0xbe8dde06	-0.27708453
255	0x3d25e062	0.04049719

classifier.bias f4 [50]
0	0xbd67cc7b	-0.056591492
1	0xbd7f0d91	-0.062268797
2	0xbd1d6bd7	-0.038432922
3	0xbce9a1d3	-0.028519547
4	0xba9c879d	-0.0011942271
5	0xbd041dc2	-0.03225494
6	0xbd18ec14	-0.037334517
7	0xba2de0f2	-0.0006632946
8	0x3bb39688	0.005480591
9	0xbd71d7e8	-0.059043795
10	0x3ba568ef	0.0050479094
11	0xbd4713ef	-0.048602995
12	0xbc73bf14	-0.0148771
13	0xbd7a2e70	-0.061079443
14	0xbd8343aa	-0.0640939
15	0xbcedfdbe	-0.029051658
16	0xbce1a3d0	-0.027543932
17	0xbd051256	-0.03248819
18	0xbd36b419	-0.04460535
19	0xbd482983	-0.048867714
20	0xbd8ca2a2	-0.06866957
21	0xbd49a5b5	-0.049230296
22	0xbcb5a796	-0.022174638
23	0xbd387e40	-0.045042276
24	0xbd6e8353	-0.05823071
25	0xbd7817af	-0.06056946
26	0xbd53cb06	-0.05170729
27	0xbd4b0b46	-0.049571298
28	0xbcef1e4f	-0.029189257
29	0xbd7782ee	-0.0604276
30	0xbd3f7e1c	-0.046751127
31	0xbce01c8b	-0.02735736
32	0xbd5a6021	-0.053314332
33	0x3b5b12e8	0.0033428017
34	0xbd5688ab	-0.05237643
35	0x3bc3d503	0.0059763207
36	0xbd5782e3	-0.052615058
37	0xbc084913	-0.0083182035
38	0xbd938d88	-0.07204729
39	0xbd3be744	-0.04587485
40	0xbd16c7ef	-0.036811765
41	0xbd4cf3e1	-0.05003727
42	0xbd958b43	-0.07301953
43	0xbd84d23b	-0.06485411
44	0xbd81a12e	-0.06329571
45	0xbd3f5942	-0.046715982
46	0xbd81c4da	-0.063363746
47	0xbd30726f	-0.043077882
48	0xbc87ab02	-0.016561035
49	0xbd5035ad	-0.05083244
