results/MNIST_dataset/contrastive_loss/margin_2.0_LeNet5_nb_classes_5_data_percent_60/model_ckpt.pt (torch_old, 177991 bytes, 10 tensors)

feature_extractor.0.weight f4 [6, 1, 5, 5]
00000000: 5b19 8fbd f479 303e b4d9 65bd bbd1 0b3e
00000010: bc85 663b 6e68 4a3e b070 e63d 0612 c73d
00000020: 086a 2c3e ef92 003e 666a a8bd 0c28 afbd
00000030: 1557 05be 6956 a6bd 65e8 e73d f81f 3b3e
00000040: 4200 4dbe 04c0 48be 2ea3 503d c286 573d
00000050: eece c9bd b4eb f9bd 328c 963d 48bf d13d
00000060: 1ab5 dfbd 22a6 063d 17bc 39be 63e0 98bd
00000070: 659c 55bd 4ccf e2bd 5dde 11be 168c 6cbc
00000080: f250 32be 4e50 153e 24f0 a8bd 4eda 063e
00000090: 743d f63b f658 1ebd 85ef 773d da06 0e3e
000000a0: d8db a9b9 b89f 373e f0a0 1dbc 18ee 323d
000000b0: fd7c f0bd 26e9 d43d 93e2 30bd 8641 2ebe
000000c0: 84c0 6abd af0b ffbd 7dfa 083e aba5 12be
000000d0: e93a ba3d bfd4 063e cd34 27bd cab9 28bd
000000e0: 8f98 033e 8f0a 103e 6790 84bd 7801 6c3e
000000f0: 72e7 80bd b4df 393e cb43 243e d638 1d3d
00000100: 7b72 3d3e d872 583e 4b80 5e3b 498c 2b3e
00000110: 8b4a 69bd cf48 373e a99f f53d 6f45 20be
00000120: 66d8 71bd 316d aabc 114a 133e 746d 3ebd
00000130: 6775 a6bc ded5 463e 6020 8e3e 51a9 543e
00000140: 8b5c 143e 25de 123e d5eb 5c3e 37bc 833b
00000150: 3d9c 0ebe 37ac 5e3e d565 0e3e c596 2d3e
00000160: fc31 4dbe 4be8 eb3d a3d2 5cbc 48f7 153e
00000170: 023e 1d3d 03e0 ec3d 2164 87bd 80d7 2abe
00000180: d88e 33be 2528 68bb 9899 5bbc 1c52 3abe
00000190: e6ab 903d 318a 54bd 8ee5 163e 88e0 85be
000001a0: 33a7 673d 873d cfbd b49d abbd 8c24 fbbc
000001b0: 1042 52be 4d55 c13d c69d 8f3d f3fd a13d
000001c0: 48d6 033e 92f3 56be ea0b 59be 21a0 053e
000001d0: 1f28 05be 4ec6 dd3d aa29 53be 0006 e0bd
000001e0: f4b7 21bd b90e 99bd 6a5f ad3d 5830 6fbe
000001f0: a588 9fbd 3c88 08be 9d55 323e 3421 ca3d
00000200: a23f 143c 857c 94bd 5f1a 0cbe 2295 383d
00000210: 1ab7 163e 4183 9bbd c4a7 2d3e 6124 063e
00000220: 826a f4bc 04c1 2abd 453f 083e 87db b33d
00000230: 4d75 23be bff1 243e 6ffc 96bd e6a3 833d
00000240: 31d0 0e3c b8c7 783d 905d 33be a22f d2bd
00000250: a352 13be 78c7 723c
-0.06987258 0.17234021 -0.05611582 0.13654225 0.0035174927 0.197664 0.11251962 0.097202346
0.16837323 0.1255605 -0.08223419 -0.0855256 -0.130215 -0.0812195 0.113236226 0.18273914
-0.2001963 -0.19604498 0.05093687 0.05261875 -0.09853922 -0.1220316 0.07350959 0.10241562
-0.10923214 0.03287328 -0.18138157 -0.07464673 -0.052151103 -0.11074695 -0.14244981 -0.014437696
-0.1741369 0.14581415 -0.08248928 0.13169214 0.00751465 -0.03865906 0.060531158 0.13869801
-0.00032397988 0.17932022 -0.00962089 0.043684095 -0.117425896 0.10396032 -0.043184828 -0.17017183
-0.057312503 -0.124534 0.13376804 -0.1432101 0.090932675 0.13167094 -0.04082184 -0.041192807
0.12851165 0.14066528 -0.06472855 0.23047435 -0.06294145 0.18151742 0.16041486 0.03838428
0.18500702 0.2113756 0.003395098 0.16752733 -0.056955855 0.17898868 0.119933434 -0.15651487
-0.059044264 -0.02080402 0.14383723 -0.0464911 -0.020319654 0.19417521 0.27759075 0.20767714
0.14488427 0.14342554 0.21574338 0.0040202397 -0.13926788 0.21745382 0.13906033 0.16952045
-0.20038599 0.11518916 -0.013477954 0.14645112 0.038389213 0.11566164 -0.06610895 -0.16683769
-0.1753496 -0.0035424319 -0.013403319 -0.18195385 0.07064037 -0.051889602 0.14736006 -0.26147866
0.056555938 -0.10119157 -0.08379689 -0.030657075 -0.20533013 0.09440098 0.07012515 0.07909765
0.1287471 -0.20991352 -0.21195951 0.13049366 -0.13003586 0.10828839 -0.20621362 -0.109386444
-0.039482072 -0.07473511 0.084654644 -0.23358285 -0.07789735 -0.1333322 0.17415471 0.09869614
0.009048374 -0.07250313 -0.13681935 0.0450641 0.14718285 -0.07593394 0.16958529 0.13099815
-0.029835943 -0.04168798 0.13305385 0.08782106 -0.15962715 0.16107844 -0.07372367 0.064277455
0.008716629 0.06073734 -0.1751616 -0.102629915 -0.14386992 0.014818065

feature_extractor.0.bias f4 [6]
00000000: c608 283e 40f7 d6bc 614b 67bd 097b 533e
00000010: b142 a33d e675 703d
0.16409597 -0.026240945 -0.05646837 0.20652403 0.07971705 0.058706187

feature_extractor.3.weight f4 [16, 6, 5, 5]
00000000: d818 3b3d 2681 83bd 7a30 c4bd 72cf c93c
00000010: ac2b b8bc d227 353d 4ded 533d 594d 75bd
00000020: fbff b9ba dda7 dc3b 04e2 013d ff42 993d
00000030: 3c4b 70bd 76e0 b9bc 8288 8abc 762a 4ebd
00000040: 5deb 1a3c 2278 65bd 1918 75bd 9cc5 803d
00000050: da61 1f3d c987 26bd 1cb0 213d bd2b a1bd
00000060: a4a3 a3b9 1e26 0ebd c893 13bd 6d68 03bd
00000070: 388b 80bd 7271 703d c737 543b a844 18bd
00000080: edd1 c2bc 2f31 43bd 4d54 603d 35c2 813d
00000090: 618a d9bc 6825 4e3d 73a6 35bc 1c4a 09bc
000000a0: bf11 8dbd 8d33 a9bc 524f 6fbd 014a 5cbc
000000b0: 8d0b 65bd 4d5d 2ebd 1716 e33b f176 0fbd
000000c0: d780 8e3d bdd2 3bbc a984 0dbc d072 953d
000000d0: 9177 3d3c 02b2 73bd 6d35 433d 778a 28bd
000000e0: d406 95bd b331 f9bc 32ed ca3c 7125 80bd
000000f0: c34a 8cbd bc9c ecbc 6f34 9ebc 3fed 20bd
00000100: d6fe 15bd e123 5b3d ea45 7e3d 7ff1 aebc
00000110: 0c68 7bbc 0f4d 633d fb78 8a3d 8941 31bd
00000120: d40d ccbc 4636 133d fe9b 733c beb6 8abc
00000130: 912b 423a a284 2dbd 7ab5 1e3d 6fa7 2d3d
00000140: 1888 3dbb 76cc f93b 5f78 bcbc b846 8c3c
00000150: a8c7 a7bd ef5f 813d 4f4e 34bc deec a33c
00000160: 0fc4 ac3d 2b7c 52bc 973d a13d 43b9 813b
00000170: dbd4 65bd 979e 873d 7bd5 bc3c 1cce 78bb
00000180: 8459 3f3d a7e2 3a3d 39f1 853d 11bd 8ebd
00000190: 6adf 343d 6464 5f3c f864 123d f7f2 8fbd
000001a0: c7b0 92bd 06b8 7a3d 1048 96bd e137 9f3c
000001b0: b5dd 4fbd 6069 5abd 86cb b63c 9665 883d
000001c0: d7c3 6e3d dd98 b13c 31f8 d43c 5d98 1f3d
000001d0: 009f 2dbd ee7b 553d 78dc 543d 2c4d 1cbd
000001e0: 0815 a23d 5bea ff3c f836 35bd cee3 62bd
000001f0: 4f64 35bd 58ff 34bd 5fd7 0b3c fb69 683c
00000200: 4d67 b33c 3709 8abd 90b2 553d 163b 39bd
00000210: 2844 1f3b 9fcf f43c 55e9 86bd 119a 44bd
00000220: 5c13 403d 6d72 fa3b 890c 77bc 800d 9cbc
00000230: ba0c 6a3d 25e3 5a3d f06e 3c3d c876 0dbd
00000240: ab7f a13d 1a06 1bbd de4c 163d 5b35 c9bc
00000250: ef4e fe3c 63fb 12bc db0f 27bd df85 5fbb
00000260: 15a2 81bc 6fa8 073d 4c71 e53c 2282 853d
00000270: decb 073c d561 fe3c f697 93bc 65e6 f7bc
00000280: d4b9 cebd 9702 7dbd 7225 623d de2a 79bc
00000290: f896 71bd dd0b 25bd 1c3d 613d 58f9 5bbd
000002a0: 0ffb b4bc 5799 683d 2ed7 083b 007a e23c
000002b0: bb8a 0c3d e816 9abd e2c3 753b 1e25 fa3c
000002c0: 02ad 80bd edcd 72bd 686b b3bb ecf8 8b3c
000002d0: ebe8 753d 6fe2 853c 2c74 763d e6d4 3dbc
000002e0: 1390 1fbc c030 18bd 41fa 133d 9435 02bd
000002f0: d72c 273d 8c4d a2bd d9cf 763c 7dce 223c
00000300: 487b 323d 83f4 88bd c5b0 373d d3dc ef3c
00000310: 1912 883d e2d7 783d 9243 b13c 8ada c83c
00000320: 265d c9bc b2b9 fd3c 328c 023d 4b09 8b3d
00000330: d1ef 52bd 5d85 793c d3d8 93bd a9f4 47bd
00000340: 8a4b 6abc eabb 6f3c 8643 463d cab1 08bd
00000350: 7ae5 9ebd f2f6 5c3c bc9b 52bd 5470 5a3d
00000360: 7a82 453d d8cc febc 9c13 6ebc ea78 ebbc
00000370: cdbb 18bd 9763 473d 3643 94bd b32b 763d
00000380: 47d5 8d3c 1b70 b3bc c28c 883c 7f34 423c
00000390: 970e 3ebb 2c5c 1b3d 7bee 773c 6807 663c
000003a0: 83f9 87bc a1ec 67bd 41f8 9a3d d45f b7bc
000003b0: 537c 913b 7972 443d 624b 693a 77f1 b73b
000003c0: c141 0fbd 7157 b9bb 2769 9e3d c601 413d
000003d0: d948 8b3c 28ad b1bd 9c30 383d 8245 1fbc
000003e0: c3ba 033d f01f dc3c deb4 5dbd d5c2 733d
000003f0: c74d 8b3a 8ab0 3ebb f443 6f3b c2ff 56bd
0.04567799 -0.064211175 -0.09579559 0.02463505 -0.022481762 0.04422743 0.05173998 -0.059888218
-0.0014190668 0.006733878 0.031709686 0.074834816 -0.0586655 -0.02269004 -0.016910795 -0.050333463
0.009455529 -0.05602277 -0.059837434 0.06287691 0.038911678 -0.04065684 0.03947459 -0.078696705
-0.00031211704 -0.03470432 -0.036029607 -0.03208201 -0.06276554 0.05870194 0.0032381879 -0.03717485
-0.023781741 -0.047654327 0.054767895 0.0633587 -0.026555242 0.050328642 -0.011087048 -0.008379485
-0.068881504 -0.020654464 -0.058425255 -0.013445378 -0.05591922 -0.042569447 0.0069301235 -0.03502554
0.06958168 -0.011463818 -0.008637586 0.07297289 0.011564151 -0.059495933 0.047658373 -0.041147675
-0.07276693 -0.030419206 0.024771307 -0.062571414 -0.06850197 -0.02888333 -0.019312112 -0.039288756
-0.036619984 0.053501014 0.062078394 -0.021355389 -0.015344631 0.05549341 0.067613564 -0.04327539
-0.024908938 0.03594043 0.014868734 -0.016932841 0.00074070046 -0.042362817 0.03874729 0.042396005
-0.002892023 0.0076232506 -0.023006616 0.017123565 -0.08192378 0.06317126 -0.011004998 0.020010408
0.08435833 -0.012846987 0.078730755 0.0039588525 -0.056111198 0.066220455 0.023051014 -0.0037964648
0.046716228 0.04562631 0.0654015 -0.06969655 0.044158377 0.013634775 0.035740823 -0.07028764
-0.07162624 0.061210655 -0.073379636 0.019435825 -0.050748546 -0.05332315 0.022313844 0.06660001
0.058292236 0.021679336 0.025997253 0.038963664 -0.042387962 0.05212014 0.051968068 -0.038159534
0.07914168 0.03123968 -0.044241875 -0.055393033 -0.044285115 -0.044188827 0.008535235 0.014185424
0.021899844 -0.06740039 0.052172244 -0.045222364 0.00243021 0.029884158 -0.06587473 -0.04799849
0.046893463 0.007643035 -0.015078672 -0.019049406 0.057141043 0.05343928 0.046004236 -0.034537107
0.07885679 -0.037847616 0.0366944 -0.024561575 0.031043498 -0.008971068 -0.040786605 -0.0034106893
-0.015824357 0.033119615 0.028008126 0.065189615 0.008288352 0.03105251 -0.018016797 -0.030261228
-0.10094038 -0.061770048 0.055211492 -0.015207974 -0.058981866 -0.040294517 0.05498992 -0.05370459
-0.02209237 0.05678686 0.002088021 0.027646065 0.03431199 -0.075239 0.0037500788 0.030535277
-0.062829986 -0.059278417 -0.0054754503 0.017086469 0.06003658 0.016343324 0.060169384 -0.0115864035
-0.00973894 -0.037155867 0.036127333 -0.031789377 0.040814247 -0.07924947 0.015064203 0.009936926
0.0435746 -0.06687262 0.044846315 0.029280102 0.06644077 0.060752757 0.021638665 0.02451827
-0.02458055 0.030972335 0.031871982 0.06788882 -0.051498238 0.01522955 -0.0721909 -0.04881731
-0.0143002365 0.014632205 0.04840424 -0.033372678 -0.07758613 0.013486611 -0.05141805 0.05332978
0.048220135 -0.031103536 -0.014531042 -0.02874418 -0.037288476 0.04867896 -0.07239382 0.06010027
0.017313613 -0.021904042 0.016668681 0.011853336 -0.0029000395 0.0379297 0.015132542 0.014039852
-0.016598469 -0.05662215 0.07566882 -0.022384562 0.0044398694 0.047960732 0.00088994775 0.0056135016
-0.034974817 -0.005656176 0.077349 0.047120832 0.01700251 -0.08675605 0.044968233 -0.009721162
0.03216053 0.026870698 -0.054127567 0.05951198 0.0010628038 -0.0029096925 0.003650901 -0.052490003

feature_extractor.3.bias f4 [16]
00000000: af4a 373d a20f 53bd 5a15 533c a799 b6bc
00000010: df28 91bd fe10 2f3d f8d9 453d 98d0 3dbd
00000020: 3829 9c3c c42c 803d 020e a33a 5b05 39bc
00000030: 54e9 73bc 23f9 7bbd 0d43 29bc 2fb7 71bd
0.04474896 -0.05152858 0.012883509 -0.022290064 -0.07087874 0.042740814 0.048303574 -0.04634151
0.019062623 0.06258538 0.0012440088 -0.011292781 -0.014887173 -0.061516892 -0.010330928 -0.059012588

feature_extractor.6.weight f4 [120, 16, 4, 4]
00000000: ba54 2c3d 6afc 2abd c47b 363d c8b6 523d
00000010: 64d7 4ebd 3481 8ebb ca02 323d 1176 3fbd
00000020: cd1a f0bc 385c 443d 86ad c1bc 1a2a 21bd
00000030: 3ec8 32bd 2043 4dbd 1ff6 2a3c ec84 18bd
00000040: 6e30 5fbc aa1c 8d3c 7a1f dd3c b200 793a
00000050: cf37 f43c 3696 1cbd 40b3 043d b0b5 2e3d
00000060: ee1f 7b3d c87f 13bd 24fa f23c 8559 093d
00000070: 3d04 e7bc e5d2 d93c e1b6 ba3c c08e 5d3d
00000080: 8cf2 fb3c 9681 e23c 3782 cd3b da3c 823c
00000090: 322c 813c cf39 73bc 2ebb 3f3d 64ae b53c
000000a0: 9271 08bd c456 873b 0609 5abd 6e0e 4a3d
000000b0: cefc 133c 1cd4 3a3c c23a 143d 495b e8ba
000000c0: 88c6 5f3d 8d97 c63c e4ad 8bbb d020 91bc
000000d0: ce29 c23c 8d27 a1bc f481 da3c 77cc 833c
000000e0: b51a 2a3d 2100 073d 7f84 0bbd 2701 443d
000000f0: 0537 b53c ddf1 193d 4684 32bd 0aff 85bd
00000100: 88e6 063d efc9 aa3b cfe5 f33a 466f 073d
00000110: 9389 08bd 75c6 fd3b dd0b 9e3c ad81 803b
00000120: e374 81bd 0196 233c 910e 59bd ec55 fd3c
00000130: c33f 5fbc 43f4 7cbd 1e1a e23c fda3 abbc
00000140: 2177 74bd 9ec0 2f3d 26f5 f63c 67ab ec3c
00000150: 33ab 823d f125 66bd 824a 4a3d fe36 aabc
00000160: f9d2 b53c 6b52 583d b07b 0e3d c861 583c
00000170: 85d5 c3bb 06ad 593d 9126 fb3c 40fd b43c
00000180: f9a1 b43d e41c 90bc 9a7f 7ebc 8f1c 1fbd
00000190: ff91 093b 3347 873a 809a 50bd 9af8 2fbd
000001a0: d92b c1bc 0942 b9bc d37d 213c 74af 1dbd
000001b0: 63b3 113d 1406 25bd fbf7 253d a0a2 91bc
000001c0: 3e4b 703c a58c 3e3d d5ff d1bc 74c1 e8ba
000001d0: a25c d7bb b157 36bb e6d0 65bb 90dd 4ebd
000001e0: 8bb8 90bd 8bd3 70bd acc9 64bd 205e 5c3d
000001f0: 5a67 c23c 4811 5bbd b65f 633d 9b55 04bd
00000200: a95c 5f3c ef42 813c 78a6 8d3d 2940 1ebd
00000210: 23e5 87bc ee5e 27bc a2ee cabc a9e9 0f3d
00000220: 1e07 4b3d db0d 54bc d2fa 76bc 3add fbbc
00000230: e2dd 69bd 409c 353d 40ad 6a3d b536 8dbc
00000240: 294c 9d3b 31c7 66bc 0475 973c efa8 f33c
00000250: 00df 01bd 0eb9 3fbd f0a8 4a3c 923d 14bd
00000260: 57ce d4bc 0fd5 af3c c554 033b 6c80 33bc
00000270: 82b3 c2bc 8017 69bd a8cb 38bb 4146 eabc
00000280: f399 71bc b6f8 a33a 1c85 46bd 6370 f53c
00000290: 456e 25bd 0a26 283d c811 283d 7a7b 3f3d
000002a0: d283 933d 55e3 23bd 1700 123d 551c 92bc
000002b0: 125c 5dbb 05a5 6c3c d96a a0bc 89d6 5c3d
000002c0: 3450 66bd 53c3 3bbc b8d5 183c 4796 8d3d
000002d0: 8b6d da3b e6e4 3ebd 5ae1 5638 7e63 613d
000002e0: 5869 48bd ea43 4b3d 0aa9 3f3c 6859 3c3d
000002f0: c7d9 99bd 7eeb 7abc 6872 b03c 3007 633c
00000300: 0749 1fbb 19e6 f53b a553 0e3d 2f20 7cbb
00000310: c6e4 083d 0628 3b3d 9103 a23c cbec 493d
00000320: f846 9c3b 5ca7 8d3d 4c44 1bbc b32f f93c
00000330: e3f3 563d 0724 8abc 0da0 3f3d 8123 353d
00000340: 3d3b aabb 69eb 883c bc5c 023c 6d34 a83c
00000350: f489 42bd ece3 23bd 42b8 89bc e77e 0cbd
00000360: a1b9 233b 9c81 0a3c d2a8 fd3b 7b10 9c3b
00000370: c181 193c 2372 48bd ec69 edbc 21cf 22bd
00000380: 5415 40ba f1c9 6d3d 0e10 4e3d 39bd b43c
00000390: 1985 eebc 59f2 c73c db9c 3cbd df07 463d
000003a0: d8d9 84bd 21e7 3b3d 45ef 793d 1a91 b23c
000003b0: 6354 67bc 4304 033d 155b 993b a9ef 71bc
000003c0: c206 153b 7e6e bd3c 5d0e e03b c0c2 4abd
000003d0: 8637 713c 1b51 17bd 9e84 89bc e59c 87bd
000003e0: a296 413c 47bb 6b3d 92fb dd3c c729 fc3b
000003f0: 2305 5dbb d6c9 513c 6de8 6dbd 667c 363d
0.04207299 -0.041744627 0.044551626 0.051443845 -0.05049838 -0.0043488983 0.04345969 -0.046743456
-0.029309655 0.04793951 -0.023642313 -0.03934679 -0.043647997 -0.050112844 0.010434656 -0.03723614
-0.013622386 0.017225582 0.026992548 0.00094987 0.029811768 -0.03822919 0.03239751 0.04265374
0.061309747 -0.036010534 0.029660292 0.033532638 -0.028200263 0.02658982 0.022792282 0.054091215
0.030755304 0.027649682 0.0062716263 0.015898157 0.015768144 -0.014845326 0.046809368 0.022177882
-0.033311434 0.0041302163 -0.05323126 0.049330167 0.009032441 0.01140311 0.03618885 -0.00177274
0.054632694 0.024242187 -0.0042626727 -0.017715842 0.023701575 -0.01967218 0.026673295 0.016088707
0.041529376 0.032959107 -0.034061905 0.04785266 0.022120962 0.037584174 -0.043583177 -0.065427855
0.032934695 0.0052120606 0.0018607917 0.033065103 -0.033334326 0.007744605 0.019292766 0.0039217086
-0.063211225 0.009984494 -0.052992407 0.03092476 -0.013626042 -0.061756384 0.027600344 -0.02095222
-0.059683923 0.042908303 0.030146193 0.028890325 0.0638031 -0.056188527 0.049387462 -0.020778175
0.022195326 0.052812975 0.034785926 0.013206907 -0.0059763812 0.053143524 0.030658038 0.022093415
0.08819956 -0.017591901 -0.015533352 -0.038845595 0.0020991561 0.0010320902 -0.050928593 -0.042961694
-0.023580479 -0.022614496 0.009856659 -0.038497403 0.035571467 -0.040289 0.040519696 -0.017777741
0.014666377 0.046520848 -0.025634686 -0.0017757849 -0.006572322 -0.0027823264 -0.003506714 -0.050504267
-0.07066449 -0.058795493 -0.05585639 0.053800702 0.023730922 -0.053483278 0.0555112 -0.032308202
0.013632932 0.015778987 0.06916517 -0.038635407 -0.016588753 -0.010215504 -0.024771992 0.035134945
0.049567334 -0.0129427565 -0.015074449 -0.030745137 -0.05709637 0.044338465 0.05729413 -0.017238
0.0048003388 -0.014085577 0.018488415 0.02974364 -0.03170681 -0.04680734 0.012369379 -0.03619153
-0.025977297 0.021463899 0.002003954 -0.010955911 -0.023767237 -0.056907177 -0.002819756 -0.028597953
-0.014746177 0.0012510035 -0.048466787 0.029960817 -0.040388364 0.041051902 0.041032583 0.046748616
0.07202877 -0.040011723 0.035644617 -0.017835775 -0.0033776802 0.014443641 -0.019582199 0.053915534
-0.05622883 -0.011460143 0.009328298 0.06913429 0.0066658906 -0.046605013 5.123145e-05 0.055026524
-0.04892859 0.049625315 0.011698017 0.045983702 -0.07512241 -0.015314935 0.021538928 0.013856694
-0.0024305002 0.0075042364 0.03474774 -0.0038471331 0.0334213 0.045692466 0.019777091 0.04929809
0.0047692023 0.06916687 -0.009476732 0.030418253 0.052478682 -0.016862882 0.046783496 0.044223312
-0.00519505 0.016713815 0.00795668 0.020532811 -0.047494844 -0.040012285 -0.016811494 -0.03430071
0.002498247 0.008453753 0.007741072 0.004762707 0.009369315 -0.048936974 -0.028981172 -0.039748315
-0.0007327397 0.058053914 0.05030828 0.022062885 -0.0291162 0.024407553 -0.046048027 0.04834735
-0.06486863 0.04587472 0.0610192 0.021797705 -0.01411924 0.031986486 0.0046800473 -0.014766612
0.0022739624 0.023123976 0.0068376497 -0.049502134 0.0147227105 -0.036942583 -0.01678687 -0.06621722
0.011815699 0.05755165 0.027097497 0.00769541 -0.0033724986 0.012804469 -0.058082987 0.04455223

feature_extractor.6.bias f4 [120]
00000000: e5f9 69bc 54c0 233c b793 eabc ade8 c6bc
00000010: ec77 f7bc 4bee feba f3d5 a7bc 6c5d bf39
00000020: acbf fcbc 77ab b7bc 4e82 1a3c 49ee bd3c
00000030: 2639 7fbc 6fd0 d6bc 304e 34bc 8806 243d
00000040: bd16 583d 6a3a 9b3c 089f af3c 4e27 79bd
00000050: 3be4 68bd b607 4fbd f0c0 1bbc 3696 24bd
00000060: 97f9 c2bc 0fd8 253d 7500 ddbc b522 c63c
00000070: 5787 40bc a72f 62bd 3b2f 6abd dd3a 873d
00000080: f864 823d f52e 31bd 21e7 c63c 809b 9d3c
00000090: 7efb 163d 0c48 d53c f960 533a 3448 04bd
000000a0: 5b37 abbb 4146 b9bc 8056 79bd 4990 1fbb
000000b0: 6fda a1bc e12e 1fbc f750 cabc 5556 b23c
000000c0: 5192 fcbc 5fff 073c ce7a c33b 2c79 bcbc
000000d0: 5206 a73c b0ed 573d 7ee1 583d b332 33bc
000000e0: 9ea2 90bc 1242 053c 4829 e23c 33e0 5bbd
000000f0: ae7f 1dbd a9f3 203d a434 42bd 184c 42bd
00000100: 3b05 1bbd 2af7 2cbd 5fad 25bc 4b77 a7bc
00000110: 2ed2 523d 23a4 18bd c1d3 f93c 6767 82bc
00000120: de5a 7fbc e114 f53c 6277 873c 190b 87bc
00000130: 0b97 fcbc e1ae 09bd d91b 063d 6558 93bd
00000140: 5de5 06bc 79cc c3bc a358 113d 9c92 683d
00000150: ce3a f1bc 2b7e 6dbd 4701 723c 7f39 023d
00000160: 2538 5ebd e08c ffbc 450d f03c 1f42 3ebd
00000170: 4191 8c3c 5a55 5b3d 35f9 85bd 6a81 233d
00000180: ea02 75bc fb2e 903d fdf2 903c 2e34 f9bc
00000190: a94f 313c 8b9c 413d 326d ebbc cd88 e8bc
000001a0: c4af 793c 50a1 283d 9033 6a3d 30ec 293c
000001b0: a970 2bbd ea7b 6abd 7732 203d b270 30bc
000001c0: b97a 3ebd 5662 8abd 5396 f6bb 51c5 083c
000001d0: b185 94bc b7bb 92bb ac6e 613d 7c01 c43c
-0.014280771 0.009994585 -0.028634889 -0.02428087 -0.03020855 -0.0019449679 -0.020487761 0.00036499964
-0.030853115 -0.022420628 0.009430481 0.023184912 -0.01557759 -0.026222436 -0.0110049695 0.04004529
0.05275606 0.018948752 0.021438137 -0.0608285 -0.056858283 -0.050544463 -0.009506449 -0.040182315
-0.023800654 0.040489253 -0.026977757 0.024186471 -0.0117510175 -0.055221226 -0.05717395 0.06603024
0.063669145 -0.043257672 0.024280133 0.019239187 0.036860935 0.026035331 0.0008063461 -0.03229542
-0.0052251047 -0.022616507 -0.06087351 -0.0024347475 -0.019757478 -0.009715767 -0.02469681 0.021769682
-0.030831488 0.008300631 0.005965567 -0.023006998 0.020388756 0.05271691 0.05294942 -0.010937381
-0.017655667 0.008133428 0.027607575 -0.05368061 -0.038451843 0.039294872 -0.047413483 -0.04743585
-0.037846785 -0.0422279 -0.010112136 -0.020442626 0.051469974 -0.037265908 0.03049648 -0.015918447
-0.015585629 0.029917182 0.016536418 -0.016484784 -0.030833742 -0.033614043 0.0327414 -0.07194594
-0.008233395 -0.023901211 0.03548492 0.056780443 -0.029446986 -0.05798165 0.014770812 0.031793114
-0.054252762 -0.031195104 0.029303202 -0.046449777 0.017159106 0.053548194 -0.06541673 0.03991834
-0.014954308 0.07040211 0.01769399 -0.030420389 0.010822215 0.04726843 -0.028738592 -0.028385544
0.01523966 0.041169465 0.05717808 0.010371253 -0.041855488 -0.05724708 0.039110627 -0.010769056
-0.046503756 -0.06757037 -0.0075252443 0.008347825 -0.018130155 -0.0044779438 0.055037186 0.023926489

classifier.0.weight f4 [84, 120]
00000000: 03e4 1cbc d2a4 95bc 18bc 2e3d 2b6d 1a3d
00000010: 91dd 1cbe d5e7 be3e 0f8a 233e b360 25be
00000020: 114f 8ebd e3fb 30be d646 71bc e80e 81be
00000030: 03fa 863e 9a38 3b3e 655d aabe 5878 373e
00000040: ae13 a93d ae4c eebc 2aad b53d 12de 28bd
00000050: 9904 4c3e 5d7c ff3d f221 70be 81c4 55be
00000060: d1e7 fe3d 500b 25be c2f7 1e3e e94c a63e
00000070: 2b1c d0bd e598 00be a278 4f3e 5a29 fd3d
00000080: 7dcb d43d 43f7 1e3e 32fe 6fbe f83f eb3d
00000090: 9618 263e e3e5 4c3e 7f8f d73d 3bbe 553e
000000a0: 5f0f 4fbe 2fcb 0ebe 9805 65be 3f8d 86be
000000b0: 389e c43e a492 a7bc 1d8b 89be 5a72 2a3c
000000c0: 74d1 7d3e 6d62 bdbe e92b 8cbe e6cc 443e
000000d0: eccd 99be aa86 56be 6632 023e b22a 93be
000000e0: 9373 603e dc29 a9be dc4c 5a3e 060a 223e
000000f0: b3ad 013e 7c1b 9b3d 1319 5a3e 61ba 26be
00000100: a083 b63e 8c31 53be 3bdf d03e 604b ac3e
00000110: 8743 a43e b705 8cbe b610 a33d 1114 ac3e
00000120: 201a 18bd 611a 27bd c1ad 75be 2913 52be
00000130: b69a 103e 5dcb b93d 1faf acbe 73ee 803e
00000140: bd08 b63e 3971 713e 0331 60be 9e5d b7bd
00000150: 30a8 6f3e 201b f0ba 5814 863e 7c27 b0be
00000160: b8e3 3e3e 1dca 19be dae7 503d 8bb3 9b3e
00000170: c7bf fd3d c2db 8abe d67e b2bd ab84 0c3e
00000180: 5d86 ac3e 9617 4cbd c0a4 7bbe b342 b23e
00000190: 196a adbd 6497 d13d 92c2 93be 9893 a1be
000001a0: 8267 a8be a092 c0be 0a34 973e e5f0 6abe
000001b0: ed00 82be eb73 92be 13e9 9a3d edfc 7f3e
000001c0: 850b 00be 86e4 a63d d2ce 83be cd0f 603e
000001d0: 9ce7 66be 6870 ba3e 7e0c 91be 445c 6ebe
000001e0: a338 b13e 2a45 98bd 816b 52be f3c5 c83e
000001f0: 0b61 b33d 7b78 b6be 2e4a 7c3d 05bb eb3d
00000200: 8a56 023e 5810 92be 9b4c d3be fa5e 8fbe
00000210: dc82 c83e fd8e e23d 3985 3f3e c895 c8be
00000220: 9b90 ef3d 73e1 30be c4b1 c33e 74ae 973e
00000230: 926a b83d 80ce 823e d55f 7fbe 65e3 803e
00000240: 116c c53c 0612 75be 6a67 633e 5fc3 a8be
00000250: bc4b a53d c6de 04bd 2d48 bcbe d40a 6bbe
00000260: 5c02 0fbe 8d5b 933b 48c3 c53e 1b2d e23e
00000270: 0530 873e 6823 06be 288f 7ebe 2b01 733e
00000280: c619 c4be e61e 8b3e b706 25be cc0c 853e
00000290: 7b97 973e 79bd 93be e536 e9be dcaa d03e
000002a0: 969d a4be 4daa a8be ad42 c43e d590 b3be
000002b0: 38be 66be b826 c83e 2530 83be 2fa6 b2be
000002c0: fd42 3ebe 1910 bf3e deac 75be 9807 c7be
000002d0: 75e3 66bc 003c 823c e3e0 4cbe 5ddc cdbe
000002e0: 23a5 453b 3ab3 133e 51e7 93be 98ed aa3e
000002f0: 020c 51be 8f46 053e b673 8c3e 4e3d a7be
00000300: ae02 98be 2e47 fb3c 1ea5 af3e 264b 963e
00000310: 996b f93d 146e b4be 3790 d73e 79e7 703e
00000320: 2280 8dbe 194b bfbd 1403 5e3e a7c7 703e
00000330: 6d1a 7d3e 6a90 673d da30 993e a087 c0be
00000340: 40b8 01be 7780 8ebc 094f 5f3c 9784 4abe
00000350: 2be0 6d3e 5d5d ee3c c593 793e f649 c73e
00000360: 6872 8cbe f71d 3ebc 33ab 1a3e a755 b6be
00000370: fd45 2dbe 6524 363e c0ef 79bd 4e70 51be
00000380: 63d6 9fbe 205b 853e 2b90 eebe 0d2f a63e
00000390: 369e a4be f63d a73e 626a b3be 7d6f bc3e
000003a0: c9ce c83e 1475 2fbe cb3c 52bd f59a e23e
000003b0: e3fa 7a3e 9c13 97bd 2918 8c3e 0e05 92be
000003c0: 4eab 3b3d ef19 f6bc e3a5 1f3e 2e4e 3abe
000003d0: f993 903d 0f91 f83b 3c59 52be e737 833e
000003e0: ff8b 643e 6657 503e 34a5 21be ab85 7c3e
000003f0: 016e 10be 53ca b9be a9ea bbbe 4133 3bbe
-0.009575847 -0.018267069 0.04265985 0.037701767 -0.15318896 0.3728625 0.15970634 -0.16150169
-0.069486745 -0.17283587 -0.014726361 -0.25206685 0.2636262 0.1828331 -0.3327438 0.17917001
0.08255707 -0.029089298 0.08870919 -0.041227408 0.19923629 0.12474892 -0.23450449 -0.20875742
0.12446559 -0.16117597 0.155242 0.32480553 -0.101616226 -0.12558325 0.20260862 0.12361403
0.10390375 0.1552401 -0.23436812 0.114868104 0.16220316 0.2000957 0.105254166 0.20873348
-0.20220707 -0.13944696 -0.22365415 -0.26279637 0.3840196 -0.020455666 -0.26863948 0.01040324
0.24786931 -0.36989155 -0.2737725 0.19218788 -0.30039918 -0.20949808 0.12714538 -0.2874351
0.21919088 -0.3303975 0.21318382 0.15824136 0.12663917 0.075736016 0.21298628 -0.16282035
0.35647297 -0.2062437 0.4079531 0.33651257 0.3208277 -0.2734811 0.07962172 0.3360906
-0.03713429 -0.04079664 -0.23992063 -0.20515122 0.14121518 0.090719916 -0.33727357 0.25181922
0.35553542 0.23578347 -0.21893696 -0.08953403 0.23404002 -0.0018318631 0.26187396 -0.34405124
0.18641555 -0.15018506 0.05100236 0.30410418 0.12390094 -0.27120787 -0.08715598 0.13722484
0.3369626 -0.04982718 -0.24574566 0.34816512 -0.08467502 0.102339536 -0.28859383 -0.31557918
-0.3289147 -0.37611866 0.2953189 -0.22943456 -0.2539133 -0.28604063 0.07563987 0.24998827
-0.12504394 0.08149056 -0.2574373 0.21881028 -0.2254929 0.36413884 -0.28329843 -0.23277384
0.34613523 -0.07435067 -0.20548822 0.39213523 0.08758744 -0.35638794 0.06159418 0.115102805
0.12728325 -0.28528094 -0.41269383 -0.2800215 0.39162338 0.11062429 0.18703164 -0.39176774
0.11697503 -0.17273502 0.38221562 0.29625285 0.09004702 0.25548172 -0.24938901 0.25173488
0.024099382 -0.23932657 0.22207418 -0.32961556 0.08071086 -0.032439016 -0.36773816 -0.2295335
-0.13965744 0.0044969977 0.3862555 0.44175038 0.26403823 -0.13099444 -0.24859297 0.23730914
-0.38300914 0.2717201 -0.16115843 0.25986326 0.29607758 -0.28855494 -0.45549694 0.40755355
-0.3215148 -0.3294243 0.3833212 -0.35071436 -0.225335 0.3909204 -0.2562267 -0.34892413
-0.18580242 0.3731697 -0.23991725 -0.3887298 -0.014092316 0.01589775 -0.20007662 -0.40207186
0.0030158244 0.14423838 -0.28887418 0.33384395 -0.20414737 0.13015197 0.2743203 -0.3266396
-0.29689544 0.03067359 0.34305662 0.2935421 0.12178726 -0.35240233 0.42102215 0.235258
-0.2763682 -0.093404956 0.21680862 0.23513661 0.24717112 0.05653421 0.29920083 -0.37603474
-0.12667942 -0.017395241 0.013629683 -0.19777142 0.23230045 0.029097253 0.24372776 0.38923615
-0.27431035 -0.011603824 0.1510437 -0.35612223 -0.1692123 0.17787321 -0.06101966 -0.20452997
-0.31218252 0.26046085 -0.46594366 0.32457772 -0.32151955 0.3266446 -0.350421 0.3680381
0.39220265 -0.17134506 -0.051327508 0.44258848 0.24509768 -0.07376787 0.27362183 -0.2851948
0.045817666 -0.030041663 0.15590625 -0.18193886 0.070594735 0.0075856517 -0.20541853 0.25628588
0.2231903 0.2034584 -0.15785676 0.24660365 -0.14104463 -0.36287174 -0.3670247 -0.1828127

classifier.0.bias f4 [84]
00000000: dd27 10bd 935f 8d3d 69a4 8c3c 31d4 1cbc
00000010: 2e2f 75bd 7461 a43d b23d 08bd fb2d 8abd
00000020: c60c 163d a72c 583b aa2a d0bc 61d6 0abd
00000030: 0d3d 87bd 9e8b 9fbc 69a4 0f3d 8c37 bdbc
00000040: bf88 2d3b 5a3f f83c e734 7dbd f85a fd3b
00000050: 14a0 21bd fda6 143d 4cf6 29bd 26fc e4bc
00000060: c854 373d f9e2 13bc 22cc 173d 478a 47bd
00000070: 6cc1 5a3d 41e7 60bd 50f5 283c c3ae 02bd
00000080: 4230 b3bb 5eda 45bb 9475 a3bd b93e 96bd
00000090: 41ac 5e3c d15c 70bd 6312 9939 b9f9 873c
000000a0: e543 70bc c89b dbbb 5a34 d8bc 6150 053d
000000b0: 8983 123a c2bc 0ebc 8113 70bd a50a 203d
000000c0: 267c 28bd db0f 823d e655 673c b0c2 e839
000000d0: 4c14 65bd 471a 22bd d4f1 ab3d 25ad 89bd
000000e0: 0192 c2bc 38f1 853d f3ff 8a3d d210 603b
000000f0: 4b11 f03b 1dc6 90bd a85e 683d 565c a6bc
00000100: 1c69 94bd e569 fcbb 0721 2c3d 5fe1 aebc
00000110: f43a f33c 4cb1 87bc 5bd5 c43c 48bc d03c
00000120: de86 183c 3539 91bd 455a e73c 507b c9bc
00000130: b0f9 88bd c6c2 c33c ce0e 843c b617 59bd
00000140: 9559 4e3d 2be6 913d a505 393c 858c fdbc
-0.035194267 0.06902995 0.01716824 -0.009572075 -0.059859447 0.080264 -0.033261962 -0.06747051
0.036633275 0.00329856 -0.025410969 -0.033895854 -0.066034414 -0.019475754 0.035068903 -0.023097776
0.0026479212 0.030303646 -0.06181803 0.0077317916 -0.039459303 0.036292065 -0.041494653 -0.027952265
0.044758588 -0.0090262825 0.03705991 -0.048715856 0.053407118 -0.05490804 0.010312393 -0.031904947
-0.0054683993 -0.0030189971 -0.079814106 -0.07336182 0.013590873 -0.058682267 0.00029196133 0.01659857
-0.014664625 -0.00670192 -0.02639215 0.03254736 0.0005589058 -0.008711996 -0.05861235 0.03907265
-0.041134022 0.063506804 0.014119601 0.00044395542 -0.05592756 -0.03957584 0.083957344 -0.06722478
-0.02375126 0.065401495 0.067871 0.0034189713 0.00732628 -0.07069037 0.056730896 -0.020307701
-0.072466105 -0.0077030533 0.042023685 -0.0213477 0.029691197 -0.016564034 0.024027517 0.025480404
0.009309499 -0.070909895 0.028241286 -0.024594933 -0.06688249 0.023896586 0.01612034 -0.053001128
0.0503784 0.07123979 0.01129285 -0.030950794

classifier.2.weight f4 [5, 84]
00000000: 896c e53e 729c 7a3e cb4f a6be 5d18 b73e
00000010: 6b18 a5be 1c15 d13e af03 5cbe b642 dabe
00000020: 5078 bfbe 608e e6be 6559 e4be 98c8 c9be
00000030: bb50 a3be 0357 bb3e bf14 e33e c40e e1be
00000040: af09 523e 3374 de3e fa9e 57be 1c97 f8be
00000050: 8540 a23e 5217 e5be f2d9 d63e 31af 4dbd
00000060: df6a a3be 8ca5 8ebe 4b6e c63e eb54 8cbe
00000070: 078b 59be f9e9 c13e 64ff 7cbe b471 523e
00000080: 0dbf a3be fd56 cd3e 43e0 eabe 8fc0 d0be
00000090: 986c a1be 03a8 45bc d429 acbe d1d6 e53e
000000a0: 0083 c9be 0030 bfbe 0e65 cb3e d448 c7be
000000b0: be6d abbe 2679 8bbe 3f9c dc3e 91f0 9e3e
000000c0: ccd0 ba3e 02e1 dfbe a68c b2be 6912 d83e
000000d0: a548 e4be 8c79 c0be 115f bd3e 34ca 403e
000000e0: 3a5c 153c 9ec5 eabe e5c4 b53e 4617 c13e
000000f0: b704 cd3e bedf 9ebe 725e 973e 6208 c7be
00000100: a900 d2be 0121 f13e 5be9 f0be 56f1 aa3e
00000110: ed79 543d 857c 793e 4899 d4be f4a9 8bbe
00000120: 9bce d2be c6cc 953e c222 dd3e d703 04bf
00000130: e546 a8be 6c69 bebe 3f06 d5be 961a cd3e
00000140: 7c4e b5be adbe c93e 204e f0be 0fbc adbe
00000150: ec5d 4dbe bb7d f5be 3db2 bbbd 17b8 f63e
00000160: a56e 933e d741 e33e f440 bbbe 4b11 d3be
00000170: 7a03 f03e b786 bdbe dbad d73e 5c1c d63e
00000180: 7471 a33e fe33 d1be 68d7 bd3e e48f c93e
00000190: a636 d5be a2e3 e43e d45d 7fbe 2106 d53e
000001a0: cdf6 c0be 26d0 98be ee3b b13e bc01 e0be
000001b0: 387f f2be 33ae f93e 6834 94be 6b3b ba3e
000001c0: d387 b7be 1e31 61be a117 ce3e 2590 f4be
000001d0: 6084 b23e e9fd bbbe 2508 efbd 196a 283e
000001e0: 6e5c c9be edf2 d93e 3e38 41be 4878 9cbe
000001f0: 19dc 64bd bc6f fb3e d068 afbe 4c89 85bd
00000200: 3b53 fd3e ba30 d93e 7656 a8be e057 64be
00000210: c50e d73e d73f b03e 944f e1be b786 cdbe
00000220: bc4d 7e3e e68e e2be 9be9 cb3e afee f7be
00000230: 2827 b8be 979f 483e 366e 8b3e ffc5 a3be
00000240: aafb e63e b112 e63e 7c83 d5be 2522 593e
00000250: 4a5b f4be f2a0 b13d 2297 dc3e d604 c0be
00000260: 9310 be3e a81e 7cbe 1bad a33e 53b3 bf3e
00000270: f9c0 e73d 06e6 93be 650c 923e 4c0b d43e
00000280: 11e4 a33e 7441 a13e b07d 6ebe 3773 edbe
00000290: 897b a1be a857 e23e 4cd3 4dbe 48c9 e63e
000002a0: 666a e83e 9ea5 e3be 43fc 58be 3a57 823e
000002b0: 16ea d43e 0561 cbbe 045b e63e c1e9 9a3e
000002c0: d08c c33e 521f bf3e 6298 edbe 9d02 c3be
000002d0: f2c0 b7be 3de2 bc3e 4fe1 b0be 6fe4 cfbe
000002e0: 6aa6 983d d2dc b6be 397c aebe 7622 313d
000002f0: c38a a0be 2f14 c53e 8765 bfbe 4f08 bdbe
00000300: bed9 bd3e 8492 d83e 6998 c4be 1013 8fbe
00000310: e8e2 c03e 7ea7 913e ccd4 86be 2648 e53e
00000320: f961 bfbe 04b6 b53e 3e48 b7be e451 ce3e
00000330: d9ba ea3e efec 9abe 9550 e83e e755 8dbe
00000340: 32fb ec3e 709a aebe 42ed b5be af81 d13e
00000350: fa86 da3e 9212 cb3e 00d7 d03e 6e23 d5be
00000360: ac63 9b3e ef16 a83e 95c1 b03e 2c25 cd3e
00000370: b667 e2be e1a9 d93e 31e6 a73d 0ea1 a13e
00000380: 8ed8 c4be 0fe5 d8be 23ea e6be 6bb7 cebe
00000390: 2209 cdbe 362c ba3e 55e5 a1be 3538 c93e
000003a0: 1635 cc3e 46f5 96be 02f1 d4be a5c7 d4be
000003b0: 2263 b3be 4231 883e 190d d33e c55e cb3e
000003c0: 1ddc a3be 0d67 313d c6ed b8be 02a0 d5be
000003d0: 2f34 34bd a0a9 98be c8d4 d93e ed51 cbbe
000003e0: 037c bb3e acda c2be 94cc db3e ae6f da3e
000003f0: 32fe babe 6d68 873e 2b2c e8be a3b1 b0be
0.44809368 0.24473742 -0.32482752 0.35760775 -0.32245192 0.40836418 -0.2148578 -0.4262902
-0.3739648 -0.45030499 -0.44599453 -0.39410853 -0.3189753 0.36589822 0.44351766 -0.43956578
0.20511506 0.43448028 -0.21056738 -0.48552787 0.3168985 -0.44744354 0.41963154 -0.050215904
-0.31917474 -0.27860677 0.38756022 -0.27408537 -0.21244441 0.3787382 -0.24706799 0.20551187
-0.31981698 0.4010543 -0.45874223 -0.4077191 -0.31528163 -0.012063983 -0.33625662 0.44890454
-0.39357758 -0.3734131 0.39725536 -0.3892275 -0.33482164 -0.27240866 0.43087956 0.31042913
0.36487424 -0.43726355 -0.3487293 0.42201546 -0.44586673 -0.37592733 0.36986592 0.18827134
0.009116227 -0.45853895 0.3550178 0.3771307 0.4004266 -0.31030077 0.29564244 -0.38873583
-0.4101613 0.47095492 -0.47053036 0.3338725 0.05187409 0.24363907 -0.41523194 -0.272781
-0.41173252 0.29257792 0.4319058 -0.5156836 -0.32866588 -0.37189806 -0.41606328 0.40059346
-0.3541144 0.39403287 -0.46934605 -0.3393254 -0.2005536 -0.47947487 -0.09164856 0.48187324
0.28795353 0.4438617 -0.36572993 -0.4122413 0.46877652 -0.37016842 0.4212483 0.4181851
0.31922495 -0.4085998 0.37078404 0.39367592 -0.41643256 0.4470492 -0.24938136 0.41606238
-0.37688294 -0.29846305 0.34616035 -0.43751323 -0.47362685 0.48765716 -0.28946233 0.36373457
-0.35845813 -0.21991393 0.40252402 -0.47766224 0.3486662 -0.36717156 -0.11671475 0.16446723
-0.3932833 0.4256815 -0.18869111 -0.30560517 -0.055873964 0.49108684 -0.34259653 -0.06520328
0.49477562 0.42419988 -0.32878464 -0.22299147 0.42003456 0.34423706 -0.44006026 -0.40141842
0.24834341 -0.44249648 0.39826664 -0.4842429 -0.35967374 0.19592129 0.27232522 -0.31986997
0.4511388 0.44936135 -0.41701877 0.21204431 -0.47725898 0.08673276 0.43084055 -0.3750369
0.3712202 -0.2462107 0.31968006 0.374415 0.113161035 -0.2888643 0.2852508 0.4141487
0.32009938 0.3149525 -0.23290133 -0.46376964 -0.31539562 0.442075 -0.20100135 0.4507544
0.45393676 -0.44462293 -0.2118998 0.25457174 0.41584843 -0.39722458 0.44991314 0.30256465
0.3819337 0.37328583 -0.4640532 -0.3808793 -0.35889393 0.36891356 -0.34546897 -0.40603969
0.07453616 -0.35715348 -0.3407915 0.043245755 -0.31355867 0.3849196 -0.37382147 -0.369204
0.37080187 0.42299283 -0.3839753 -0.2794423 0.37673116 0.284481 -0.26334226 0.44781607
-0.37379435 0.3549043 -0.35797304 0.40296853 0.45845678 -0.3025889 0.4537398 -0.276046
0.46285397 -0.341022 -0.35532576 0.40919253 0.42681104 0.39662606 0.40789032 -0.41628593
0.3034948 0.32829997 0.3452269 0.40067422 -0.4421975 0.4251242 0.081982024 0.31568187
-0.38446468 -0.42362258 -0.45100507 -0.40374312 -0.4004603 0.36361855 -0.3162028 0.39300695
0.3988425 -0.29484004 -0.41590124 -0.41558567 -0.3503657 0.2660008 0.4122093 0.3972074
-0.3200387 0.043311168 -0.36118907 -0.4172364 -0.04399508 -0.29816914 0.42545152 -0.39710942
0.3661805 -0.38057458 0.42929518 0.4266333 -0.3652206 0.26446858 -0.45346197 -0.34510526

classifier.2.bias f4 [5]
00000000: 61aa c1bd 3bd9 c2bd 9154 cb3d c0fe d5bd
00000010: 5167 5abd
-0.09456325 -0.0951409 0.09928239 -0.1044898 -0.053321186
