results/CIFAR100_dataset/contrastive_loss/margin_2.0_first_model_nb_classes_50_data_percent_40/model_ckpt.pt (torch_old, 802778 bytes, 6 tensors)

layer1.0.weight f4 [64, 3072]
000000 11 65 68 bc e8 76 42 3c f7 7a 35 3c 6d 2b 81 bc
       -0.014184252 0.01186917 0.01107668 -0.015767777
000010 f4 eb 01 3c 60 46 42 3c e0 c9 94 bb 67 f1 24 bc
       0.007929791 0.011857599 -0.004540667 -0.01006732
000020 86 dc 8c 3b e3 2b 89 3c 28 96 48 bc 98 11 f3 3a
       0.0042987494 0.01674456 -0.012242831 0.0018544672
000030 ff 25 84 ba d5 bd d7 bb 0c d4 83 bb e1 f2 98 3c
       -0.0010082124 -0.006583909 -0.0040230807 0.018670501
000040 64 01 67 3c 5e 39 80 bb 2d 98 9c 3c 46 b2 9d 3c
       0.014099453 -0.0039130887 0.019115532 0.019250046
000050 de d3 88 3c f7 90 98 3c 42 91 89 3b 6e c6 5e 3c
       0.016702589 0.018623812 0.0041982243 0.013597114
000060 88 94 08 3c b8 05 a3 3a 4a bc e3 3b 20 0a 09 3a
       0.008336194 0.0012437617 0.006949936 0.0005227644
000070 e9 15 8d 3b 49 f6 21 bc a7 74 f3 bb 7d 10 48 bb
       0.0043055904 -0.009885379 -0.0074296775 -0.0030527406
000080 18 85 de bb 56 7f 57 3b 55 84 e6 bb f5 a4 1c bc
       -0.0067907684 0.0032882295 -0.007034818 -0.009560813
000090 23 ba 7b bc 6b b7 c3 bb af 30 c4 3b c0 84 7a 3c
       -0.015364203 -0.005972793 0.005987249 0.015290439
0000a0 19 fb 15 3c ba 01 74 bc d3 0f 79 bb 27 76 46 3c
       0.009154105 -0.01489299 -0.0038003817 0.012113131
0000b0 7c 16 47 bc 6b 06 0d 3c 9e 4f 73 3c 02 c5 c4 bb
       -0.012151357 0.008607487 0.014850525 -0.0060049305
0000c0 96 5b 80 bb 02 68 77 bc 77 94 00 bb 93 40 f6 3b
       -0.003917168 -0.015100481 -0.0019619742 0.007515022
0000d0 85 c1 0b 3b 25 2a 2e bc 71 7a e7 3a c8 80 64 bc
       0.0021325063 -0.010630165 0.0017660392 -0.0139467195
0000e0 57 40 e1 3b a7 cb 92 bc 3f 75 32 bc 7b 53 5d bc
       0.006874125 -0.017919375 -0.010892211 -0.013508673
0000f0 99 f3 91 bc b8 33 5f 3c 51 89 a4 3b a2 42 08 bb
       -0.017816352 0.013623171 0.005021252 -0.002079167
000100 2b f5 71 3c b4 72 d7 3b 9c 6d cb bb ed c9 19 39
       0.014767925 0.006574953 -0.006208135 0.0001466644
000110 07 f2 17 bb 85 6d 87 3c 4d c3 c1 bb be 60 e5 bb
       -0.002318503 0.016531715 -0.0059131742 -0.007000058
000120 96 36 e6 3a 1d ed 9e bc c4 15 1d 3c 53 52 98 bc
       0.0017563875 -0.019400174 0.009587709 -0.018593943
000130 46 56 d0 3a 7b a8 f3 bb b5 c3 8f bc d8 d7 ad bb
       0.0015894852 -0.007435856 -0.017549375 -0.0053052716
000140 e8 bc 29 bb de 1e 4c bc 7c 3a 9a bc 97 2c 95 3b
       -0.002589995 -0.012458531 -0.018826716 0.0045524347
000150 bc 9c 74 bb 86 e2 a9 ba 34 da 91 bc 29 4a 71 bb
       -0.0037324866 -0.0012961186 -0.017804243 -0.0036817885
000160 84 ec d2 3b f4 63 4b bc 9d fe 96 3b b2 6b 20 bc
       0.0064368863 -0.012413967 0.004607989 -0.009791302
000170 46 e7 6f 3c ea bc 2a bb 80 95 b3 3a a9 ce 2f bc
       0.014642542 -0.0026052543 0.0013701171 -0.010730424
000180 f9 57 f2 3a de 41 96 3c 61 b9 84 3c 7c f5 2a 3b
       0.0018489353 0.018341955 0.016201677 0.0026086261
000190 cc 45 06 3c d0 5b 8d bc 85 77 8c 3c 54 33 ee bb
       0.008195352 -0.017255694 0.017146835 -0.0072693024
0001a0 45 99 70 3c 33 b3 44 bc d7 ff d9 bb 44 28 35 bc
       0.01468498 -0.012005615 -0.006652813 -0.011056963
0001b0 c4 83 42 3c 41 2a 39 bc d3 1a 04 3b c6 00 88 bc
       0.011872236 -0.011301578 0.002015759 -0.016601931
0001c0 41 da 0f bc a6 71 45 3c 0c 9f 94 bc 1f 21 a2 bb
       -0.008780063 0.012051022 -0.018142246 -0.004947796
0001d0 27 51 29 bc 63 50 07 3b 7d 19 da 3b fd f6 78 3c
       -0.01033429 0.002064728 0.0066558705 0.015195605
0001e0 44 22 21 3c 4f 5b 21 3c 27 67 1b bc 18 bb 85 bc
       0.00983483 0.00984843 -0.009485043 -0.016324565
0001f0 8c fd 98 bc 15 a6 28 3c 0c fe ba ba 21 f8 6f bc
       -0.018675588 0.010293503 -0.0014266386 -0.014646561
000200 4c 23 89 bb c5 7c 64 bc 2a 2c 89 bc 2a 09 b1 3b
       -0.004185116 -0.013945763 -0.016744692 0.005402704
000210 29 b6 88 bc f2 19 6e bb 9d 79 82 bc b3 a5 01 3c
       -0.016688423 -0.0036331383 -0.01592713 0.007913041
000220 eb ef 97 bc c1 a4 34 bb 17 38 47 ba bc 55 58 bc
       -0.018547019 -0.0027564021 -0.00075996056 -0.013204034
000230 9b 55 86 bc 7b cd 70 bc 90 5e 3d bc 05 c0 81 3c
       -0.016398242 -0.014697428 -0.01155819 0.015838632
000240 fc bf 95 bc 6f d2 6b bc 83 e2 44 3c 8e b5 ac bb
       -0.018280022 -0.014393433 0.012016895 -0.0052706664
000250 f0 fd c3 bb ca b5 31 bc 56 5e 9d bb 6d 74 cd 39
       -0.0059811994 -0.010846565 -0.0048025055 0.0003918739
000260 5a 0e cd 3b 04 8d d1 3b 4c 68 21 3c ed b0 6a bc
       0.0062578144 0.006394984 0.0098515265 -0.014324409
000270 5e 14 6a 3c 2e 07 8f ba 0b e4 51 3c fd 42 8a bb
       0.0142870825 -0.0010912174 0.012810717 -0.0042194114
000280 f0 a4 8b 39 0b 8f 78 bb 8c 51 79 3b a9 04 0d ba
       0.00026635034 -0.0037927057 0.003804299 -0.00053794176
000290 93 18 f9 ba 34 12 a8 3b 70 53 1b bc 65 b2 6a bc
       -0.0019004516 0.005129123 -0.009480342 -0.014324759
0002a0 69 8e 82 bc 3f 4a cd 3b 7a 56 63 3b 59 5b 3d 3c
       -0.015937047 0.0062649543 0.0034688995 0.0115574235
0002b0 cd c3 0a bb 9f 63 2b b9 1e 81 14 bc e5 fc c4 3b
       -0.0021173835 -0.00016344943 -0.009063987 0.0060115927
0002c0 c9 13 39 bc 8c 86 3a bb a2 16 63 bc dd 41 49 bc
       -0.011296221 -0.0028461544 -0.013860377 -0.012283769
0002d0 0f 99 a9 3b 12 43 17 bc 32 89 11 3c 45 8a 1e 3c
       0.0051757167 -0.009232299 0.008882808 0.009676521
0002e0 3b 71 d9 ba 2a 1c 19 bc b7 5c 56 3c fc b3 bf 3b
       -0.0016589531 -0.009345094 0.013083628 0.005850313
0002f0 5e a0 9d 3b 47 3a 01 3c 00 52 34 3c fc bf 40 3b
       0.004810377 0.00788743 0.011005878 0.0029411307
000300 37 f2 2c 3c 1b 30 1a bb 53 c7 6f bb 1a 0f 7d 3c
       0.010555795 -0.0023527208 -0.0036587312 0.015445495
000310 6d 28 a8 bb da 41 0f bc ab bd 2f bc d2 23 70 3c
       -0.0051317723 -0.008743728 -0.010726373 0.014656978
000320 b5 3d 8f bb a1 0b 4d bc 67 9f 5b bc f9 ee bd bb
       -0.0043713697 -0.01251498 -0.013404704 -0.00579631
000330 86 f9 d5 3b fa d7 54 3c 1d 1d 35 bc 96 4c c1 3b
       0.0065299897 0.012990946 -0.011054304 0.0058990223
000340 ba 5e 86 bb c1 af 4d 3c 6d bd 4c b8 42 d3 07 3b
       -0.0041006478 0.01255411 -4.8813807e-05 0.0020725285
000350 c5 d7 69 bc cf d7 35 bc e8 a1 69 3b 85 2d 94 3c
       -0.014272635 -0.011098816 0.0035649482 0.018088112
000360 0f 0a 65 bc 98 80 07 bc c6 2f 2b bc 87 e1 87 bc
       -0.013979449 -0.008270405 -0.010448402 -0.016587032
000370 2f 70 7c 3c b3 59 fe bb ff 73 79 bb b5 09 66 38
       0.015407606 -0.007762158 -0.0038063524 5.4845314e-05
000380 2d 27 99 3c 8f 35 16 bc dc 4d bf bb 76 d2 8f 3c
       0.018695438 -0.009168043 -0.005838139 0.01755641
000390 d8 d8 c8 3b f1 38 41 3c cf f7 f1 bb 6d 7c 9f bc
       0.0061293654 0.011793361 -0.0073842774 -0.01946851
0003a0 dd 33 5b 3a ac 12 7d 3c 20 64 33 bc 1b 6b 00 bc
       0.0008361915 0.015446346 -0.010949165 -0.007838036
0003b0 88 30 8a bc a1 20 a2 3b a8 1b b7 ba b1 c1 13 bb
       -0.016868845 0.0049477373 -0.0013970034 -0.002254587
0003c0 a2 aa 56 bc b3 df 70 bc 92 3a db bb 80 8c 14 bc
       -0.0131022055 -0.014701772 -0.0066903317 -0.009066701
0003d0 34 0d 9f bb 83 d6 45 3c 44 50 3b 3c 17 08 4e 3c
       -0.004853869 0.012075069 0.011432711 0.012575171
0003e0 b7 ad ba bb 44 07 b9 bb 0c 93 80 3a 67 88 92 3c
       -0.005696978 -0.005646618 0.0009809448 0.017887307
0003f0 7b b5 30 3c 33 72 2e 3c f5 33 89 3c fb 73 7d 3c
       0.010785456 0.010647344 0.016748408 0.015469546

layer1.0.bias f4 [64]
000000 fc 92 d2 bb 1f cb 6b bc ae 5c 2d 3a 2c 5c ac 3c
       -0.0064262133 -0.01439169 0.00066132366 0.021040045
000010 18 1a a4 3b 89 dd 53 bc bd 04 2c bc c4 78 26 bb
       0.0050079934 -0.012931236 -0.010499177 -0.0025401572
000020 c2 18 f2 bc 1c 99 9c 3b d4 1f c9 3b 48 21 b0 bc
       -0.029552821 0.0047789942 0.0061378274 -0.021500245
000030 1e b6 07 bc b1 bb 38 bc b4 27 75 bc f0 96 05 3a
       -0.008283166 -0.011275218 -0.014963079 0.0005096039
000040 14 1e 91 bc b3 90 9e 3b 9a e3 12 bc 15 17 bb bc
       -0.017714538 0.004839027 -0.008965397 -0.022838155
000050 8c 4d 2b bb 7c 1b 45 3c 0e 3d 5f 3b 49 31 76 bc
       -0.002613875 0.012030479 0.003406349 -0.015026399
000060 7f 2d 1f bc a2 51 b1 bc d3 a4 f1 bc 62 da 95 bb
       -0.009715437 -0.02164537 -0.02949754 -0.0045731524
000070 01 df 4c 3c 9a 7f 2b bc b8 3d 48 3c 88 fb 8c bc
       0.01250434 -0.010467434 0.012221746 -0.017209783
000080 9c a0 20 3c be d4 0b bc 03 44 ad 3c a9 c5 8e bc
       0.009803917 -0.008534608 0.021150595 -0.017428236
000090 17 23 ab bc 09 9f 3e 3c 9f f0 92 bc 97 be 0a bd
       -0.020890756 0.011634597 -0.017937003 -0.033873167
0000a0 b3 6f b2 bc 3a c8 28 bb 25 14 35 3c 11 db 68 bc
       -0.021781778 -0.002575411 0.011052166 -0.014212386
0000b0 2f 3e 54 bc a9 2d 2b bb d9 ed f0 3a 73 db 5e bc
       -0.012954279 -0.0026119745 0.0018381431 -0.013602125
0000c0 e0 eb cf 37 7c 35 ae 3b 1b 1d d1 bc a7 44 1c bc
       2.478616e-05 0.0053164344 -0.025526574 -0.009537852
0000d0 8e 2d b2 3c 11 08 08 3c 35 6b 70 3b 1e 85 b7 ba
       0.021750238 0.008302704 0.0036684994 -0.0014001464
0000e0 68 85 35 3b cd 18 d4 bb c1 aa 00 3c 8f 28 1a bc
       0.0027697925 -0.006472683 0.007853211 -0.009409084
0000f0 f6 66 c1 bc c7 34 9b bc 93 01 7b 3c 65 ff 8b bc
       -0.023608666 -0.018946065 0.0153202 -0.017089555

layer2.0.weight f4 [32, 64]
000000 06 bc 05 3d 7c 23 ac bc db f5 da bd b1 3a c0 bd
       0.032650016 -0.021013014 -0.106914245 -0.093861945
000010 c8 32 b0 bd 4d 99 ee 3d be 4e e7 bd 0b 5a d1 3d
       -0.08603436 0.116503336 -0.11294316 0.102222525
000020 61 fe 13 bd 38 bb 06 be 82 65 be 3d 92 27 f0 bd
       -0.036131267 -0.13157356 0.09296705 -0.117262974
000030 e2 8d e1 3c cc 00 c4 3d 15 c4 82 3d 68 36 c5 3d
       0.027533475 0.095704645 0.06385056 0.09629518
000040 ff 3c a5 3d 0a 57 7e 3d 3b 45 8d 3d 97 71 64 bd
       0.08068275 0.062094726 0.0689797 -0.05577239
000050 3d 70 2b 3c c4 8d 84 bd 7d ea ce bd bd 75 cf bd
       0.010463771 -0.06472352 -0.10103319 -0.10129879
000060 23 15 27 3c 09 4c ee 3c 4a 4c 0b bd 1e 4e d1 bd
       0.0101979105 0.02908899 -0.0340083 -0.10219978
000070 80 b7 c9 bd 2b 06 c5 3c ab cf 53 3c f4 d1 ca 3d
       -0.09849453 0.024050793 0.01292793 0.09903327
000080 e3 08 b0 3d b1 de 8e bd 15 83 c1 bc 3b df e7 bd
       0.08595445 -0.06976069 -0.023622075 -0.11321875
000090 8b af ad 3c ed ea ad 3d 96 ad 8f 3d ed f5 03 bb
       0.02120187 0.08492074 0.07015531 -0.0020135597
0000a0 2c 73 33 3d 31 80 e7 bd 00 63 e3 3d 1b 6e cf bd
       0.04381101 -0.113037474 0.11102867 -0.10128423
0000b0 4f d2 aa 3d 3c 74 80 bc e5 ad 82 bd 6c 05 87 3d
       0.083408944 -0.015680425 -0.06380824 0.06592831
0000c0 e2 6b fe bd c5 04 98 bc a1 b9 63 3d 0b 94 00 be
       -0.12422921 -0.018556962 0.05559695 -0.12556474
0000d0 f3 c2 a9 3c 37 8d a1 3d 75 a4 d3 3d 34 7a 08 3d
       0.020722842 0.07888263 0.10334102 0.033319667
0000e0 3b 54 92 bd 11 8e a8 bd 2c d9 e5 bd 03 b9 a3 bd
       -0.07144972 -0.08230222 -0.11223063 -0.079942726
0000f0 bb db 41 3d c8 46 7d 3d 57 cf 64 bd 46 17 c8 3d
       0.047328692 0.06183508 -0.055861797 0.09770064
000100 af b6 4c bd 79 c1 84 bd b3 7e ad 3c 07 4d 37 3d
       -0.04997891 -0.064822145 0.021178579 0.044751193
000110 c4 f4 b3 bd eb 03 83 3d 6d 06 d1 3d 41 4a a5 bd
       -0.0878692 0.06397232 0.10206304 -0.080708034
000120 45 ae ce bd 50 09 f6 bb e5 44 3d bd 5f cb 9c bd
       -0.10091833 -0.0075084344 -0.04620828 -0.076559775
000130 30 6a 60 3c bc 8c ad bd 45 09 50 3d eb 3e 75 3a
       0.013697192 -0.084741086 0.05079009 0.0009355384
000140 9e d8 28 3c c9 1f 7c 3d e4 0f a4 bc ae 4e 52 bd
       0.010305552 0.06155375 -0.020027108 -0.051344566
000150 04 22 8a 3c f1 5f 9d bd 3f 26 76 3d ae 83 c8 3d
       0.016861923 -0.07684315 0.060095068 0.09790741
000160 ef c5 bc 3d 87 71 41 bc b4 b8 aa 3c 3d 06 f0 3d
       0.0921744 -0.011806852 0.020840026 0.1171994
000170 cc cf 2a 3d f9 af cf 3d 1d a1 8e 3d 17 57 c2 3b
       0.041702077 0.10140986 0.06964324 0.005930792
000180 3e de 79 3c f4 ac 98 3a 71 e3 a1 3c 3d 0a af 3c
       0.015250741 0.0011648224 0.019761773 0.021367187
000190 53 9d e6 3c 1e 53 c3 bd d8 d3 61 bd 5e 3e 4b bd
       0.02815119 -0.09537338 -0.05513367 -0.049620025
0001a0 3a 71 85 bd 0b d8 67 bd 0a ce 34 3d af b8 d6 3c
       -0.06515737 -0.05660252 0.044141807 0.02621111
0001b0 05 fe ec bd 4e ec 3c 3d 86 2a 32 bd 25 6e c2 bd
       -0.11571888 0.046123795 -0.043497585 -0.09493665
0001c0 f1 d1 40 bc 5f bf a2 bc d6 d8 d1 3c 83 97 c7 3b
       -0.011768804 -0.019866643 0.02561609 0.0060910597
0001d0 31 ce d5 3c c0 ba b1 bb 14 a0 8c 3c 6f a2 5b bd
       0.026099296 -0.0054238737 0.017166175 -0.053621706
0001e0 5d 83 11 bd f1 3d 83 3b 4b e6 bb bd b7 0e 35 3d
       -0.03552567 0.0040051867 -0.09174784 0.044203486
0001f0 3d cd 35 3d cc a4 e0 bd b9 32 f2 bd a4 84 93 3d
       0.044385184 -0.109689325 -0.11826081 0.072030336
000200 42 c4 62 bd 33 3e 9d 3d 6d db c4 3c 8e 8a fa 3c
       -0.055362947 0.07677879 0.024030412 0.030583646
000210 73 20 d4 3d c7 36 a3 bd 4d 4a 90 3c 25 67 16 bd
       0.10357752 -0.07969432 0.017613554 -0.03671946
000220 fd 93 5b bd 19 bf 6c 3d a6 e7 fc bc 2b 52 68 bb
       -0.05360793 0.057799432 -0.030872177 -0.0035449367
000230 ba f7 91 bd 1e 6b 4c 3d 0c 82 e1 bc f7 2a ea bd
       -0.07127328 0.049906842 -0.027527831 -0.11433976
000240 1c ba 94 bc 85 7c ff bd 2c 17 12 bd b9 9f d7 3d
       -0.01815515 -0.12474922 -0.03566663 0.105285116
000250 e9 04 ce 3d e0 1f 37 3d 97 cd 77 3d 78 74 78 39
       0.1005953 0.044708133 0.0604988 0.00023694511
000260 31 f6 fa bd 5f 16 b6 bd 62 71 ed bd 97 2d 7f 3d
       -0.122539885 -0.08890986 -0.11593892 0.062299337
000270 5d 04 99 bd e9 04 9f 3d dc 4c ab bd fc 51 de bc
       -0.07471535 0.077646084 -0.08364269 -0.027138703
000280 79 69 22 bd bf d4 39 bd 97 70 aa 3d e9 ba 4d bd
       -0.039651368 -0.045368906 0.08322256 -0.05022708
000290 da 1e 31 bd 04 5b da 3d f9 a3 ce 3c ee 2e a2 3c
       -0.043242313 0.10661891 0.025224673 0.019797768
0002a0 e0 aa c5 3c 45 4e a7 bd c2 89 f0 bd 32 de c7 bb
       0.024129331 -0.081692256 -0.11745025 -0.006099486
0002b0 f0 65 78 bd 23 40 3d bd ed cf a7 bd 1f 1e 70 bc
       -0.06064409 -0.046203744 -0.081939556 -0.014655619
0002c0 ca dc af 3d 7a c9 f5 bd 2c 7b c1 3d ba bb 41 bd
       0.08587034 -0.12001319 0.09447321 -0.04729817
0002d0 a0 8e 1d bc 2b f0 9d bd c3 6b a1 3d a6 f1 ed bd
       -0.009616524 -0.07711824 0.07881882 -0.116183564
0002e0 e1 a7 e5 3d 35 d1 53 3d 55 d6 8c bb bf e2 86 bd
       0.11213661 0.051713187 -0.0042980113 -0.06586217
0002f0 43 47 e0 bd 71 41 b0 3d bd 2d a2 3d 7d 5e e4 bd
       -0.10951092 0.08606232 0.0791888 -0.11150835
000300 47 c8 90 3d 6a f1 ec 3d e6 3e f5 3d 80 fd d6 bd
       0.0706945 0.115694836 0.119748875 -0.1049757
000310 48 ae bb 3d 89 09 86 bd 3d ff 9b 3c 01 06 8f 3d
       0.09164101 -0.065447874 0.019042606 0.06983567
000320 b8 f7 32 bd 7a 0e 8c 3d af 02 11 bd 38 8d 85 bc
       -0.043693274 0.06838699 -0.03540295 -0.01630269
000330 ce 93 eb bd 9e f8 70 bc b4 e6 fb bd 3b 7d eb 3d
       -0.11502801 -0.014707712 -0.122998625 0.11498495
000340 a6 a5 e0 3d 3c 28 de bd 40 14 d5 bd 21 8a 1c bd
       0.10969095 -0.10847518 -0.10404253 -0.038217667
000350 03 4a 9b bd 4d 7f 80 bc 9f 46 95 3d 64 e3 71 3d
       -0.07582476 -0.015685702 0.072888605 0.059054747
000360 1e 24 f4 bd 4a 2b a7 3d cb 53 44 3d 94 97 81 bd
       -0.11920951 0.081625536 0.047931474 -0.06327739
000370 c7 6a c8 3d 9e 80 81 3b f1 a6 63 3d 85 03 2e 3d
       0.09785991 0.0039521 0.05557913 0.042483825
000380 18 36 87 ba c6 0e 71 3d 09 28 00 3d 9f 8f f9 bd
       -0.0010315804 0.05885198 0.03128818 -0.12185597
000390 24 9b d8 3d 19 c3 e0 3d 61 93 96 bd c4 8e b1 3d
       0.10576466 0.10974712 -0.07352329 0.086698085
0003a0 63 56 b1 bd 0a 79 9f bd f5 ef a8 bd 69 db c3 bd
       -0.08659055 -0.07786758 -0.08248893 -0.095633335
0003b0 77 f7 0f bd 10 12 95 bd 92 68 c6 bd fb a0 8c 3c
       -0.03514811 -0.07278836 -0.09687914 0.017166605
0003c0 39 7b be bd ca e7 1d bd 72 82 d2 3c a9 a6 08 bd
       -0.093008466 -0.03855113 0.025696967 -0.033362065
0003d0 12 21 ff bd be 1f 2a 3d 51 b8 84 3d c1 16 cf bd
       -0.124574795 0.041534178 0.06480468 -0.10111762
0003e0 98 ca a2 3c 63 f2 79 bb 7e c9 84 3b 9b 28 a2 3c
       0.019871995 -0.0038138859 0.00405234 0.019794753
0003f0 c3 f1 71 bd 05 ff fc bc 36 21 58 bc 00 ed 23 3c
       -0.059068453 -0.030883322 -0.013191512 0.010005236

layer2.0.bias f4 [32]
000000 1f 98 ac bc 94 ef 41 3d 90 7d f3 bd 45 9d 25 bd
       -0.02106863 0.04734762 -0.118891835 -0.040433187
000010 a5 cc 86 bd a5 8e bd bd 02 5c d1 ba cc ad d4 bd
       -0.065820016 -0.09255723 -0.0015972855 -0.103847116
000020 14 ee 6d bc 4a 06 90 bd 3c 49 ef bd e3 d1 99 bc
       -0.014522094 -0.070324495 -0.1168389 -0.01877684
000030 4d 5b 01 be 93 b6 d0 bc be 27 d0 bd 98 52 02 3e
       -0.12632485 -0.025477683 -0.1016383 0.1272682
000040 95 7e 42 bd 95 ab 00 3d c6 98 e7 3d 67 63 50 bd
       -0.047484 0.031413633 0.11308436 -0.050876047
000050 72 3c bc bc de c8 00 3d 46 48 eb bd d0 8f 62 3d
       -0.022978041 0.031441562 -0.114883944 0.05531293
000060 d4 67 05 be 2d 62 6e bd 08 c1 9e 3c 02 53 07 3d
       -0.13027889 -0.058199096 0.019379154 0.033038147
000070 ab 92 8b 3d cf 8c d7 3c fb 78 99 3d bb 57 dc 3d
       0.06815084 0.02631226 0.07493778 0.10758921

classifier.weight f4 [50, 32]
000000 9f df 36 be 62 df 4f be d2 d2 af bd c1 69 45 3d
       -0.17858742 -0.20300058 -0.08585133 0.048196558
000010 3c 0f a7 bd 2c 30 1f be 40 cc 21 3e da d2 90 bd
       -0.081572026 -0.1554572 0.15800571 -0.07071467
000020 93 db 07 be 3b b7 03 3d e0 93 fb 3d dd f0 a6 bd
       -0.13267355 0.032157164 0.12284064 -0.0815141
000030 e7 0b ec 3d cb 86 16 be 3c 14 fe 3d be 11 45 3e
       0.11525708 -0.14699857 0.12406203 0.1924505
000040 0f 0b 22 bb 8c d1 f9 3d 64 c5 75 bd 4e 9a 76 be
       -0.002472583 0.12198171 -0.0600027 -0.240823
000050 79 34 bb 3c 4c 2c 3b be bf ce dd 3d 14 26 51 3c
       0.02285217 -0.18278617 0.10830449 0.012765426
000060 9a 11 56 bd fe 79 8f bd 1b 92 42 bd 2a 36 06 3d
       -0.05226288 -0.0700569 -0.04750262 0.0327665
000070 c2 ff 63 be d6 02 10 bd cc 3f 32 3c c8 9e 8e be
       -0.22265533 -0.035158955 0.010879468 -0.27855515
000080 a5 ef 9f bd 5f 90 37 be f7 0a c6 bd c1 3b b1 bd
       -0.078093804 -0.17926167 -0.0967006 -0.08653975
000090 81 c4 83 bd ef 09 28 be 7d cb 95 bd 6b e0 02 3e
       -0.064339645 -0.1641004 -0.07314203 0.12780921
0000a0 6f bf 3e 3c 25 59 67 3d 28 61 af bd ce b3 1d 3e
       0.011642321 0.0564815 -0.08563453 0.15400621
0000b0 d8 2a 72 bd 5c 80 ca 3d ac ea 88 bc fd e2 15 be
       -0.05912289 0.09887764 -0.016713463 -0.1463737
0000c0 d1 3f 39 be 7c b0 13 be 68 44 85 be 1c 0b 51 3d
       -0.1809075 -0.14422792 -0.26028752 0.051035985
0000d0 4a 11 93 bb 79 70 cd 3d af 66 25 3e 94 73 a0 3d
       -0.004488145 0.10031218 0.16152452 0.07834545
0000e0 61 41 47 3d cd ef 5e be 9b 73 88 be 57 1e 55 bd
       0.048646335 -0.21771164 -0.266507 -0.052030887
0000f0 a2 69 03 be b6 f6 4a 3d 21 53 7a bd 4f 88 6a 3e
       -0.12833264 0.049551688 -0.061114434 0.2290356
000100 59 25 12 be bd 8e 56 be af 5c 43 bb 3b fd 56 3d
       -0.1427206 -0.20952888 -0.0029809882 0.052487593
000110 7d de 9f 3d 99 58 21 3e 8f 63 d8 bd 89 16 48 bd
       0.07806108 0.15756454 -0.10565864 -0.048849616
000120 65 5d ff 3c 08 e5 cc bd ef a1 0e be 7f f6 18 be
       0.031172464 -0.10004622 -0.1392896 -0.14937781
000130 6b eb f8 bd 61 ac b1 3d 57 55 8d 3a 3b f1 82 3e
       -0.121542774 0.08675457 0.001078288 0.2557467
000140 8d be 4d bd b9 bf 1f 3e ab 1e bf 3d 42 95 33 3d
       -0.05023055 0.1560048 0.09332021 0.043843515
000150 ca e5 13 bd 72 ca 64 3d ab 28 29 be 9c 64 b8 bd
       -0.036107816 0.05585713 -0.1651942 -0.09003565
000160 af f6 07 be 37 6f 6c 3c 36 c6 cb 3d eb fe 19 3e
       -0.13277696 0.014430813 0.09949915 0.1503865
000170 ae 13 3a 3e eb 8a 41 be f1 d4 ee 3b 35 31 57 3e
       0.1817157 -0.18900649 0.007288568 0.21014865
000180 d8 c9 d1 bd 27 4d 4a 3e 3b ce 37 3e 4b 4f a0 bd
       -0.10243577 0.19755994 0.17949764 -0.07827624
000190 bf 59 62 bd 44 0a 17 3e 7d 1f a0 3d 26 fe e8 3d
       -0.05526137 0.1475001 0.07818506 0.113766
0001a0 f9 03 1c 3e 31 60 4e ba f8 0d 2a 3e 2e 7a 5d bd
       0.1523589 -0.000787261 0.16606891 -0.054071598
0001b0 19 5d cd 3d 80 b8 aa bd f6 cb 45 3e 9d 6e 73 bd
       0.100275226 -0.08335972 0.19316086 -0.05943166
0001c0 1b b1 5b 3d 95 4c 94 bd f9 d7 44 be 71 0f 98 bd
       0.053635698 -0.07241169 -0.19223012 -0.0742482
0001d0 8f 1a ba bc 25 3c ec bd 9b 90 a0 3b 5e e1 35 3d
       -0.022717742 -0.11534909 0.004900051 0.04440438
0001e0 47 2b 25 be b7 db 80 3d d3 fa dd bd fc 68 5c bd
       -0.1612979 0.06291907 -0.108388565 -0.05381106
0001f0 10 a5 ab 3d 17 d1 ac bd 58 c5 50 3e 22 5b e4 3d
       0.083810925 -0.08438318 0.2038778 0.11150195
000200 20 9e 9f 3b cc 17 a1 bc 0b b1 42 bc 87 8b 2a 3e
       0.004871145 -0.019664668 -0.011883031 0.16654788
000210 c1 a4 74 bd cb bf 1c 3e 33 34 45 3e 1e eb 8e 3d
       -0.059727434 0.15307538 0.19258194 0.06978439
000220 c4 5b cc 3c 97 51 14 3e 01 c3 92 3d df 51 15 3e
       0.024946101 0.14484249 0.071661 0.14582013
000230 26 6f c0 3d 6f f1 69 be e4 df 2d be 66 df 29 be
       0.093962 -0.22846006 -0.16979939 -0.16589126
000240 e0 9b e1 3d b5 85 2d be 8e c3 99 bd f8 28 18 3d
       0.11016059 -0.16945536 -0.07508002 0.037148446
000250 d4 fb 63 3e 25 ee a9 bc 4b aa c7 bc 1b ca c9 bd
       0.22264034 -0.020743439 -0.024373194 -0.09853002
000260 de 15 00 be 57 9c d2 bd 3f 3f 51 3d 18 6e 08 bd
       -0.12508342 -0.10283726 0.051085707 -0.03330812
000270 ab 7c 85 bc 5e 37 8a bd 9a ae 4d be 32 f6 0c 3e
       -0.016294798 -0.06748842 -0.20086136 0.13765791
000280 34 00 71 3d b2 48 88 be f9 c9 2c be 5f c4 3e be
       0.058838084 -0.26617962 -0.16873921 -0.18629597
000290 0a 09 db bc a1 82 03 bc 8c d7 08 be 8d 24 f7 bd
       -0.026737709 -0.00802675 -0.13363475 -0.120675184
0002a0 ff c7 94 bc 06 e4 a2 3c 5a 65 70 bc 00 7d 8c bd
       -0.018161772 0.01988412 -0.014672602 -0.06859779
0002b0 28 81 1f be a3 fd ca 3c f4 a8 15 be 68 86 95 3c
       -0.15576613 0.024779147 -0.14615232 0.018252566
0002c0 8b 68 2e bb ef 49 5b bd 55 d6 af bd 51 f1 27 3d
       -0.0026612605 -0.053537305 -0.085858025 0.04100162
0002d0 93 49 ea bd 7b e8 b8 3b 49 e6 e7 bd a3 15 1a bd
       -0.114398144 0.005642948 -0.1132322 -0.03761829
0002e0 dd af 43 bd 61 50 0c bc 43 b4 4f be a6 22 a0 bd
       -0.04777514 -0.008564086 -0.20283608 -0.07819109
0002f0 c9 7c 15 be 39 46 86 be 7c cb 65 be 11 e6 36 be
       -0.14598383 -0.2622545 -0.22440904 -0.17861201
000300 8c db 96 bd 1b cc dd 3d 53 e9 04 3a 0c e5 9a bd
       -0.07366094 0.10829946 0.00050701684 -0.075632185
000310 3c a2 12 bb 08 9d ef 3d 51 dc d5 3c 35 d0 f6 bd
       -0.0022374531 0.11699873 0.026106032 -0.12051431
000320 62 34 38 3d 33 ae 14 3d d2 b8 a8 3d 1c 88 92 3c
       0.04497183 0.03629894 0.08238377 0.017887168
000330 0b dc 19 3e 8c 50 fd bd 4d 01 c7 3c a4 89 b7 3d
       0.15025346 -0.12368879 0.024292612 0.089618
000340 4b 5d 8a 3d c7 bb 61 3e fb 98 6a be c2 3d 24 3e
       0.067560755 0.22044288 -0.2290992 0.16039184
000350 d1 1f 24 3e fe 0b 3e be a3 9a 1f be a2 37 1c 3e
       0.16027762 -0.18559262 -0.15586333 0.15255597
000360 25 a4 1c 3e bf 86 6b be 63 fe 8b 3d 81 5c 99 bd
       0.15296991 -0.2300062 0.0683563 -0.07488347
000370 c1 4a 6d 3d 26 75 e6 bd 67 75 06 be bb ca 56 be
       0.05793262 -0.11252813 -0.13130723 -0.20975773
000380 f6 55 dc 3d e0 fe 12 be 06 e3 af bd 4c 31 0f 3b
       0.10758583 -0.1435504 -0.08588223 0.0021849452
000390 77 2f 07 bd 00 01 c3 bd 8f 67 3f be 49 63 3d 3d
       -0.03300425 -0.09521675 -0.18691848 0.046237264
0003a0 89 e7 26 3e 7c 65 c6 bb 5f 1f 88 3d 72 94 74 3c
       0.16299261 -0.0060545783 0.066466086 0.01492797
0003b0 c6 97 1b be 89 25 15 3e a8 df c9 bd 2e 5e df be
       -0.15194616 0.145651 -0.09857112 -0.4362654
0003c0 2a f8 1e be 7e 61 64 3e 7b a4 1a 3e 71 60 79 3d
       -0.15524355 0.22302815 0.15101807 0.06088299
0003d0 c4 6d 20 be 0c aa 30 3e 46 c0 60 bd b8 68 bc bd
       -0.15666872 0.17252368 -0.054870866 -0.09199661
0003e0 37 68 75 3c be dc fa 3d 6b b0 d8 3e dc 4b 12 be
       0.01497846 0.122491345 0.42322096 -0.1428675
0003f0 48 29 a2 3c c9 51 ee 3d fd 56 45 3b 70 a6 1e be
       0.019795075 0.11636693 0.0030111664 -0.15493178

classifier.bias f4 [50]
000000 0a fa ad 3d bd 87 67 bd 82 d7 a3 bd fe 93 8c 3b
       0.08494957 -0.056525934 -0.08000089 0.004290103
000010 8c 15 8c bc 51 70 52 bd c3 1a 96 3d fc 88 75 3d
       -0.017100118 -0.051376645 0.07329323 0.05994509
000020 a9 67 58 3d d5 72 bf bd 7c b8 c2 3c e7 1a f9 bc
       0.052833233 -0.09348074 0.02376961 -0.030408336
000030 47 91 b9 3c 8b 46 8b 3d 1c 56 d0 bd be c0 07 bd
       0.022652281 0.068005644 -0.10172674 -0.033142798
000040 83 76 07 3d 20 91 d3 3c ce ae 26 3d cf ae 93 bd
       0.033072006 0.025826037 0.04069405 -0.072110765
000050 a2 34 45 bd 7e 67 6b 3d 29 0b b8 bd ac c1 e0 bd
       -0.048145898 0.057471745 -0.08986504 -0.1097444
000060 43 8c 2e 3c d8 55 a7 3d 21 a5 e4 bc ae 80 98 bd
       0.010653558 0.0817067 -0.02791077 -0.07446419
000070 74 81 e2 bd bd 50 96 bd 14 92 02 3c 9a e1 af 3d
       -0.110598475 -0.07339618 0.007969398 0.08587952
000080 2a 06 e1 3c 05 c7 a8 3d 14 56 c1 3c 43 0e 69 3b
       0.02746876 0.08241085 0.023600616 0.003556148
000090 c5 a3 44 3c ae 1b ab 3d 10 51 3d bd 50 4f ca bc
       0.012001936 0.08354889 -0.046219885 -0.024696022
0000a0 b6 51 7a bd cf f6 a8 3d e1 6f 90 bd 64 c5 af bd
       -0.061113082 0.082502 -0.07052589 -0.08582571
0000b0 29 03 23 bd ea f8 a7 bd 77 13 aa bd 03 57 45 3d
       -0.039797936 -0.082017735 -0.08304494 0.048178684
0000c0 c3 48 6b 3d 9b f6 a2 bc
       0.057442438 -0.019892981
